ergoCubSN001/friction_pinn/2_lap_b4788_h9.onnx (onnx, 314407 bytes, 7 tensors)

0.weight f4 [18, 18]
000000 ba e2 26 41 00 00 00 00 00 00 00 00 00 00 00 00
       10.430353 0.0 0.0 0.0
000010 00 00 00 00 00 00 00 00 00 00 00 00 00 00 00 00
       0.0 0.0 0.0 0.0
000020 00 00 00 00 00 00 00 00 00 00 00 00 00 00 00 00
       0.0 0.0 0.0 0.0
000030 00 00 00 00 00 00 00 00 00 00 00 00 00 00 00 00
       0.0 0.0 0.0 0.0
000040 00 00 00 00 00 00 00 00 00 00 00 00 ba e2 26 41
       0.0 0.0 0.0 10.430353
000050 00 00 00 00 00 00 00 00 00 00 00 00 00 00 00 00
       0.0 0.0 0.0 0.0
000060 00 00 00 00 00 00 00 00 00 00 00 00 00 00 00 00
       0.0 0.0 0.0 0.0
000070 00 00 00 00 00 00 00 00 00 00 00 00 00 00 00 00
       0.0 0.0 0.0 0.0
000080 00 00 00 00 00 00 00 00 00 00 00 00 00 00 00 00
       0.0 0.0 0.0 0.0
000090 00 00 00 00 00 00 00 00 ba e2 26 41 00 00 00 00
       0.0 0.0 10.430353 0.0
0000a0 00 00 00 00 00 00 00 00 00 00 00 00 00 00 00 00
       0.0 0.0 0.0 0.0
0000b0 00 00 00 00 00 00 00 00 00 00 00 00 00 00 00 00
       0.0 0.0 0.0 0.0
0000c0 00 00 00 00 00 00 00 00 00 00 00 00 00 00 00 00
       0.0 0.0 0.0 0.0
0000d0 00 00 00 00 00 00 00 00 00 00 00 00 00 00 00 00
       0.0 0.0 0.0 0.0
0000e0 00 00 00 00 ba e2 26 41 00 00 00 00 00 00 00 00
       0.0 10.430353 0.0 0.0
0000f0 00 00 00 00 00 00 00 00 00 00 00 00 00 00 00 00
       0.0 0.0 0.0 0.0
000100 00 00 00 00 00 00 00 00 00 00 00 00 00 00 00 00
       0.0 0.0 0.0 0.0
000110 00 00 00 00 00 00 00 00 00 00 00 00 00 00 00 00
       0.0 0.0 0.0 0.0
000120 00 00 00 00 00 00 00 00 00 00 00 00 00 00 00 00
       0.0 0.0 0.0 0.0
000130 ba e2 26 41 00 00 00 00 00 00 00 00 00 00 00 00
       10.430353 0.0 0.0 0.0
000140 00 00 00 00 00 00 00 00 00 00 00 00 00 00 00 00
       0.0 0.0 0.0 0.0
000150 00 00 00 00 00 00 00 00 00 00 00 00 00 00 00 00
       0.0 0.0 0.0 0.0
000160 00 00 00 00 00 00 00 00 00 00 00 00 00 00 00 00
       0.0 0.0 0.0 0.0
000170 00 00 00 00 00 00 00 00 00 00 00 00 ba e2 26 41
       0.0 0.0 0.0 10.430353
000180 00 00 00 00 00 00 00 00 00 00 00 00 00 00 00 00
       0.0 0.0 0.0 0.0
000190 00 00 00 00 00 00 00 00 00 00 00 00 00 00 00 00
       0.0 0.0 0.0 0.0
0001a0 00 00 00 00 00 00 00 00 00 00 00 00 00 00 00 00
       0.0 0.0 0.0 0.0
0001b0 00 00 00 00 00 00 00 00 00 00 00 00 00 00 00 00
       0.0 0.0 0.0 0.0
0001c0 00 00 00 00 00 00 00 00 ba e2 26 41 00 00 00 00
       0.0 0.0 10.430353 0.0
0001d0 00 00 00 00 00 00 00 00 00 00 00 00 00 00 00 00
       0.0 0.0 0.0 0.0
0001e0 00 00 00 00 00 00 00 00 00 00 00 00 00 00 00 00
       0.0 0.0 0.0 0.0
0001f0 00 00 00 00 00 00 00 00 00 00 00 00 00 00 00 00
       0.0 0.0 0.0 0.0
000200 00 00 00 00 00 00 00 00 00 00 00 00 00 00 00 00
       0.0 0.0 0.0 0.0
000210 00 00 00 00 ba e2 26 41 00 00 00 00 00 00 00 00
       0.0 10.430353 0.0 0.0
000220 00 00 00 00 00 00 00 00 00 00 00 00 00 00 00 00
       0.0 0.0 0.0 0.0
000230 00 00 00 00 00 00 00 00 00 00 00 00 00 00 00 00
       0.0 0.0 0.0 0.0
000240 00 00 00 00 00 00 00 00 00 00 00 00 00 00 00 00
       0.0 0.0 0.0 0.0
000250 00 00 00 00 00 00 00 00 00 00 00 00 00 00 00 00
       0.0 0.0 0.0 0.0
000260 ba e2 26 41 00 00 00 00 00 00 00 00 00 00 00 00
       10.430353 0.0 0.0 0.0
000270 00 00 00 00 00 00 00 00 00 00 00 00 00 00 00 00
       0.0 0.0 0.0 0.0
000280 00 00 00 00 00 00 00 00 00 00 00 00 00 00 00 00
       0.0 0.0 0.0 0.0
000290 00 00 00 00 00 00 00 00 00 00 00 00 00 00 00 00
       0.0 0.0 0.0 0.0
0002a0 00 00 00 00 00 00 00 00 00 00 00 00 b2 a7 68 44
       0.0 0.0 0.0 930.62024
0002b0 00 00 00 00 00 00 00 00 00 00 00 00 00 00 00 00
       0.0 0.0 0.0 0.0
0002c0 00 00 00 00 00 00 00 00 00 00 00 00 00 00 00 00
       0.0 0.0 0.0 0.0
0002d0 00 00 00 00 00 00 00 00 00 00 00 00 00 00 00 00
       0.0 0.0 0.0 0.0
0002e0 00 00 00 00 00 00 00 00 00 00 00 00 00 00 00 00
       0.0 0.0 0.0 0.0
0002f0 00 00 00 00 00 00 00 00 fe a5 68 44 00 00 00 00
       0.0 0.0 930.5936 0.0
000300 00 00 00 00 00 00 00 00 00 00 00 00 00 00 00 00
       0.0 0.0 0.0 0.0
000310 00 00 00 00 00 00 00 00 00 00 00 00 00 00 00 00
       0.0 0.0 0.0 0.0
000320 00 00 00 00 00 00 00 00 00 00 00 00 00 00 00 00
       0.0 0.0 0.0 0.0
000330 00 00 00 00 00 00 00 00 00 00 00 00 00 00 00 00
       0.0 0.0 0.0 0.0
000340 00 00 00 00 3f ae 68 44 00 00 00 00 00 00 00 00
       0.0 930.7226 0.0 0.0
000350 00 00 00 00 00 00 00 00 00 00 00 00 00 00 00 00
       0.0 0.0 0.0 0.0
000360 00 00 00 00 00 00 00 00 00 00 00 00 00 00 00 00
       0.0 0.0 0.0 0.0
000370 00 00 00 00 00 00 00 00 00 00 00 00 00 00 00 00
       0.0 0.0 0.0 0.0
000380 00 00 00 00 00 00 00 00 00 00 00 00 00 00 00 00
       0.0 0.0 0.0 0.0
000390 25 91 68 44 00 00 00 00 00 00 00 00 00 00 00 00
       930.2679 0.0 0.0 0.0
0003a0 00 00 00 00 00 00 00 00 00 00 00 00 00 00 00 00
       0.0 0.0 0.0 0.0
0003b0 00 00 00 00 00 00 00 00 00 00 00 00 00 00 00 00
       0.0 0.0 0.0 0.0
0003c0 00 00 00 00 00 00 00 00 00 00 00 00 00 00 00 00
       0.0 0.0 0.0 0.0
0003d0 00 00 00 00 00 00 00 00 00 00 00 00 0f 93 68 44
       0.0 0.0 0.0 930.2978
0003e0 00 00 00 00 00 00 00 00 00 00 00 00 00 00 00 00
       0.0 0.0 0.0 0.0
0003f0 00 00 00 00 00 00 00 00 00 00 00 00 00 00 00 00
       0.0 0.0 0.0 0.0

0.bias f4 [18]
000000 cd 06 19 c0 5d 29 19 c0 bc 39 19 c0 34 4e 19 c0
       -2.39104 -2.3931496 -2.3941488 -2.3953981
000010 04 67 19 c0 ce 79 19 c0 4f a6 19 c0 a0 c1 19 c0
       -2.3969126 -2.3980594 -2.4007757 -2.402443
000020 c9 ec 19 c0 d3 4a bf 3f 1f 8b bf 3f f0 d2 bf 3f
       -2.4050772 1.494471 1.4964331 1.4986248
000030 ab fb bf 3f 91 3c c0 3f ad 7b c0 3f d4 ab c0 3f
       1.4998678 1.5018483 1.5037743 1.5052438
000040 ef ed c0 3f ac 17 c1 3f
       1.5072612 1.5085349

1.l0.weight f4 [270, 18]
000000 90 a8 50 be 0a e2 36 bd e7 41 a8 bd 36 0c 0c be
       -0.20376801 -0.04464916 -0.08215695 -0.13676533
000010 68 fa 31 3e 50 a9 2f 3d 04 7a 41 be 30 a9 2d be
       0.17380679 0.04288608 -0.18894202 -0.16959071
000020 1d 19 90 bd 04 1b 64 bc 82 e3 77 bd 77 6b 54 be
       -0.0703604 -0.013922457 -0.060519703 -0.2074412
000030 27 1f 4e be 39 ef 3b 3e 14 38 08 be 5e 99 0e 3d
       -0.20129071 0.18352975 -0.13302642 0.03481423
000040 ad 37 0c be c1 7b 56 be 60 4a 69 39 f5 81 4a be
       -0.13693114 -0.20945646 0.00022248318 -0.19776137
000050 ec 58 b1 bc b7 20 82 3d c9 67 d7 3d 3d 81 85 bd
       -0.021648847 0.06353896 0.10517842 -0.06518791
000060 81 16 09 be 97 3c 52 3e 47 9e 43 3e f2 b2 5a bd
       -0.13387491 0.20530926 0.19103347 -0.05339331
000070 bd 1a 4f bd 99 64 b5 3b 6d 4d 6e 3e 1b 57 26 bc
       -0.05056261 0.005535674 0.23271723 -0.0101526035
000080 fd 79 0c 3d f1 7a 50 3d 80 c4 6f 3d 57 e6 cb bd
       0.034296025 0.050898496 0.058537006 -0.09956043
000090 fc ee 9d 3d ce 6f c3 bd 64 d8 1c 3e 6e 69 eb bd
       0.07711598 -0.095428094 0.15316921 -0.114947185
0000a0 ec 76 df 3d 44 8b 80 bb 49 87 ec 3d 72 36 55 be
       0.109113544 -0.0039228518 0.11549241 -0.2082155
0000b0 35 8b 12 3d b1 9a 58 bd 59 6e b3 3d ee ed 35 be
       0.03577729 -0.0528819 0.087612815 -0.17766544
0000c0 55 50 42 bd f4 87 e9 3d f2 3e 66 3d 81 8f 24 bd
       -0.04743989 0.11402884 0.056212373 -0.04017592
0000d0 4f 9e 6a 3b 68 03 08 3e 84 80 37 be 8e ab bf 3d
       0.0035799926 0.1328255 -0.17920119 0.09358893
0000e0 06 ef 1f 3e a9 18 35 be c7 39 f9 bd 56 f7 2d 3e
       0.15618524 -0.17685188 -0.12169223 0.16988882
0000f0 df c9 67 3e 19 e8 12 be 94 47 01 3e 30 ff 0a be
       0.22635601 -0.1434635 0.12624961 -0.13573909
000100 f5 83 36 bd 96 21 09 3e 88 d4 d1 3d db 79 0d 3e
       -0.044559438 0.13391718 0.10245615 0.13816015
000110 64 43 8e 3d 35 2b 2b 3e 5d 61 3b be 6a bc 6e bd
       0.069464475 0.16715701 -0.1829886 -0.058285154
000120 81 d1 03 be db 33 e1 3d 5b c4 92 bd de c4 d6 bd
       -0.12872888 0.10996219 -0.07166358 -0.10486768
000130 ad 78 05 3d 57 25 fd 3d 9b 3a 2f 3e fd 3e 1d be
       0.03258579 0.12360638 0.171122 -0.1535606
000140 bf 33 b4 bb 2c 12 3d 3e 7e 0c 6e 3c 48 1d 81 bc
       -0.0054993327 0.18463963 0.014529346 -0.015761033
000150 e0 9f 58 be c0 e5 4c be a4 3a 42 be 94 7f 90 3d
       -0.21154737 -0.20009518 -0.18967682 0.070555836
000160 16 c8 2d 3e af f4 12 3e cc df 07 3d 39 25 38 bd
       0.16970858 0.14351152 0.033172414 -0.044957373
000170 69 57 5f 3d 74 cd 13 bd cf 2f 96 3d 85 fb 78 3c
       0.05452672 -0.036084607 0.073333375 0.015196686
000180 32 9b 0f 3d 29 64 e1 3c 15 8a 80 3d 4d 54 1b be
       0.035060115 0.02751358 0.06276337 -0.15168877
000190 9a 95 dc bd 53 75 8b bd 5e 28 91 3e d3 71 a0 3e
       -0.10770722 -0.06809487 0.2835111 0.3133684
0001a0 79 72 38 bd 33 6b 61 3c 50 0e 6a bc bd 2d 7f be
       -0.045031045 0.013758468 -0.014285639 -0.24919792
0001b0 84 ca f4 bc b2 93 a7 bd ad 0f df 3d 45 99 ca bc
       -0.029881723 -0.081824675 0.10891662 -0.024731288
0001c0 ce 29 44 3e b7 4e 9c 3d 56 b7 dd 3a 9e 1e f0 bd
       0.19156572 0.07632201 0.00169156 -0.1172459
0001d0 ba ac 97 3d 7c 48 e5 3d 8c f9 79 bd 73 1f 3c bb
       0.07405992 0.11195466 -0.061029002 -0.0028705269
0001e0 c4 c2 cc bd fe e3 f5 3d 08 f3 26 bd 2e 19 75 bb
       -0.09998086 0.12006377 -0.040759116 -0.0037399041
0001f0 70 8e ac 3d 6c 32 45 3e 6e 78 d4 3d 88 9e 3a be
       0.08425605 0.19257516 0.10374533 -0.18224537
000200 2a 0e 26 3e 0b 09 c8 3b 93 2c ea 3d 83 20 a3 3d
       0.1621634 0.0061045936 0.11434283 0.079651855
000210 9a 56 8b bd 7c 4e 8b 3c 6e 07 4e 3e a1 b9 55 3e
       -0.06803627 0.017005198 0.20120022 0.20871593
000220 ad d9 eb 3d bd 3a 13 3e 7f 5e 63 3e 13 b9 0c be
       0.11516128 0.14377876 0.22204016 -0.13742475
000230 fe 85 5c 3e ce 76 a6 bd 79 4a 96 bc 4f d4 28 be
       0.21535489 -0.08128129 -0.018346058 -0.1648724
000240 69 9e 23 be 68 0d 9e bd 85 7b 3d 3d c2 0e c3 3d
       -0.15978397 -0.07717401 0.046260376 0.09524299
000250 74 a2 59 be f9 97 ae bc da d9 25 3e f1 43 c3 3d
       -0.21253377 -0.0213127 0.16196385 0.09534443
000260 08 21 dd 3d 3d 2a d3 bd 05 b6 06 3b f6 bb 2f be
       0.10797316 -0.10310791 0.002055527 -0.17161545
000270 49 17 fc 3d fd 8e f5 bd 5f 62 2c be 15 c6 9b 3d
       0.12309129 -0.119901635 -0.168344 0.076061405
000280 95 49 8b 3e c5 96 02 3e db d7 c1 bd 9a 18 92 bc
       0.27204576 0.12752827 -0.09464999 -0.017833997
000290 87 f4 7f bd e7 8f 0b bd b6 8e 4c 3e d8 a6 e5 bd
       -0.06248906 -0.034072783 0.19976315 -0.112134635
0002a0 d8 d5 7f 3e e5 62 3a 3d b5 31 20 be 35 7f 3b 3e
       0.24983919 0.04550447 -0.15643962 0.18310244
0002b0 6d 4f f6 bd da e8 25 be c8 a4 5c bd e3 a5 8b bd
       -0.12026868 -0.16202107 -0.053868085 -0.0681875
0002c0 0e f3 8f bd 52 da b1 3d 71 d4 92 3d 59 c9 b1 3d
       -0.07028781 0.086842194 0.07169426 0.08680982
0002d0 59 ab c4 bd 44 00 23 be 41 ef 1a bc 6d f7 b8 3d
       -0.096029945 -0.1591807 -0.009456457 0.09031568
0002e0 b0 28 a0 3d ec 50 b9 3b 5d d0 a6 bd cb 60 07 be
       0.078202605 0.0056553986 -0.08145211 -0.13220517
0002f0 8e 54 37 3e 7f cf 32 3e 1a 61 3f 3e 53 dc 00 be
       0.17903349 0.17461966 0.18689385 -0.12584047
000300 08 06 48 bc 0c 02 5c be 1c 3d 67 be 0e b8 e2 3d
       -0.012208469 -0.21485156 -0.22581905 0.11070262
000310 e4 08 2a be d1 e4 09 3e 97 c0 66 bd 0b 4c 91 bd
       -0.16604954 0.13466193 -0.05633601 -0.07094582
000320 69 22 3d be af 72 91 3d 2e 02 17 3e 12 4b a2 3d
       -0.18470158 0.07101952 0.14746925 0.07924475
000330 36 c6 17 bc 0c 50 c4 3d c9 15 40 3c ce 9f 65 be
       -0.009263566 0.0958558 0.011723944 -0.22424242
000340 30 c0 b6 3d 29 a4 88 bd 83 05 48 3e b7 ac b1 bd
       0.089233756 -0.06671936 0.19533353 -0.08675521
000350 1f 1a 06 3e d3 bd 9b 3e d4 53 42 be ad e1 54 be
       0.13095902 0.30418262 -0.1897729 -0.20789213
000360 55 4e 09 3e a5 03 e2 3d 78 3d 30 3e 23 a5 c5 3d
       0.13408788 0.110358514 0.17210948 0.09650638
000370 ff 8a 35 3e 97 d6 47 3d a4 32 c5 bd d1 8a 16 be
       0.17728804 0.048788633 -0.096287996 -0.14701392
000380 5b 10 09 3c 1c be cd 3d 57 1e 7a 3e a3 e0 2d 3e
       0.008365716 0.10046026 0.24425636 0.16980223
000390 27 49 54 bd ac 72 64 be 49 fb 8a 3d b2 1c 08 3e
       -0.051827576 -0.22309369 0.0678621 0.13292196
0003a0 3f 1c 23 bd 36 8e 0b 3e 03 43 0c be c2 9a 22 be
       -0.03982186 0.13628468 -0.13697438 -0.15879348
0003b0 6b 71 ec 3d 7a bb c4 3b 64 9d 23 bb 98 45 a4 3d
       0.1154507 0.0060037943 -0.0024965638 0.080210865
0003c0 92 02 2e bc 4a 0b fa 3d 21 d3 56 bd 70 30 20 be
       -0.01062073 0.122091845 -0.052447442 -0.15643477
0003d0 17 49 03 be 77 c4 c8 3d e0 2e c6 3c 43 ec 95 bc
       -0.1282085 0.09803098 0.024192274 -0.018301135
0003e0 3f 72 9d bd 77 95 28 3e c1 fc 1c bd 4a 31 b9 3d
       -0.07687806 0.16463266 -0.038326982 0.09042604
0003f0 4e c4 a5 bd 57 ea 7f bd 61 d4 23 3e 6e 98 70 3d
       -0.08094083 -0.062479343 0.15998985 0.05873912

1.l0.bias f4 [270]
000000 cc 1b 6d be 42 61 e7 3d ea 33 11 c0 3c d1 a7 bf
       -0.23155135 0.11297847 -2.2687936 -1.3110728
000010 d0 da c3 3f 7e f7 19 3f 2e fa 02 3f d7 8b 93 3e
       1.5301151 0.6014327 0.51162994 0.28817627
000020 01 ba ce bf 23 bf 24 bd dd 65 09 3f b9 0e c1 3e
       -1.6150514 -0.040221345 0.53671056 0.37706545
000030 dd 88 00 bf 5d d2 ad 3f 23 df a0 3f ca b8 e5 bf
       -0.50208837 1.3579823 1.2568096 -1.7947018
000040 6f 5a 8a 3f d2 78 e2 be 50 ff f1 bf 40 41 27 3f
       1.0808848 -0.44232804 -1.890604 0.6533394
000050 46 a1 c0 3f 32 0d 4a bf d4 5d 0d bf 11 45 21 3f
       1.5049217 -0.78926384 -0.55221295 0.6299601
000060 7f b0 b5 3e 28 76 df 3e 58 61 16 c0 e9 87 83 bf
       0.35486218 0.43644834 -2.3496914 -1.0275851
000070 50 dc 07 3f 8b b5 c7 bf 4c 9c f1 3d 9f f8 f1 be
       0.53070545 -1.5602278 0.117973894 -0.47259995
000080 e7 76 09 3e a7 08 6b 3e 9e 38 92 3f 74 3d 06 c0
       0.13424264 0.2295252 1.1423528 -2.0975008
000090 f3 0b ac 3f 94 fe b2 3f 50 79 11 3f 28 c5 87 bf
       1.3441147 1.3983941 0.56825733 -1.0607042
0000a0 0b 56 c8 3f bc 9d 82 3e b8 5b 13 bf 5b 8d 13 3f
       1.5651258 0.25510967 -0.57561827 0.57637566
0000b0 6f 50 fb 3e 8a 84 71 be ac b4 c4 3e 63 1c 0a 3f
       0.49084803 -0.23585716 0.38419092 0.53949565
0000c0 cc 25 5c be 78 61 66 3b 22 cf 50 be 7a 70 08 c0
       -0.21498793 0.003515331 -0.20391515 -2.131865
0000d0 12 c5 19 3e 92 7a f9 3e 02 53 ed bb b1 d1 8d be
       0.15016583 0.48726326 -0.0072425613 -0.27699044
0000e0 8a b0 27 bf ff 09 f9 3e 69 89 d4 3f 06 34 db ba
       -0.6550375 0.4864044 1.6604434 -0.0016723878
0000f0 20 82 d0 3f a3 13 06 3f 2f ab f7 be 90 d6 1f be
       1.6289711 0.52373713 -0.4837279 -0.15609193
000100 70 00 09 bf d4 dc 82 3f e8 01 08 bf 26 c2 cf be
       -0.5351629 1.0223641 -0.5312791 -0.4057781
000110 22 03 b5 3e 4a f4 ad 3f 75 38 01 3e d7 60 e8 3e
       0.35353953 1.3590176 0.12619193 0.45386383
000120 7b 24 05 be 96 ac d9 3f fe 42 d9 bb b7 9c 87 3f
       -0.13002197 1.7005794 -0.0066303005 1.05947
000130 60 9b 00 3e 80 36 28 3e ae c4 fd 3f 87 66 b5 3e
       0.12559271 0.1642704 1.9825647 0.35429785
000140 01 62 19 c0 db cd 07 3f 6d a0 fd be 90 77 13 bf
       -2.3966067 0.53048486 -0.49536458 -0.5760431
000150 a6 46 37 3f c1 25 41 3e b4 d0 47 3f 99 3a 75 3d
       0.71592176 0.18862058 0.7805283 0.059870336
000160 eb fb 0e bd 61 34 b1 3f e7 c2 6a 3f e8 a3 39 3f
       -0.034908216 1.384411 0.9170365 0.72515726
000170 e7 e2 07 c0 f5 48 da 3e 83 a4 1e 3f 61 b0 28 bf
       -2.123224 0.42633787 0.61969775 -0.6589413
000180 4a 2d bf be 2c 5e 23 3f 2f 24 0a bf 99 45 fb 3e
       -0.3733924 0.6381557 -0.5396146 0.49076536
000190 11 e0 c3 be 30 88 8d 3e 09 8b b4 3c 5a c1 42 be
       -0.38256887 0.27642965 0.022038953 -0.1901907
0001a0 e3 19 b1 3f 6a 46 0a bf df 64 0b bf ce cb 9a be
       1.3836025 -0.54013693 -0.5445079 -0.30233616
0001b0 5a 79 73 3e b3 11 b8 3f d3 83 c1 bd 51 14 4e 3e
       0.2377676 1.4380401 -0.094489716 0.20124938
0001c0 7e 1c e1 3f e7 b3 f6 3e b8 b8 c5 be 76 f1 14 c0
       1.758682 0.4818413 -0.38617492 -2.3272376
0001d0 6e c2 ca bf 71 60 42 3e a7 b2 ef be 13 fd 3f 3e
       -1.5840585 0.18982102 -0.46815988 0.18748884
0001e0 e8 16 6a be 20 4f ec be c6 fc 05 c0 11 a5 86 be
       -0.228603 -0.46154118 -2.093553 -0.2629781
0001f0 5e ec 06 3f 0a ab 19 bf b4 ca 07 c0 79 e3 d8 3f
       0.5270442 -0.6002661 -2.121747 1.6944419
000200 fb 6b c8 3e 5b af a8 bd 39 32 05 3f 52 d9 0c 3e
       0.39144883 -0.082365714 0.5202976 0.13754776
000210 77 02 c9 3f 44 aa c1 be 14 43 bf 3c a6 3f f0 3f
       1.5703877 -0.37825215 0.023347415 1.8769424
000220 4c 13 c3 3f 43 ef 8f 3f 7f ac 76 bd f1 8a fc 3e
       1.5240264 1.1244892 -0.0602231 0.49324754
000230 88 b5 fc 3e 86 89 77 bf 3e 8f be 3f 49 92 c4 be
       0.49357247 -0.9669422 1.4887464 -0.38392857
000240 52 87 ed 3e 4e ff dc 3e 24 7c da 3d c1 ec 76 be
       0.46392304 0.43163532 0.10668209 -0.24113752
000250 18 88 7f be ad 84 d2 bf b3 6e 06 3e 0b e3 f9 bf
       -0.2495426 -1.644674 0.13128166 -1.9522413
000260 90 e2 8c bd fe 77 b2 3f 5a 3c b3 be 87 70 0e bf
       -0.06879151 1.3942869 -0.35006982 -0.55640453
000270 81 05 4f 3f 90 92 bc 3f 9b 55 0d bf 0e 44 98 3e
       0.80867773 1.4732227 -0.5520875 0.29739422
000280 75 98 bb 3f 89 cd 9a bf 00 a1 90 3f 18 a7 89 bd
       1.4655901 -1.2093974 1.1299133 -0.06721324
000290 8d af 36 bd 45 c2 de bf 6f 05 09 be 05 51 1a bf
       -0.044601012 -1.7403036 -0.13380979 -0.60279876
0002a0 89 ef f4 3e 51 62 2f be 30 c4 78 3e bf 05 39 be
       0.47839 -0.17127348 0.2429359 -0.18068598
0002b0 e6 6f 09 c0 9a 09 4b bf 06 f4 3b be 35 66 98 3e
       -2.1474547 -0.79311526 -0.18354806 0.29765478
0002c0 ad 3c 47 be 7d 55 f2 bf 21 07 11 c0 b5 4e 2c bf
       -0.1945674 -1.8932339 -2.26606 -0.673076
0002d0 76 77 2f be ab 3c 83 3f 00 39 ee be 24 97 1e be
       -0.17135414 1.0252889 -0.46527863 -0.15487343
0002e0 58 d1 5d be b0 0b d1 bf 84 ed cc bf 44 50 1e 3f
       -0.2166189 -1.6331692 -1.6009984 0.61841226
0002f0 ff 38 4f 3e 00 85 3f 3f 22 ad 29 bc 08 ee ea 3f
       0.20236586 0.74812317 -0.0103562195 1.8353891
000300 d4 e6 a9 3f 65 10 81 3e e1 a5 88 be b6 f3 d6 3f
       1.3273568 0.2520782 -0.26689056 1.6793125
000310 54 a5 15 bf 75 4a 27 3f f6 45 0e bf f1 54 aa 3e
       -0.58455396 0.6534799 -0.555755 0.3326793
000320 00 56 e7 bf e1 5f aa be 63 e2 66 be 0b 09 52 3e
       -1.807312 -0.33276275 -0.22547297 0.20511262
000330 7a f1 4c 3e 18 75 c8 bc b5 0c 57 3f 9b ec ef be
       0.20013991 -0.024469897 0.84003764 -0.46860203
000340 0f 2b b2 3d d8 aa 8d be e6 51 42 3e e2 be e1 3e
       0.08699619 -0.27669406 0.18976554 0.44090945
000350 05 78 28 c0 6c 00 ae 3e 70 71 16 3f c9 bc 03 3d
       -2.6323254 0.33984697 0.5876684 0.03216246
000360 51 d6 72 3f a5 0c 35 bf 44 14 94 be 97 97 16 3f
       0.9485827 -0.7072242 -0.2892171 0.5882506
000370 28 d7 ce 3f 80 b1 c4 3e f7 c2 df 3e 76 49 a4 be
       1.615941 0.38416672 0.43703434 -0.32087296
000380 63 68 fd bf 9f 13 3f be 88 13 c1 3f c9 05 d0 3e
       -1.9797481 -0.18659829 1.5084085 0.40629414
000390 44 31 cd 3f 9a a8 35 bf 37 8f c8 bf b9 6d fa bb
       1.603066 -0.7096039 -1.5668706 -0.0076424745
0003a0 d3 6c 43 3f 87 25 5f 3f b8 3d d2 be c2 3a a0 3c
       0.7633793 0.8716664 -0.41062713 0.019559268
0003b0 95 6d e4 3f f5 92 42 3f dd d9 a1 3e 7f 32 94 be
       1.7845942 0.7600549 0.3161153 -0.28944775
0003c0 92 2d 95 3f 9d c3 38 bf 9f 6f cc 3d 55 0f da 3f
       1.1654532 -0.7217348 0.099822275 1.7035929
0003d0 51 64 ea bf 41 46 71 bd c0 79 ff bf 89 43 99 bd
       -1.8311864 -0.05890489 -1.995903 -0.074835844
0003e0 6a 9a 48 3e 5f 69 12 3f 09 df 66 be 5e 6f 4a 3e
       0.19590154 0.57192034 -0.22546019 0.19769046
0003f0 b5 8a 15 3f 65 31 d0 3f 2e e5 89 be ea a0 1d bf
       0.58414775 1.6265074 -0.26932663 -0.6157366

1.l1.weight f4 [268, 270]
000000 27 c7 26 bd 7f 01 6a 3d 3d 5c c4 bd 8c 8d 30 bd
       -0.04071727 0.057130333 -0.095879056 -0.04310374
000010 ae c4 90 bd 46 36 1b bc 40 7a 41 bd 67 de 4b 3d
       -0.07068764 -0.009473389 -0.047235727 0.049772646
000020 6a 82 c7 bd a4 10 a7 3c d2 80 96 3d 7c 41 4d 39
       -0.097416714 0.020393677 0.07348789 0.00019574718
000030 25 15 01 bc 2a 93 9d 3d 70 e3 42 bc 92 90 78 bd
       -0.007878576 0.07694085 -0.011895046 -0.060684748
000040 e5 60 39 bc 26 f5 99 3d 0e 3b 95 bd 5b ff 9c bc
       -0.011314605 0.075174615 -0.072866544 -0.019164732
000050 41 4a d0 b8 50 66 27 bf 11 09 11 3c f6 86 03 3d
       -9.932044e-05 -0.6539049 0.008852259 0.03211113
000060 c0 bf 21 bc be 35 06 bb 46 42 4c bc 1c 5f f9 bd
       -0.009872377 -0.002047881 -0.012466973 -0.12176344
000070 4f d9 0d 3c 39 55 82 bd 35 66 26 3c 43 a9 1b bd
       0.008657767 -0.06363911 0.010156204 -0.038003217
000080 82 45 2c 3c f4 69 aa 3c 9a 5e cf bc e0 8a c9 bd
       0.010514619 0.020802476 -0.025313664 -0.098409414
000090 1a 7d 79 3c fe 8b 03 bd 3f fd e7 3b 12 3e 23 be
       0.01522758 -0.03211593 0.00707975 -0.15941647
0000a0 3e 94 10 bb 67 ff 55 bc 53 46 88 bd 46 5f f4 3c
       -0.0022061015 -0.013061381 -0.06654038 0.029830586
0000b0 87 78 06 3c 4b ff 9b bd 9e 65 f0 3b bf 0b 70 bd
       0.008207447 -0.07617053 0.0073363325 -0.058604952
0000c0 38 6e 08 be ba 94 36 bd db 64 97 bd 4c 70 44 bd
       -0.13323295 -0.04457543 -0.073922835 -0.047958657
0000d0 1d 98 2d bb ce c5 8d 3b 76 7e af 3c 51 bf 13 bd
       -0.0026488372 0.0043265587 0.021422606 -0.036071125
0000e0 95 a1 e9 3c 51 d4 0d bc a3 eb 31 3d f9 c7 2f bd
       0.028519431 -0.008656577 0.04343761 -0.04291532
0000f0 b6 0b f8 3c 40 8b ab bb 6a f4 a2 3d a3 b1 88 bd
       0.030279022 -0.0052351058 0.079567745 -0.066745065
000100 82 6b 33 bc c7 d8 32 3d 00 70 cf be 51 98 ae be
       -0.010950925 0.043663766 -0.40515137 -0.34100583
000110 7a 44 ca 3b 77 2d c8 bc 97 20 98 bc 78 26 16 bb
       0.006172714 -0.024435742 -0.018570228 -0.0022911113
000120 69 56 3c 3b 22 fc bb bc b8 36 83 3c c0 41 76 bd
       0.0028738028 -0.022947375 0.016017303 -0.060121298
000130 fa b1 47 3c 8d e3 79 3d 97 58 19 bd a0 03 d5 3c
       0.012188429 0.061008025 -0.037438 0.026002705
000140 5c 85 28 bd e5 21 80 3c 59 03 cc 3a ca 26 64 3c
       -0.041142806 0.015641162 0.0015564963 0.013925264
000150 d4 46 ee 3c 1a 82 00 bd 07 70 8d 3d 42 86 ee 3c
       0.029086508 -0.031374075 0.06906133 0.029116753
000160 0b 26 34 3d ab 25 70 bc a5 45 e8 3b 71 6c 09 3d
       0.043981593 -0.014657418 0.0070883804 0.033550683
000170 4f 50 8c bc f2 32 c4 3a 90 6a ab 3b a1 ff 84 bf
       -0.017128138 0.0014968796 0.005231209 -1.0390512
000180 6f 25 22 bd 40 84 8b 3c 70 4c a1 be c1 60 83 bd
       -0.03958648 0.017030835 -0.3150363 -0.06414939
000190 e5 38 a3 bd 8d 90 23 bd 77 aa e7 3a 82 7a a6 bd
       -0.07969836 -0.039932776 0.0017674704 -0.08128835
0001a0 00 4a 73 3d a6 f3 80 bf 2b 0f 38 bf 68 64 da bd
       0.059396744 -1.0074356 -0.71898144 -0.10663682
0001b0 11 c9 91 3a 6e 57 d2 3c 7e 00 43 3c 90 66 43 bd
       0.0011122545 0.025676455 0.011901973 -0.047705233
0001c0 49 9a fd 3c 3c d6 79 3c 1a 0f 76 3c f5 b3 58 bd
       0.030957358 0.015248831 0.015018249 -0.052905995
0001d0 3a 3d 36 3d f8 c1 ef bc af 4d e7 bc 82 e0 b0 bd
       0.044491984 -0.029267296 -0.028235285 -0.086365715
0001e0 80 7a 41 be a2 53 15 be 9b 50 da bd 21 00 08 be
       -0.18894386 -0.14582685 -0.106599055 -0.13281299
0001f0 dd 3b 11 3d 66 8b 0f bf 0a 9e 35 bd 32 c5 b9 bb
       0.03545748 -0.5607208 -0.04434017 -0.0056692595
000200 1f 30 61 3c f5 52 08 3c 62 d4 f7 3c c9 d0 4f 3c
       0.013744383 0.00832056 0.03025264 0.012684056
000210 47 e5 37 3c 0d 47 de be e7 2b 8e bc 69 88 a3 3c
       0.011224098 -0.43413582 -0.017354919 0.019962506
000220 21 a1 cd bc 8c b3 2a 3d de a2 5d 3b b9 1a 42 bc
       -0.025101246 0.041675135 0.0033819 -0.0118471915
000230 01 e1 36 bd 68 03 2e 3c b4 b4 db bc d5 32 1d be
       -0.044648174 0.010620929 -0.026819564 -0.15351422
000240 9d 53 a7 3a 56 56 6c 3d 9b 64 0b be b5 71 1c be
       0.0012766008 0.057699524 -0.13612597 -0.15277751
000250 35 bd 6e bd 54 81 a8 bd ed 47 2b 3c 46 ba 2b bd
       -0.05828591 -0.082277924 0.01045416 -0.04192569
000260 a4 7d a7 3b e9 7a 59 bb 34 97 f9 bd 2d ad b8 bd
       0.005111413 -0.0033184832 -0.12187043 -0.09017406
000270 29 02 a6 bc 65 93 e9 bb 8e f4 1c bf 98 71 01 3d
       -0.020264702 -0.0071281665 -0.6131066 0.031602472
000280 c0 37 c2 bc 28 e7 b3 bc 45 cf 1e 3d 0b e9 b1 3c
       -0.023708224 -0.02196081 0.038771886 0.021717569
000290 c2 95 7e 3c 7b be c7 bd c0 7b 7b bc 73 3b 4a bd
       0.015538635 -0.09753128 -0.0153493285 -0.0493731
0002a0 c4 e4 04 3d aa 05 18 bc ca ca ac 3d 06 f7 51 bc
       0.03244473 -0.009278694 0.084371164 -0.012815243
0002b0 34 25 51 bd b5 ff a8 3d e7 e8 84 bc ad ec ba 3c
       -0.05106087 0.08251897 -0.016224338 0.022817934
0002c0 ee 86 1d 3d a0 ec 98 3d 43 1e 2f bd 0a dd 6b bd
       0.038458757 0.07467008 -0.04275347 -0.057583846
0002d0 f8 61 44 3d c1 54 29 3d bd 2e 54 bb 98 7f 94 be
       0.047944993 0.041340593 -0.003237649 -0.29003596
0002e0 3a 5e 3d be 7d d3 5a bd 5c 8a b2 bc a1 a4 1c bd
       -0.18492976 -0.053424347 -0.02179449 -0.03824294
0002f0 94 03 53 bc 2e db 55 3d 56 e6 30 bb f1 45 35 3d
       -0.012879271 0.05221098 -0.002699276 0.044256154
000300 1e ea ac bd 13 d2 3d 3c 60 63 13 be 1f 54 79 bb
       -0.08443092 0.01158573 -0.14393377 -0.0038044525
000310 d6 4d 44 bf 80 78 4e bb 4e 34 fc be 26 f7 d1 bb
       -0.7668127 -0.003150493 -0.49258655 -0.006407636
000320 3c 02 17 be 21 5a 94 be 31 84 16 be dd d4 cb bc
       -0.14746946 -0.28975013 -0.14698865 -0.024881775
000330 00 2b 91 ba 3d 86 2b 3d 8d 8a 46 3d 2b 24 6f 3d
       -0.0011075437 0.041876066 0.048471976 0.0583841
000340 9b 23 8e bb f0 cf 7e be 5c a4 45 bc 5f f1 27 bc
       -0.0043377406 -0.2488401 -0.012063112 -0.010250418
000350 92 c4 46 bd ad 3d 61 bb 91 4a 3e bc bc 49 f7 3d
       -0.048527308 -0.0034369037 -0.011614458 0.120746106
000360 e5 7b d3 bc b8 37 d2 bc ba 2f d9 bd 18 e6 a1 bb
       -0.025815913 -0.025661334 -0.10604806 -0.0049407594
000370 1d 10 01 bc 71 93 f3 39 3e 29 eb 3a 19 29 e0 bd
       -0.007877377 0.00046458424 0.0017941368 -0.10945339
000380 b2 af 06 bc 01 18 dc 3c 25 f8 a3 3d 6b 87 fa bb
       -0.0082206 0.026866915 0.08006314 -0.0076455376
000390 df a7 8b 3c 96 91 7a bf f4 50 1d bd 86 89 3e bb
       0.01704782 -0.97878397 -0.03840728 -0.002907367
0003a0 d4 35 ec 3c 53 31 e1 bc f4 b9 8a be 6e c9 f2 bc
       0.028834261 -0.02748934 -0.27094996 -0.029637065
0003b0 21 88 66 bc 33 f2 76 3d 7c 3c 3f 3c 00 02 16 be
       -0.014070542 0.060289573 0.011672135 -0.146492
0003c0 27 41 1a 3d a0 f5 d2 bb 60 2b cf bc b0 0c 22 3c
       0.03765979 -0.006437972 -0.025289237 0.00989072
0003d0 b7 e6 f5 bd 64 8d 32 3d b2 31 e1 bd 12 05 ed bd
       -0.12006896 0.04359187 -0.10995807 -0.11573233
0003e0 4a b5 93 bb 2d cb 29 3c ff 8c 9c 3b bc 05 91 3b
       -0.0045076953 0.010363382 0.00477755 0.0044257324
0003f0 9f 79 2b bb 91 59 25 3d 43 80 2a be 6a 46 ed bb
       -0.002616502 0.04036862 -0.1665049 -0.00724106

1.l1.bias f4 [268]
000000 dd dc 5c 3f 51 49 88 3f 6c 55 97 3f 1c b4 ec bd
       0.8627451 1.0647374 1.1822944 -0.11557791
000010 9b 0e a5 3f 82 8e 8b 3f a0 0b 8e 3f fb ac 64 3d
       1.2895082 1.0902865 1.1097298 0.05582903
000020 d1 e3 97 3f 3f b4 1c bf 7f 9f 96 3f f9 2b 8e 3f
       1.1866399 -0.61212534 1.1767424 1.1107169
000030 24 a0 5f 3f 04 d0 74 bf 14 73 81 3f 5f 9a a3 3f
       0.8735373 -0.95629907 1.0113244 1.2781485
000040 d1 fe 13 3f 64 e3 91 3f e5 89 46 bf 0c 86 9d 3f
       0.57810694 1.1397519 -0.7755416 1.2306533
000050 e1 2d ae bf fd 75 b3 bf 94 e1 d4 3e 67 1e c1 3e
       -1.3607751 -1.4020382 0.41578352 0.37718508
000060 0a 17 97 3f c3 2c 4e 3f 4f 0c 98 3f 15 86 a7 3e
       1.1803906 0.8053705 1.1878756 0.32719484
000070 9f 37 a1 3f 4d 28 61 bf 2f 56 8a bf 46 40 93 3f
       1.2595099 -0.8795212 -1.0807551 1.150399
000080 18 a0 92 3f 04 a4 9e 3f 68 b2 81 3f 14 f2 c6 3e
       1.1455107 1.2393804 1.013257 0.38856566
000090 f7 40 d1 bf 7e 96 a5 3f f2 71 bf bf 0c 67 ab 3f
       -1.6347951 1.2936552 -1.4956648 1.3390822
0000a0 4a d9 79 3f 78 41 96 bf a0 ce ad 3f 54 b4 c5 be
       0.9759718 -1.173873 1.3578682 -0.38614142
0000b0 17 f0 94 3f 4b 26 8b 3f 49 8f 90 3f ed 6f 1f 3f
       1.163577 1.0871061 1.1293727 0.6228016
0000c0 c0 11 93 3f 8d 60 93 3f c3 1c 9f bf d1 f3 a9 3f
       1.1489792 1.151384 -1.2430652 1.3277532
0000d0 3a 4a 6e 3e b9 ce 3d 3e fe bc a1 3f ea 1c 9b bd
       0.23270503 0.1853589 1.2635801 -0.07573874
0000e0 2b 81 87 3f cf 60 2d 3f 0a 9c 94 3f ac 7a b7 3f
       1.0586294 0.67725843 1.1610119 1.4334311
0000f0 30 23 44 bf 16 d1 28 bf 1f e8 9c 3f 2b cc 93 3f
       -0.7661619 -0.6594404 1.2258338 1.1546682
000100 44 52 e9 bf d3 05 c2 3e db ea a1 3f 68 a7 96 3f
       -1.822823 0.3789507 1.2649797 1.1769838
000110 af cf c0 bf 68 70 4e bf 94 8d a2 bf b9 09 1a 3f
       -1.506338 -0.8064027 -1.2699456 0.60171086
000120 27 3e 23 bd 24 c3 7f 3f a6 60 92 3f 72 bb db bf
       -0.039854195 0.99907136 1.1435745 -1.7166579
000130 8b f8 84 3f 78 61 8a 3f 6b 23 69 3f 5b d3 73 3f
       1.0388349 1.0810995 0.9106967 0.9524438
000140 c8 a7 80 3e a5 92 88 3f 7d 76 bf bf b2 7f 82 3f
       0.25128007 1.0669752 -1.4958035 1.019522
000150 d3 ac 9f 3f 50 11 38 bd 84 c1 c7 bf 8d f8 95 3f
       1.2474617 -0.044938385 -1.5605931 1.1716477
000160 b7 47 b0 3e 81 dc 56 3f d8 c2 80 3f 54 f3 c6 bf
       0.34429714 0.8393021 1.0059462 -1.5543008
000170 09 30 89 bf 7a 5c 8c bf 02 3d 86 3f e5 cd 7b 3f
       -1.0717784 -1.0965722 1.0487368 0.98361045
000180 af 99 e3 3e 07 1d d9 bf ba 37 a9 be 10 f2 ae bf
       0.4445319 -1.6961983 -0.33050328 -1.3667622
000190 28 4b 86 bf 76 a9 a1 3f c7 a0 98 bf 3f fb 8b 3e
       -1.0491686 1.262984 -1.1924065 0.27340123
0001a0 d4 5b 50 3f 09 2c ee bf 34 c5 60 3e 87 98 b7 3e
       0.8139012 -1.8607188 0.21950227 0.35858557
0001b0 29 8a 88 3f f7 95 4d be 1b 35 ad bf 34 9b a5 bf
       1.0667163 -0.20076738 -1.3531832 -1.2937989
0001c0 40 57 84 3f 8f 43 c4 be 3b 0d 98 3f 2d ec c3 bd
       1.0339127 -0.38332793 1.1879038 -0.09566531
0001d0 72 b1 81 bf 90 e9 99 3f 4c 0b e3 bd 47 4e 86 bf
       -1.0132277 1.2024403 -0.11086139 -1.0492638
0001e0 ce 60 69 bf 48 2e 7f 3f a0 0c 93 3f d2 51 c2 bc
       -0.9116334 0.99679995 1.1488228 -0.023720656
0001f0 83 bd 88 bf 24 83 27 3f 3e 6f 58 be fa d6 b0 3f
       -1.0682834 0.6543448 -0.21136186 1.3815606
000200 22 82 77 bf af fe 82 3f cb da 96 bf 0a a1 97 bf
       -0.9668294 1.0233973 -1.178552 -1.184602
000210 22 55 e1 bf d6 0c 87 3f f3 34 94 3f cc b9 51 be
       -1.7604105 1.0550792 1.1578659 -0.20481032
000220 35 14 83 3f e6 5c a8 3e 86 73 87 3f 57 25 75 3f
       1.0240542 0.32883376 1.058213 0.957601
000230 7e 92 75 3f aa 35 82 bf 79 ba 90 3f b9 d9 98 3f
       0.95926654 -1.0172627 1.1306907 1.1941444
000240 ef be 77 3e 5b fe 87 3f 08 f9 64 bf 91 60 94 3f
       0.24193929 1.0624498 -0.8944249 1.159197
000250 94 da 42 be e9 55 8b 3f b2 8d 8c bf 05 ea 09 be
       -0.19028693 1.0885593 -1.0980742 -0.13468178
000260 6e 33 bb bf 27 83 7b 3f 75 6e 99 3f 92 e2 d6 3e
       -1.462507 0.98247 1.1986834 0.41969734
000270 4e 87 97 3f 9c 5f 61 3e af 45 58 3f 04 40 77 be
       1.1838167 0.22009128 0.8448133 -0.24145514
000280 cb 4c 96 3f e9 ec 95 3f cb 4f eb bf 90 67 f7 bf
       1.1742185 1.1712924 -1.8383726 -1.932848
000290 e4 0e 94 3f 11 a9 c0 bf 75 45 83 3f f1 a7 3e bf
       1.1567044 -1.5051595 1.0255572 -0.7447501
0002a0 2f 25 b6 be 30 c6 80 3f a0 4a 8f 3f 36 80 8b 3f
       -0.35575244 1.0060482 1.1194649 1.0898502
0002b0 b1 c3 8d 3f 02 59 9b be de b2 94 3f 24 e8 67 3f
       1.1075345 -0.30341345 1.1617086 0.90588593
0002c0 4d 9d 7b bf 96 3e 3e bf ad 30 93 be 27 22 6f bf
       -0.98286897 -0.7431425 -0.28748074 -0.9341149
0002d0 5c c2 53 3f 87 ec 95 3f f0 76 83 3f bc 5e 84 bf
       0.82718444 1.1712807 1.0270672 -1.0341411
0002e0 1e 71 fc bf ac 9d 83 bf 73 01 84 3f 75 a9 c6 bf
       -1.9722021 -1.0282493 1.0312942 -1.5520464
0002f0 9e 73 c9 bf a4 00 c3 bf ef 68 da 3c ac 66 be bf
       -1.5738409 -1.523457 0.026661364 -1.4875083
000300 3a 89 fa bc 95 42 be bf 23 2d 1a 3f 02 26 cc bf
       -0.030583013 -1.4864069 0.60225123 -1.5949099
000310 e6 c5 b5 3f ce f0 82 3f 73 d7 75 3f a8 66 e1 be
       1.4201019 1.0229738 0.96031874 -0.44023633
000320 94 c2 4e bf 31 ba e2 3c 35 13 8e 3f 3c 0d bf bf
       -0.8076565 0.027676674 1.1099612 -1.4925914
000330 19 5a 0c bf 28 d4 cf bf 52 0c 47 3d 89 38 8a bf
       -0.5482498 -1.623662 0.048595734 -1.0798503
000340 50 91 83 3f eb c5 80 3f 61 f3 ae 3f 48 76 82 3f
       1.0278721 1.00604 1.3668023 1.0192347
000350 ea 98 ad bd 2d a1 da 3e 5f 05 8a 3f 96 0e 6f bf
       -0.08476432 0.42701092 1.0782889 -0.9338163
000360 c6 18 80 3f 41 84 99 3f af 01 81 3f c8 42 9a 3f
       1.000756 1.1993486 1.0078639 1.205163
000370 c2 22 ad 3f b8 27 6e 3d 96 ca 9c 3f 3b 03 5c bf
       1.3526232 0.058143348 1.2249324 -0.8594243
000380 30 36 93 3f 20 77 9c 3f 05 b4 12 3f 5e fa 2e 3e
       1.1500912 1.2223854 0.5730594 0.17087695
000390 89 af 99 3f 5e 17 89 3f c9 83 86 3f b4 ea 79 be
       1.2006694 1.0710256 1.0508968 -0.24405938
0003a0 02 ee 8a 3f 55 37 99 bf d5 e0 81 3f 64 a1 4d 3f
       1.0853884 -1.1970011 1.0146738 0.8032439
0003b0 70 35 ae bf 31 14 8c 3f 46 78 98 3f b9 69 7e 3f
       -1.3610058 1.0943662 1.1911705 0.9938007
0003c0 8e a7 6c 3f 3d 85 1d be cb e5 95 3f ba 52 d3 bf
       0.9244317 -0.15382858 1.1710752 -1.6509621
0003d0 e7 55 03 c0 a1 b6 6e bf 4c 48 96 3f 72 6b 2e bf
       -2.052118 -0.9324742 1.1740813 -0.681327
0003e0 ac 8f 1a bd 5f b4 9c 3f ea 13 a5 3f a9 95 9d be
       -0.037734672 1.2242545 1.2896702 -0.30778244
0003f0 32 bb 9c 3f 88 38 85 3f a8 4a 8d 3f d5 d0 45 3f
       1.2244627 1.0407877 1.1038408 0.7727178

1.l3.weight f4 [1, 268]
000000 72 0f cf bd 01 36 1a be ed c0 39 bf 7e 78 94 3e
       -0.10110368 -0.15059663 -0.72560006 0.28998178
000010 b5 49 32 3d 2e da ba 3d af 6c f4 3c 0b d1 83 bc
       0.043527324 0.09123646 0.02983698 -0.01609089
000020 95 97 cb bd 94 ff ae 3b 37 79 47 3d 2a 38 9c bd
       -0.09941021 0.005340526 0.048699584 -0.076279
000030 ec 86 23 bd 68 03 6d 3b c7 26 a5 3c 05 01 20 3d
       -0.039923593 0.003616536 0.020160092 0.039063472
000040 2b 7b 16 bd 89 87 51 3d 0f 07 db be f9 99 a4 3c
       -0.036738556 0.051154647 -0.42778823 0.020092951
000050 19 4b d8 3c 4d e0 25 3c b0 9b 80 bc b1 37 f2 3e
       0.026402997 0.010124278 -0.015699238 0.47308114
000060 73 38 27 3d d8 a5 e0 bd 37 13 bd 3c a6 ec f9 3e
       0.04082532 -0.10969132 0.023080451 0.4881336
000070 2d c5 98 bd 1b ae 3a 3c 18 b8 5d 3d 9a f0 53 3d
       -0.07459483 0.011394049 0.054130644 0.051743127
000080 12 aa aa 3d 52 a6 3e 3d 20 fa 6a bd 07 d1 80 bf
       0.083332196 0.046545334 -0.057367444 -1.006379
000090 38 6a a3 bd f7 af fa bd cd 73 93 bc cd aa f1 3c
       -0.07979244 -0.12240594 -0.017999554 0.02950039
0000a0 82 66 12 bd 46 39 9a bd 2a a1 0a 3d 8c 6d cf be
       -0.03574229 -0.07530455 0.033845104 -0.40513265
0000b0 4d 4c 8f 3d 71 27 50 3d d1 50 5d 3d ad b8 0b 3e
       0.06996975 0.050818864 0.05403215 0.13644667
0000c0 93 1b 40 3d 4f c3 e4 be 1f 3a ca 3c 4d 50 7e 3d
       0.046901297 -0.4468026 0.024685917 0.0620883
0000d0 e9 5c 1e bf 79 af f2 bc 85 a1 5d 3d f2 78 c9 bc
       -0.6186052 -0.029624688 0.054109115 -0.024593804
0000e0 84 ff 66 bd c2 d0 16 bd e6 d5 ad 3d 60 a1 2c 3d
       -0.056396022 -0.03682018 0.084880635 0.042146087
0000f0 7a 4b 9e be 3e c1 83 be 89 0d e5 3c 8a 19 29 3d
       -0.3091696 -0.2573337 0.027960556 0.04128412
000100 20 20 01 3d 90 48 71 bc a8 98 2b bd 5d 83 1d 3d
       0.031524777 -0.014726773 -0.04189363 0.038455356
000110 15 37 ba 3c e2 49 4b bc ce 5d 26 bc cf 81 3f 3d
       0.022731343 -0.012407752 -0.010154201 0.046754654
000120 c6 3b 46 3e 01 60 3b bd 8a 1d 2c 3d 7b fc e4 bc
       0.1935874 -0.045745853 0.04202036 -0.027952423
000130 db f1 80 bd 05 47 42 3d fd 87 05 3d c7 b4 87 be
       -0.0629613 0.04743101 0.03260039 -0.2650511
000140 60 64 98 3e 44 ac 13 bd 75 0f ee bc c9 85 6c bd
       0.2976408 -0.036052957 -0.029060105 -0.057744775
000150 f8 d4 0d 3d c9 1e bb bc 5a 94 c5 bc 73 80 8a 3d
       0.03462693 -0.022841828 -0.024118591 0.06762781
000160 30 87 c4 be 44 41 0f bd e1 a2 0f bd 23 68 ba bc
       -0.3838439 -0.03497435 -0.035067443 -0.022754734
000170 d1 ed 5b 3c c9 22 e2 3b 94 58 48 bd d6 2d 4c bd
       0.013423399 0.0069011194 -0.0489126 -0.0498484
000180 bc c4 46 bc ba 01 9d bc 93 44 50 bc 75 41 e6 3d
       -0.012131866 -0.019165862 -0.012711662 0.11242954
000190 21 1c c7 bb 18 a4 2e 3d 50 4b 00 bc f8 91 84 bf
       -0.0060763513 0.04263696 -0.007830456 -1.0357046
0001a0 68 05 9f 3c 53 4e 6e bd d9 1f 47 bf f6 1f a7 be
       0.019411758 -0.058180165 -0.7778297 -0.32641572
0001b0 11 67 ab 3c e9 3b 98 3c 46 f2 a5 3c c5 06 b6 3c
       0.02092317 0.018583255 0.020257127 0.022220025
0001c0 da 3a 24 bd 10 e6 36 3f 31 9d f6 3c 50 48 0c bf
       -0.040095188 0.714448 0.030104252 -0.5479784
0001d0 34 f9 8b be 7a 16 26 3d 27 43 af 3c 34 06 3c bc
       -0.27338564 0.04054878 0.021394325 -0.011476088
0001e0 72 69 ff 3a a9 f9 6e bd 8a a7 a5 be 6f 83 5c 3c
       0.0019486381 -0.058343563 -0.32354385 0.013459071
0001f0 08 4a 92 bb 58 61 5d bf be 23 31 3d fe 4c f2 3c
       -0.0044643916 -0.8647666 0.043246977 0.029577728
000200 b1 7d 3b 3e ee 50 56 3d fc ed 7b 3c 47 15 2d 3c
       0.18309666 0.052323274 0.015376564 0.010564155
000210 92 18 5a bd c9 ca cb bd c7 4b 13 be db dd 44 3f
       -0.05324609 -0.099507876 -0.14384376 0.76901025
000220 60 a8 6e bd 2b dc 8c bf 59 c8 fe 3c 92 fd 3a bd
       -0.058266044 -1.100469 0.031101393 -0.04565198
000230 c1 be a0 3c 26 25 80 bc be b3 22 3d 13 01 02 3d
       0.019622209 -0.015642714 0.039722197 0.031739306
000240 25 3b 48 bf ad 05 5f bd 94 64 1d bc ed b7 71 3d
       -0.7821525 -0.054448772 -0.009606499 0.059013296
000250 46 0e b5 bc 58 a3 28 bd 10 b7 42 bc 73 b9 c8 bc
       -0.022101533 -0.0411714 -0.011884466 -0.024502492
000260 bf 4a be bc bb 8c 6c bd 88 e8 a8 3d 6a a3 a7 be
       -0.023229001 -0.0577514 0.08247477 -0.32741863
000270 10 20 63 3d 8b 80 8e bc 95 6d a3 3c fb 1d 36 bc
       0.0554505 -0.017395278 0.019949714 -0.011115546
000280 20 5d 73 3d bf ef 5b bd fe 91 26 bd 0c 7e c7 3d
       0.059414983 -0.053695437 -0.040666573 0.097408384
000290 1b 96 76 3d 9c 76 c8 3c d8 34 8b bd 15 42 cb 3b
       0.060201745 0.02447062 -0.067971885 0.006202946
0002a0 69 9d e8 bb 0c 54 92 bd 0b 13 6f bd 27 0c 19 3d
       -0.007098843 -0.07144937 -0.05836777 0.037365105
0002b0 15 7e 38 3d 01 c5 ca 3c 1f b3 55 3d a8 66 93 3e
       0.045042116 0.024752142 0.052172776 0.28789258
0002c0 47 27 89 bd c1 8f 7d 3c 22 f0 bc 3c ff 09 90 3c
       -0.06696945 0.015476168 0.023063723 0.017582892
0002d0 a1 ad f1 bd 25 af af bd 45 59 83 3d 27 5a c5 bb
       -0.11800695 -0.08578328 0.06413511 -0.00602271
0002e0 c1 b8 b5 3e ec f5 07 3c 56 08 a8 bd 4d b8 35 3c
       0.3549252 0.008298378 -0.08204715 0.011091304
0002f0 89 64 bb bc 06 fd cc bc 41 bb 01 3f 22 b2 5e 3c
       -0.022875087 -0.025022995 0.5067635 0.013592275
000300 e9 4f 44 3f 68 70 1d 3d 71 b6 02 bd 3d 56 af bc
       0.76684433 0.038437277 -0.03191227 -0.021403426
000310 00 7b 79 3d f0 f6 09 3d c1 3a 36 bd db 8c ad b9
       0.060908318 0.033682764 -0.044489626 -0.00033102077
000320 2c 51 47 bc 24 f8 f4 3c 57 76 db 3c 21 0f 2b 3d
       -0.012165349 0.029903479 0.026789827 0.041762475
000330 b6 68 91 3b be fb 2f 3d 46 7f 7c bc 28 2a 85 bb
       0.0044375313 0.04296469 -0.015411204 -0.0040638633
000340 d9 44 7f bd 43 48 3d bd 33 6f 07 3d d8 15 e8 3c
       -0.062321518 -0.046211492 0.033065032 0.028330728
000350 86 bf 42 bf c6 2a 04 3f c1 67 aa bd f7 18 8e 3c
       -0.7607349 0.5162777 -0.08320571 0.017345889
000360 7e d1 a0 bd 1a 9f 80 3d 66 e3 c2 3c 34 15 2a 3d
       -0.078524575 0.06280346 0.023790073 0.041524127
000370 dd b4 28 3d fd 55 22 3f 86 87 5f 3d 81 3a 8e 3c
       0.04118811 0.6341246 0.054572605 0.017361881
000380 2b fc 32 3d 68 dc d6 3c 49 79 2c bf a5 4f 24 3e
       0.043697517 0.026228145 -0.67372566 0.16046007
000390 92 b3 83 3d d7 9f 90 bd f7 9e f0 bc 5b 05 a3 3c
       0.06430735 -0.07061737 -0.029372675 0.019900015
0003a0 98 91 99 bd 76 4d 95 3c f2 75 af bd bc 80 b3 3e
       -0.07498473 0.018225413 -0.08567418 0.35059154
0003b0 f6 41 aa bc b5 5d 1e 3d be fa ea 3c c6 82 35 bd
       -0.020783406 0.038663585 0.028684016 -0.04431417
0003c0 3a c2 05 bf 6d 38 96 3e d9 53 60 3d 0b d3 fb 3d
       -0.5224949 0.29339924 0.054767463 0.122961126
0003d0 e9 2a 71 3e 94 d6 96 bd 02 7b 11 3d 43 5f c7 bb
       0.23551525 -0.07365146 0.0355177 -0.006084354
0003e0 24 70 5b 3d 2b 03 c6 3d db 68 78 3d 29 a3 68 bc
       0.053573743 0.09668573 0.060646873 -0.014199057
0003f0 2e a1 13 3d 71 45 13 3d 10 d8 ac bd 88 d8 06 bd
       0.036042385 0.035954896 -0.08439648 -0.032921344
