ergoCubSN001/friction_pinn/2_lar_b4832_h14.onnx (onnx, 178887 bytes, 7 tensors)

0.weight f4 [28, 28]
2.0860705 0.0 0.0 0.0 0.0 0.0 0.0 0.0
0.0 0.0 0.0 0.0 0.0 0.0 0.0 0.0
0.0 0.0 0.0 0.0 0.0 0.0 0.0 0.0
0.0 0.0 0.0 0.0 0.0 2.0860705 0.0 0.0
0.0 0.0 0.0 0.0 0.0 0.0 0.0 0.0
0.0 0.0 0.0 0.0 0.0 0.0 0.0 0.0
0.0 0.0 0.0 0.0 0.0 0.0 0.0 0.0
0.0 0.0 2.0860705 0.0 0.0 0.0 0.0 0.0
0.0 0.0 0.0 0.0 0.0 0.0 0.0 0.0
0.0 0.0 0.0 0.0 0.0 0.0 0.0 0.0
0.0 0.0 0.0 0.0 0.0 0.0 0.0 2.0860705
0.0 0.0 0.0 0.0 0.0 0.0 0.0 0.0
0.0 0.0 0.0 0.0 0.0 0.0 0.0 0.0
0.0 0.0 0.0 0.0 0.0 0.0 0.0 0.0
0.0 0.0 0.0 0.0 2.0860705 0.0 0.0 0.0
0.0 0.0 0.0 0.0 0.0 0.0 0.0 0.0
0.0 0.0 0.0 0.0 0.0 0.0 0.0 0.0
0.0 0.0 0.0 0.0 0.0 0.0 0.0 0.0
0.0 2.0860705 0.0 0.0 0.0 0.0 0.0 0.0
0.0 0.0 0.0 0.0 0.0 0.0 0.0 0.0
0.0 0.0 0.0 0.0 0.0 0.0 0.0 0.0
0.0 0.0 0.0 0.0 0.0 0.0 2.0860705 0.0
0.0 0.0 0.0 0.0 0.0 0.0 0.0 0.0
0.0 0.0 0.0 0.0 0.0 0.0 0.0 0.0
0.0 0.0 0.0 0.0 0.0 0.0 0.0 0.0
0.0 0.0 0.0 2.0860705 0.0 0.0 0.0 0.0
0.0 0.0 0.0 0.0 0.0 0.0 0.0 0.0
0.0 0.0 0.0 0.0 0.0 0.0 0.0 0.0
0.0 0.0 0.0 0.0 0.0 0.0 0.0 0.0
2.0860705 0.0 0.0 0.0 0.0 0.0 0.0 0.0
0.0 0.0 0.0 0.0 0.0 0.0 0.0 0.0
0.0 0.0 0.0 0.0 0.0 0.0 0.0 0.0
00000000: 2e82 0540 0000 0000 0000 0000 0000 0000
00000010: 0000 0000 0000 0000 0000 0000 0000 0000
00000020: 0000 0000 0000 0000 0000 0000 0000 0000
00000030: 0000 0000 0000 0000 0000 0000 0000 0000
00000040: 0000 0000 0000 0000 0000 0000 0000 0000
00000050: 0000 0000 0000 0000 0000 0000 0000 0000
00000060: 0000 0000 0000 0000 0000 0000 0000 0000
00000070: 0000 0000 2e82 0540 0000 0000 0000 0000
00000080: 0000 0000 0000 0000 0000 0000 0000 0000
00000090: 0000 0000 0000 0000 0000 0000 0000 0000
000000a0: 0000 0000 0000 0000 0000 0000 0000 0000
000000b0: 0000 0000 0000 0000 0000 0000 0000 0000
000000c0: 0000 0000 0000 0000 0000 0000 0000 0000
000000d0: 0000 0000 0000 0000 0000 0000 0000 0000
000000e0: 0000 0000 0000 0000 2e82 0540 0000 0000
000000f0: 0000 0000 0000 0000 0000 0000 0000 0000
00000100: 0000 0000 0000 0000 0000 0000 0000 0000
00000110: 0000 0000 0000 0000 0000 0000 0000 0000
00000120: 0000 0000 0000 0000 0000 0000 0000 0000
00000130: 0000 0000 0000 0000 0000 0000 0000 0000
00000140: 0000 0000 0000 0000 0000 0000 0000 0000
00000150: 0000 0000 0000 0000 0000 0000 2e82 0540
00000160: 0000 0000 0000 0000 0000 0000 0000 0000
00000170: 0000 0000 0000 0000 0000 0000 0000 0000
00000180: 0000 0000 0000 0000 0000 0000 0000 0000
00000190: 0000 0000 0000 0000 0000 0000 0000 0000
000001a0: 0000 0000 0000 0000 0000 0000 0000 0000
000001b0: 0000 0000 0000 0000 0000 0000 0000 0000
000001c0: 0000 0000 0000 0000 0000 0000 0000 0000
000001d0: 2e82 0540 0000 0000 0000 0000 0000 0000
000001e0: 0000 0000 0000 0000 0000 0000 0000 0000
000001f0: 0000 0000 0000 0000 0000 0000 0000 0000
00000200: 0000 0000 0000 0000 0000 0000 0000 0000
00000210: 0000 0000 0000 0000 0000 0000 0000 0000
00000220: 0000 0000 0000 0000 0000 0000 0000 0000
00000230: 0000 0000 0000 0000 0000 0000 0000 0000
00000240: 0000 0000 2e82 0540 0000 0000 0000 0000
00000250: 0000 0000 0000 0000 0000 0000 0000 0000
00000260: 0000 0000 0000 0000 0000 0000 0000 0000
00000270: 0000 0000 0000 0000 0000 0000 0000 0000
00000280: 0000 0000 0000 0000 0000 0000 0000 0000
00000290: 0000 0000 0000 0000 0000 0000 0000 0000
000002a0: 0000 0000 0000 0000 0000 0000 0000 0000
000002b0: 0000 0000 0000 0000 2e82 0540 0000 0000
000002c0: 0000 0000 0000 0000 0000 0000 0000 0000
000002d0: 0000 0000 0000 0000 0000 0000 0000 0000
000002e0: 0000 0000 0000 0000 0000 0000 0000 0000
000002f0: 0000 0000 0000 0000 0000 0000 0000 0000
00000300: 0000 0000 0000 0000 0000 0000 0000 0000
00000310: 0000 0000 0000 0000 0000 0000 0000 0000
00000320: 0000 0000 0000 0000 0000 0000 2e82 0540
00000330: 0000 0000 0000 0000 0000 0000 0000 0000
00000340: 0000 0000 0000 0000 0000 0000 0000 0000
00000350: 0000 0000 0000 0000 0000 0000 0000 0000
00000360: 0000 0000 0000 0000 0000 0000 0000 0000
00000370: 0000 0000 0000 0000 0000 0000 0000 0000
00000380: 0000 0000 0000 0000 0000 0000 0000 0000
00000390: 0000 0000 0000 0000 0000 0000 0000 0000
000003a0: 2e82 0540 0000 0000 0000 0000 0000 0000
000003b0: 0000 0000 0000 0000 0000 0000 0000 0000
000003c0: 0000 0000 0000 0000 0000 0000 0000 0000
000003d0: 0000 0000 0000 0000 0000 0000 0000 0000
000003e0: 0000 0000 0000 0000 0000 0000 0000 0000
000003f0: 0000 0000 0000 0000 0000 0000 0000 0000

0.bias f4 [28]
-0.5377463 -0.5395311 -0.5413623 -0.5430993 -0.5448188 -0.54664135 -0.54853845 -0.55031157
-0.55150825 -0.55317616 -0.5547713 -0.5564923 -0.557896 -0.55955535 0.27847132 0.27923954
0.27997324 0.28078502 0.28142932 0.2821432 0.2828833 0.28341472 0.2839835 0.2843684
0.28510264 0.2858714 0.28660113 0.28726643
00000000: bea9 09bf b61e 0abf b896 0abf 8e08 0bbf
00000010: 3f79 0bbf b0f0 0bbf 046d 0cbf 38e1 0cbf
00000020: a52f 0dbf f49c 0dbf 7e05 0ebf 4876 0ebf
00000030: 46d2 0ebf 053f 0fbf cb93 8e3e 7cf8 8e3e
00000040: a758 8f3e 0ec3 8f3e 8117 903e 1375 903e
00000050: 14d6 903e bc1b 913e 4966 913e bc98 913e
00000060: f9f8 913e bc5d 923e 62bd 923e 9614 933e

1.l0.weight f4 [220, 28]
0.052334107 0.14185573 0.12038348 -0.14694321 0.13452455 0.027273986 0.0961658 0.011984606
-0.12329964 -0.120998405 -0.19635147 0.014309841 -0.021971261 0.16263223 -0.11582893 -0.00096338295
0.21175386 0.18266664 0.06223972 0.030850597 0.0413902 -0.15926072 0.057785403 0.1096948
-0.008567414 -0.06683865 -0.22288518 -0.022876127 0.020916978 -0.07138236 0.07670816 -0.0844174
0.025446007 -0.009441442 -0.015084338 -0.08237051 0.06031731 0.010069156 0.060608435 0.08446535
0.04078457 0.062475763 -0.23777674 -0.2096335 0.113248765 0.023563314 -0.1715219 0.15312436
0.0987614 -0.09692633 0.06885293 0.15756516 0.094656445 0.101056464 0.24327752 0.12754072
-0.042761967 0.0651748 -0.06141591 0.032674804 -0.031001585 0.02368378 -0.041815754 0.06987715
-0.015965834 -0.014685235 0.061986208 -0.03800277 0.039169595 -0.014210155 0.17973284 -0.1829592
-0.023845017 0.04407502 -0.20601864 0.11265814 -0.019165657 -0.09365247 0.15749928 0.030385323
-0.050253093 0.1653936 0.23443754 0.20009275 0.0046704374 0.1412709 0.046723943 -0.045130596
0.06949842 -0.10998732 0.012140239 0.03491248 -0.16731614 0.07003411 -0.16030799 0.19390126
0.009415122 -0.04144844 -0.015955618 -0.14638545 0.003854851 0.07926927 -0.13616008 0.023510832
0.13771647 -0.09512459 0.0963903 -0.14040507 0.15867712 0.030449187 0.08945917 -0.0073095313
0.020668646 -0.04549629 -0.03338661 0.056486946 0.020962466 -0.06602787 -0.046592936 -0.015766324
-0.033408668 0.11522297 0.019186476 0.040598147 0.068639494 0.10365928 -0.13668475 -0.2726806
-0.16605935 -0.12326893 -0.10183016 0.045006793 0.18740611 -0.10453581 0.2420086 0.23262271
0.099681556 0.22233525 0.044067338 -0.03081812 -0.16482948 -0.1283198 0.15239939 0.17393924
0.17289768 0.19049548 -0.09278909 0.08236837 -0.0801038 -0.08840271 -0.15804248 0.07070594
0.078755304 -0.14832008 -0.18699098 0.12788014 0.16498262 0.14924522 -0.19425763 -0.010267484
0.16831857 -0.06607543 -0.030292714 0.10788263 -0.09913265 -0.084931426 -0.11251816 0.14543316
-0.050363094 0.23277284 0.13021813 -0.08370417 -0.07926971 -0.05233991 -0.05478556 0.024449736
-0.022141844 0.05738241 -0.07652145 -0.010927891 0.07939425 -0.089713044 0.22494285 -0.070503965
-0.039820645 0.10116074 0.067235336 0.08032893 0.062948145 -0.07752879 -0.13465609 -0.23974666
0.09981249 -0.09276773 0.16491371 -0.06535247 -0.15952523 0.051387087 0.057546165 -0.17425437
0.08850597 0.09978213 -0.07442878 -0.04135248 0.02000072 0.095946305 0.08925661 -0.088298626
0.022460312 0.049064983 -0.041560683 -0.009509221 0.007713723 -0.12036587 0.061531797 0.021684634
0.16103739 -0.036950253 0.0068168184 0.0636796 -0.18400633 0.081937104 -0.01180676 0.058283646
0.04090842 -0.036901433 0.10898866 -0.06250632 0.09205315 0.038332526 -0.013498561 0.060041483
-0.023057632 0.0015782295 0.048097562 0.00966254 0.03700143 0.103236794 0.052369572 -0.022139663
-0.09006333 0.09139593 0.076930024 0.094435275 -0.066522434 0.030647727 -0.08699616 0.12898628
0.059648678 0.16329241 0.19154954 0.18877535 0.13221167 -0.061384916 -0.05238278 0.08108156
00000000: 4a5c 563d a142 113e 9d8b f63d 4878 16be
00000010: cec0 093e b26d df3c 93f2 c43d 155b 443c
00000020: 8684 fcbd 03ce f7bd 5c10 49be d373 6a3c
00000030: 13fd b3bc 1089 263e b837 edbd 898b 7cba
00000040: 01d6 583e f70c 3b3e 14ef 7e3d 64ba fc3c
00000050: c588 293d 3e15 23be 63b0 6c3d aba7 e03d
00000060: 575e 0cbc b4e2 88bd 033c 64be b766 bbbc
00000070: 155a ab3c ea30 92bd 2b19 9d3d 08e3 acbd
00000080: 2574 d03c 47b0 1abc 4d24 77bc dfb1 a8bd
00000090: 490f 773d 1af9 243c 8d40 783d 2bfc ac3d
000000a0: b90d 273d 96e6 7f3d bf7b 73be 2aaa 56be
000000b0: f8ee e73d da07 c13c 70a3 2fbe a2cc 1c3e
000000c0: 6b43 ca3d 5081 c6bd c402 8d3d c358 213e
000000d0: 3ddb c13d b1f6 ce3d be1d 793e 099a 023e
000000e0: 2c27 2fbd 5e7a 853d 408f 7bbd 04d6 053d
000000f0: 09f7 fdbc 7d04 c23c ff46 2bbd c01b 8f3d
00000100: c8ca 82bc 579a 70bc 40e5 7d3d cba8 1bbd
00000110: 4c70 203d b6d1 68bc e30b 383e a859 3bbe
00000120: a056 c3bc 0288 343d 8df6 52be 50b9 e63d
00000130: 4c01 9dbc decc bfbd 7e47 213e a4ea f83c
00000140: 30d6 4dbd f15c 293e 6510 703e 1de5 4c3e
00000150: 780a 993b 52a9 103e 9b61 3f3d dcda 38bd
00000160: 3055 8e3d 0841 e1bd dae7 463c 6300 0f3d
00000170: ec54 2bbe 0b6e 8f3d c727 24be 0d8e 463e
00000180: e241 1a3c d7c5 29bd 5bb5 82bc 11e6 15be
00000190: aba1 7c3b ed57 a23d 8c6d 0bbe ca99 c03c
000001a0: 8c05 0d3e aed0 c2bd 4768 c53d 59c6 0fbe
000001b0: 417c 223e 9370 f93c 5f36 b73d cb84 efbb
000001c0: 4b51 a93c 515a 3abd 66c0 08bd db5e 673d
000001d0: 7ab9 ab3c 9f39 87bd 3cd8 3ebd 6128 81bc
000001e0: 87d7 08bd 05fa eb3d f52c 9d3c 3e4a 263d
000001f0: dd92 8c3d 514b d43d 16f7 0bbe cb9c 8bbe
00000200: 760b 2abe 6c74 fcbd 558c d0bd 0b59 383d
00000210: 63e7 3f3e df16 d6bd 1ad1 773e a634 6e3e
00000220: d825 cc3d daab 633e f47f 343d 4876 fcbc
00000230: 0fc9 28be 4466 03be 960e 1c3e 211d 323e
00000240: 170c 313e 3f11 433e 3508 bebd bfb0 a83d
00000250: 760d a4bd 7b0c b5bd e3d5 21be 47ce 903d
00000260: 764a a13d 38e1 17be 907a 3fbe 03f3 023e
00000270: 34f1 283e bdd3 183e 79eb 46be f338 28bc
00000280: b45b 2c3e 8e52 87bd 6d28 f8bc 91f1 dc3d
00000290: 0f06 cbbd 87f0 adbd ec6f e6bd 6eec 143e
000002a0: 8849 4ebd 015c 6e3e e757 053e 186d abbd
000002b0: 2858 a2bd 6062 56bd d366 60bd d04a c83c
000002c0: d062 b5bc d109 6b3d 47b7 9cbd e60a 33bc
000002d0: 7499 a23d 79bb b7bd 6b57 663e 6264 90bd
000002e0: f91a 23bd 5d2d cf3d aeb2 893d 7e83 a43d
000002f0: f5ea 803d 6ac7 9ebd 49e3 09be 2680 75be
00000300: 7e6a cc3d 02fd bdbd 24df 283e 84d7 85bd
00000310: 955a 23be 447b 523d 87b5 6b3d bd6f 32be
00000320: 9e42 b53d 935a cc3d 1e6e 98bd 3861 29bd
00000330: 8dd8 a33c 7f7f c43d 2bcc b63d e9d5 b4bd
00000340: b0fe b73c 5df8 483d 893b 2abd 90cc 1bbc
00000350: 66c3 fc3b 6282 f6bd c408 7c3d f9a3 b13c
00000360: fce6 243e 2659 17bd 9e5f df3b 736a 823d
00000370: 286c 3cbe a4ce a73d 2471 41bc d5ba 6e3d
00000380: 968f 273d f525 17bd 7235 df3d 5003 80bd
00000390: 5d86 bc3d 9102 1d3d 1229 5dbc 0fee 753d
000003a0: 5ce3 bcbc 98dc ce3a f301 453d a14f 1e3c
000003b0: d08e 173d d06d d33d 7a81 563d 3d5e b5bc
000003c0: 2073 b8bd ca2d bb3d 7d8d 9d3d 4867 c13d
000003d0: ea3c 88bd f110 fb3c 0b2b b2bd fb14 043e
000003e0: 2c52 743d 2036 273e 9025 443e 534e 413e
000003f0: 7f62 073e c06e 7bbd 538f 56bd 170e a63d

1.l0.bias f4 [220]
0.321641 -0.08460732 -0.13173696 1.8141006 -0.33942083 1.7134868 0.029590474 1.3135349
-0.11213451 -0.09983792 -0.097246945 1.5437181 0.17747855 -0.19675618 -0.21200448 -0.043545328
0.24190517 0.19838801 0.25748575 -0.13244766 -0.22227204 -0.17861642 0.14439657 -0.076768234
-0.01762471 0.25963125 -0.050324246 -1.7595562 0.16352117 0.005240809 -0.108409874 -0.09896534
-0.11731449 -0.11202598 0.08658466 -0.3219139 -0.12234672 -0.04844541 0.06251194 -0.250889
1.3503938 0.06611787 1.3903496 1.7574985 -0.014607653 -0.027927252 1.450679 -0.15631635
-0.036008086 -0.044869035 -0.0893229 -0.04511276 0.0888282 0.36581945 -0.006934787 -0.10464756
-0.23631184 -0.08858231 -0.02467848 0.4427353 1.7035036 1.3409052 -0.041527092 0.22295463
0.53202564 0.02917093 0.14192314 -0.011439489 1.4968206 0.56823325 -0.2053769 0.019604439
0.6018202 0.00992728 0.5267931 0.27149707 -0.24392462 -0.031068984 -0.04381842 0.3000759
0.3875336 0.05131468 -0.35929698 -0.002511025 0.23744878 -0.6459173 -0.02212236 0.764948
0.023857303 -0.15903969 0.06818401 0.03600036 0.0087906895 -0.26070213 0.11823649 -0.051072
0.12488748 -0.20330918 -0.03778886 -0.0069438587 0.031361066 0.19964169 0.39049768 1.5256721
-0.04912413 -1.8364452 1.7333398 0.18024255 0.04337707 1.5907471 0.17739706 1.496004
-0.094803624 0.5905067 0.009857445 -1.5111725 0.018295048 -0.009770065 0.20658503 -0.0945164
0.074098736 -0.39072922 -0.4637667 0.53405565 -0.025722865 -0.06456873 1.409036 -0.007838016
0.14278299 0.33724156 0.005871576 1.2637843 -0.190158 1.5265217 0.26458752 -0.21317735
-0.11945183 -0.019505428 0.25617748 1.5357803 0.19248131 0.21461892 -0.06294455 1.5322137
1.4345655 -1.3392342 -0.07136707 -0.042626094 -0.1195864 -0.010793458 0.02365985 0.17718406
0.18732336 -0.30836558 0.035771776 0.015643239 -2.2504728 0.13711268 -0.042601544 0.26985592
0.24291621 1.7034382 -0.0045801224 0.11142485 0.022048865 0.059523527 0.45534557 0.0058271517
0.54845285 -0.014767566 -0.01101254 -0.5061586 0.16272336 0.014389585 0.26579925 -0.043196693
0.06675031 -2.4319808 -0.045767248 0.16310059 0.16293585 -0.04150847 0.9167476 0.0022049062
0.1271616 -0.08061937 -0.14785601 -0.07643077 1.3370911 0.13622008 0.0036711942 -0.02364673
0.025916727 0.47006893 0.7289425 0.80880016 0.012428998 -0.076918915 -0.104263335 0.0453313
1.4840806 -0.14782299 0.04738123 0.30791453 -0.27539578 0.075439855 -1.595352 -0.24186465
-0.073696755 1.4992464 -0.017478436 -0.032403212 0.29511815 0.004541136 0.061145656 -0.015600175
-0.09051856 -2.0292575 0.014813312 -0.21096149
00000000: 21ae a43e 9a46 adbd 0ee6 06be 7334 e83f
00000010: 91c8 adbe 8953 db3f b967 f23c e921 a83f
00000020: c7a6 e5bd d377 ccbd 6829 c7bd 8e98 c53f
00000030: f0bc 353e 747a 49be b417 59be 965c 32bd
00000040: fdb5 773e 3a26 4b3e 2cd5 833e 5ca0 07be
00000050: 489b 63be 39e7 36be b2dc 133e aa38 9dbd
00000060: b261 90bc 63ee 843e cc20 4ebd 2339 e1bf
00000070: 1872 273e 18bb ab3b ff05 debd 57ae cabd
00000080: 9442 f0bd e16d e5bd 4c53 b13d e6d1 a4be
00000090: eb90 fabd b26e 46bd 4306 803d 8674 80be
000000a0: b4d9 ac3f ce68 873d faf6 b13f b6f5 e03f
000000b0: f054 6fbc b1c7 e4bc d9af b93f 6511 20be
000000c0: 377d 13bd 98c8 37bd edee b6bd 28c8 38bd
000000d0: 8feb b53d b04c bb3e 363d e3bb 7651 d6bd
000000e0: bbfb 71be a46a b5bd 862a cabc 34ae e23e
000000f0: 680c da3f c8a2 ab3f 5018 2abd 384e 643e
00000100: d532 083f e0f7 ee3c 4d54 113e b26c 3bbc
00000110: d197 bf3f bc77 113f 524e 52be 7d99 a03c
00000120: e310 1a3f 08a6 223c eadb 063f aa01 8b3e
00000130: 60c7 79be 6284 febc f27a 33bd 8ca3 993e
00000140: ce6a c63e 582f 523d c6f5 b7be 0290 24bb
00000150: c625 733e d65a 25bf f439 b5bc a2d3 433f
00000160: 6470 c33c 4ddb 22be 0fa4 8b3d 1d75 133d
00000170: d306 103c c07a 85be f925 f23d e030 51bd
00000180: 02c5 ff3d 4830 50be 7ec8 1abd 4f89 e3bb
00000190: 7674 003d df6e 4c3e 50ef c73e 3949 c33f
000001a0: 6236 49bd a310 ebbf 14de dd3f 8191 383e
000001b0: 28ac 313d 9a9d cb3f 93a7 353e 0f7d bf3f
000001c0: 6728 c2bd 722b 173f 1f81 213c 1a6e c1bf
000001d0: 7fdf 953c 9f12 20bc 078b 533e d091 c1bd
000001e0: 14c1 973d a90d c8be d472 edbe dfb7 083f
000001f0: c2b8 d2bc 9c3c 84bd 4b5b b43f 066b 00bc
00000200: b435 123e edaa ac3e 5966 c03b afc3 a13f
00000210: c7b8 42be 1065 c33f 0478 873e 2a4b 5abe
00000220: 29a3 f4bd d9c9 9fbc b229 833e 7394 c43f
00000230: d219 453e 10c5 5b3e 12e9 80bd 941f c43f
00000240: d89f b73f 076c abbf e628 92bd b398 2ebd
00000250: b7e9 f4bd 0bd7 30bc 4dd2 c13c bd6f 353e
00000260: b2d1 3f3e 18e2 9dbe 6d85 123d 4026 803c
00000270: bf07 10c0 4467 0c3e f57e 2ebd 8e2a 8a3e
00000280: 07bf 783e 430a da3f da14 96bb b632 e43d
00000290: d29f b43c f1ce 733d 0e23 e93e b1f1 be3b
000002a0: 6867 0c3f a9f3 71bc f16d 34bc 9c93 01bf
000002b0: f4a0 263e 4bc2 6b3c d716 883e 04ef 30bd
000002c0: 63b4 883d 93a5 1bc0 7076 3bbd d703 273e
000002d0: a8d8 263e c904 2abd f9af 6a3f 3080 103b
000002e0: a736 023e c51b a5bd 9167 17be bc87 9cbd
000002f0: cd25 ab3f 477d 0b3e 6b98 703b cab6 c1bc
00000300: 514f d43c e0ac f03e fa9b 3a3f 870d 4f3f
00000310: ffa2 4b3c aa87 9dbd 0488 d5bd 50ad 393d
00000320: 5af6 bd3f e95e 17be d212 423d f9a6 9d3e
00000330: ad00 8dbe 3680 9a3d 7f34 ccbf 5eab 77be
00000340: 53ee 96bd 4ee7 bf3f f02e 8fbc 3bb9 04bd
00000350: ba19 973e cfcd 943b de73 7a3d e097 7fbc
00000360: cb61 b9bd 5bdf 01c0 89b3 723c 4a06 58be

1.l1.weight f4 [168, 220]
-0.027384663 0.13552728 -0.06739604 0.057239097 0.007962795 0.040048648 -0.08285768 0.034539558
-0.056422543 0.04980231 -3.0116942 -0.024432627 0.013113523 -0.5368537 -0.540987 -0.38702843
-0.01553412 -0.066061124 0.03787559 0.010087663 -0.7119453 -0.17494564 0.04891735 -0.034666575
0.01886852 -0.090866804 0.021507666 0.061899073 -0.024243668 0.023510257 -0.35124114 -0.036649853
-0.70849574 -0.40564048 -0.026980327 -1.7335154 -0.6654284 -0.05011291 0.020290283 0.03630288
-0.08357121 0.20459136 0.031666305 -0.04302649 -0.116509534 -0.030579269 -0.034882523 -1.3348321
0.057238217 -0.44713062 -0.3614484 -0.38078317 -0.014956879 -0.014370333 -0.0007518848 -1.1224667
-0.47258604 0.019633623 0.00027098044 -0.018842038 0.03622269 0.09028767 -0.25674808 -0.012830799
0.041097272 0.09474659 0.051886734 -0.21848996 0.0745127 0.01636445 -0.9541822 -0.063057266
0.046890564 -0.07010186 -0.060527477 0.057211768 -0.19840376 -0.41249892 -0.0063605774 0.01882559
0.062781304 -0.0004108847 0.013491423 -0.14026248 0.043034364 -0.0017032934 -0.19372417 -0.068734065
-0.037999276 -0.008213429 -0.027523253 0.11885785 0.023663 -0.033236694 -0.016703872 0.027895002
0.027137902 -0.5698136 -0.5721602 -0.039224677 -0.1861889 -0.022338556 -0.012261219 0.0146078
-0.05174837 -0.046041038 0.06440749 -0.021410298 -0.020128854 0.03568426 -0.024423217 -0.049916483
-0.0031946523 -0.06623029 -0.020447468 0.020221634 0.024640718 -0.044700127 0.02689177 0.037273467
0.006580585 0.025695762 0.026637629 -0.065028295 -0.1453648 0.021527393 0.008065372 -0.23998849
0.04100197 0.05730401 -0.09567748 0.043338306 -0.16763254 -0.007203649 -0.022865286 -0.8000117
0.014226273 -0.103227794 0.025749823 -0.027400736 -0.10714704 0.08107383 0.006363112 -0.0143404035
0.07825812 0.08786806 0.042514812 -0.23124896 -0.031443555 0.023105731 -0.03466317 0.0064700334
-0.07534546 0.03212023 0.0280676 0.015958939 -0.005250621 -0.012751926 -0.052594144 -0.037600074
0.004152596 0.11726353 0.038229506 0.016351566 -0.15565856 -0.03431782 -0.018417828 -0.01764188
-0.07211491 -0.10604022 0.034758024 -0.04059012 -0.010773665 -0.046224385 0.067581765 -0.04503241
0.005003419 -0.13700432 0.01565958 -0.007738996 0.027862443 -0.015866676 -0.0029543855 -0.0055285925
0.04936261 0.01281163 -0.008104569 -0.0103401495 0.012022353 -0.013452447 -0.1845271 -0.4168552
-0.008819682 -0.03816187 -0.08456828 0.092875026 0.040746514 0.0030424404 -0.0036482094 -0.06218065
0.0391452 -0.31588107 0.0049777953 0.039352078 -0.52174765 -0.05866449 0.0933384 0.010303169
-0.40777716 0.069949694 -0.23096998 0.046425257 -0.042038757 -0.0019418331 0.041201018 -0.24235407
-0.53421456 -0.044494588 -0.23285025 0.04913174 -0.030810038 0.3901652 -0.00043051952 -0.038944576
-0.0236713 0.01574944 -0.2692652 0.09937525 0.022965793 -0.02749297 -4.5505176 -0.014901301
-0.0241056 -0.5623372 -0.6344784 -0.7115372 0.0076026455 -0.14239301 -0.028130937 -0.039902076
-0.6804758 -0.25086564 0.0526605 0.019088833 0.19341145 -0.18881936 -0.045036126 -0.11503343
-0.13335307 -0.05511763 -0.44150734 -0.040196232 0.014588072 -0.524673 -0.005644411 -2.8693113
00000000: cd55 e0bc aac7 0a3e ef06 8abd 8b73 6a3d
00000010: 6276 023c 0d0a 243d 4ab1 a9bd 5a79 0d3d
00000020: 531b 67bd 82fd 4b3d 99bf 40c0 ef26 c8bc
00000030: 1ada 563c 3e6f 09bf 207e 0abf 9728 c6be
00000040: d282 7ebc 0e4b 87bd 6f23 1b3d ba46 253c
00000050: 0c42 36bf f324 33be 8f5d 483d 8afe 0dbd
00000060: 2892 9a3c 6018 babd d830 b03c e289 7d3d
00000070: a89a c6bc 9598 c03c e1d5 b3be 281e 16bd
00000080: fa5f 35bf 1cb0 cfbe d905 ddbc d5e3 ddbf
00000090: 8459 2abf 3243 4dbd cf37 a63c 54b2 143d
000000a0: 6227 abbd 6680 513e 87b4 013d 8b3c 30bd
000000b0: 8d9c eebd 6081 fabc fae0 0ebd c7db aabf
000000c0: 9f72 6a3d 4eee e4be c40f b9be 03f6 c2be
000000d0: b30d 75bc 8c71 6bbc 231a 45ba fdac 8fbf
000000e0: ccf6 f1be b1d6 a03c 6112 8e39 9e5a 9abc
000000f0: 3e5e 143d bee8 b83d 7c74 83be 4638 52bc
00000100: 9d55 283d 800a c23d 2f87 543d d5bb 5fbe
00000110: 1d9a 983d bd0e 863c 4945 74bf 2b24 81bd
00000120: 5210 403d 9091 8fbd a9eb 77bd e356 6a3d
00000130: 5b2a 4bbe 0f33 d3be 646c d0bb 2038 9a3c
00000140: 7c93 803d 036c d7b9 210b 5d3c f8a0 0fbe
00000150: cd44 303d 0b41 dfba a15f 46be 72c4 8cbd
00000160: 21a5 1bbd 9e91 06bc 7278 e1bc bf6b f33d
00000170: e8d8 c13c 3323 08bd 8fd6 88bc 0f84 e43c
00000180: 4e50 de3c 4edf 11bf 1779 12bf 0eaa 20bd
00000190: 4ea8 3ebe 59ff b6bc 48e3 48bc 8e55 6f3c
000001a0: 19f6 53bd 8795 3cbd 13e8 833d a664 afbc
000001b0: 44e5 a4bc a929 123d 3313 c8bc 3a75 4cbd
000001c0: 5f5d 51bb bfa3 87bd 7381 a7bc d7a7 a53c
000001d0: 55db c93c 7b17 37bd 214c dc3c 10ac 183d
000001e0: f3a1 d73b eb7f d23c 2837 da3c 8e2d 85bd
000001f0: 83da 14be 375a b03c 9f24 043c 8bbf 75be
00000200: aff1 273d 9cb7 6a3d 8ef2 c3bd 8283 313d
00000210: dda7 2bbe 960c ecbb fb4f bbbc 91cd 4cbf
00000220: 5015 693c 1869 d3bd 4bf1 d23c 8277 e0bc
00000230: e86f dbbd 090a a63d a781 d03b 03f4 6abc
00000240: cb45 a03d 2bf4 b33d 0324 2e3d 87cc 6cbe
00000250: f5ca 00bd 3b48 bd3c f8fa 0dbd 9302 d43b
00000260: b84e 9abd 8190 033d 06ee e53c 52bc 823c
00000270: 670d acbb 74ed 50bc f56c 57bd 8902 1abd
00000280: 8012 883b dd27 f03d 8b96 1c3d b8f3 853c
00000290: f564 1fbe d890 0cbd fce0 96bc b485 90bc
000002a0: fbb0 93bd 9d2b d9bd 6e5e 0e3d d341 26bd
000002b0: 0784 30bc c855 3dbd 4f68 8a3d e873 38bd
000002c0: b8f3 a33b dc4a 0cbe 8548 803c 6797 fdbb
000002d0: c73f e43c d5fa 81bc 5d9e 41bb 3229 b5bb
000002e0: 7330 4a3d dfe7 513c 07c9 04bc bb69 29bc
000002f0: 67f9 443c a767 5cbc acf4 3cbe 0b6e d5be
00000300: 6d80 10bc 9f4f 1cbd 2232 adbd 4335 be3d
00000310: d1e5 263d ae63 473b cc16 6fbb 23b1 7ebd
00000320: b856 203d 2abb a1be c61c a33b a52f 213d
00000330: 4191 05bf 2d4a 70bd 3428 bf3d 9fce 283c
00000340: 2bc8 d0be c941 8f3d 6583 6cbe 6928 3e3d
00000350: d530 2cbd 1b85 feba 66c2 283d aa2b 78be
00000360: 49c2 08bf f53f 36bd 4c70 6ebe 5d3e 493d
00000370: 5565 fcbc bcc3 c73e 5ab7 e1b9 5984 1fbd
00000380: 50ea c1bc f804 813c 21dd 89be 4085 cb3d
00000390: c222 bc3c f038 e1bc d79d 91c0 9624 74bc
000003a0: 1b79 c5bc 55f5 0fbf 2d6d 22bf 4d27 36bf
000003b0: 9d1f f93b 79cf 11be da72 e6bc 5c70 23bd
000003c0: a933 2ebf 7671 80be 89b2 573d 2f60 9c3c
000003d0: a70d 463e dd59 41be cd77 38bd a696 ebbd
000003e0: b58d 08be 06c3 61bd 400d e2be cea4 24bd
000003f0: cf02 6f3c f850 06bf c0f4 b8bb cca2 37c0

1.l1.bias f4 [168]
0.73228335 1.2425601 1.1058257 0.28302726 1.0843556 -0.054392487 1.0385617 1.5386857
0.8079044 -0.04854101 0.19960903 0.7554556 -0.0019339471 0.27577722 1.1689428 0.014841626
0.6216867 -2.1983936 0.008678055 1.3989534 1.6118195 0.6725351 0.788625 1.3973602
0.13878734 1.4640912 -1.922298 0.71639884 1.1363785 -0.17935316 0.89503366 -2.282707
1.263173 0.7999786 1.0247647 1.1345315 1.1471127 0.794889 1.0970362 1.0552093
1.2449902 1.0858788 -0.2719838 -0.08161168 1.5280025 1.0588615 -2.0052667 0.40063843
1.0745093 -2.0493631 1.6648724 1.057127 1.0244656 1.1284175 1.5530705 0.465441
0.84402305 -0.0400909 1.0470085 1.0654305 -0.0978763 -0.120906256 0.031431608 1.0810947
-0.2003402 0.20603976 1.0044614 -0.17370458 0.56252056 -0.08165856 1.6211665 1.0740604
-1.8419077 0.6468325 -0.036376227 0.79996806 1.0851755 0.11084138 1.2962707 -0.22554299
1.4126383 0.12456054 -0.059405614 1.5055993 0.11873184 0.76415664 -0.055428587 0.11656293
1.2009689 0.92921406 0.25548592 0.6293031 0.6020737 -0.025676532 1.2031465 0.24122752
0.76425207 0.1256147 1.2152886 -0.056753907 -0.11490297 0.28057328 0.24973829 0.062370807
-0.09951817 1.0458062 0.9308323 1.2161638 0.33911955 0.6414911 -0.3098457 0.5498554
0.91060305 1.0580826 0.03530917 1.1649946 1.1161737 1.2927141 1.0912653 -0.29764286
0.98881036 0.64760554 1.059291 1.3808374 0.21456757 1.4133428 -0.09671526 1.1216307
0.3594795 1.1902289 -0.14785093 0.14418127 0.22635889 0.057856403 0.27791613 0.122109056
1.1516 1.0898259 -0.02179926 0.7193967 -0.030450817 -0.011316199 0.024606124 -0.028315637
1.5021275 0.6806823 1.070525 1.2150112 1.053181 1.1306821 0.8455503 1.319345
1.222627 0.80707985 1.0495895 -0.045678902 -0.07884363 -0.11051251 0.5633403 1.2404704
0.059527654 0.61345726 0.21138054 -0.13721399 1.0239588 -0.11353674 0.45765918 -0.015605483
00000000: ec76 3b3f 360c 9f3f b28b 8d3f f3e8 903e
00000010: 2acc 8a3f a8ca 5ebd 97ef 843f a7f3 c43f
00000020: d3d2 4e3f f0d2 46bd 4f66 4c3e 8a65 413f
00000030: 7f7c fdba ac32 8d3e eb9f 953f 4b2a 733c
00000040: dc26 1f3f 7bb2 0cc0 672e 0e3c e810 b33f
00000050: 1a50 ce3f 432b 2c3f 54e3 493f b3dc b23f
00000060: 451e 0e3e 5767 bb3f dc0d f6bf ea65 373f
00000070: da74 913f 5ba8 37be ed20 653f df17 12c0
00000080: a7af a13f 66cb 4c3f 7d2b 833f 5438 913f
00000090: 97d4 923f d87d 4b3f af6b 8c3f 1911 873f
000000a0: d75b 9f3f 14fe 8a3f 7641 8bbe 0624 a7bd
000000b0: 9695 c33f c688 873f 4a56 00c0 7b20 cd3e
000000c0: 8589 893f c428 03c0 8a1a d53f f04f 873f
000000d0: b021 833f fc6f 903f 04cb c63f 484e ee3e
000000e0: e511 583f 5b36 24bd 6004 863f 0760 883f
000000f0: 5f73 c8bd b39d f7bd 6ebe 003d 5061 8a3f
00000100: fb25 4dbe 16fc 523e 3192 803f 9ddf 31be
00000110: 5901 103f 9a3c a7bd 6282 cf3f d07a 893f
00000120: a2c3 ebbf d196 253f 3dff 14bd b5ca 4c3f
00000130: 08e7 8a3f ce00 e33d 33ec a53f bef4 66be
00000140: 55d1 b43f 9919 ff3d 4d53 73bd 7ab7 c03f
00000150: ae29 f33d c59f 433f 1609 63bd 8cb8 ee3d
00000160: 59b9 993f f9e0 6d3f 0dcf 823e 021a 213f
00000170: 8121 1a3f 9757 d2bc b400 9a3f 5904 773e
00000180: 06a6 433f 24a1 003e 948e 9b3f c976 68bd
00000190: 4052 ebbd 4da7 8f3e 65bb 7f3e 8878 7f3d
000001a0: 2fd0 cbbd fadc 853f 074b 6e3f 41ab 9b3f
000001b0: 14a1 ad3e c338 243f 18a4 9ebe 53c3 0c3f
000001c0: 481d 693f 406f 873f 59a0 103d 8b1e 953f
000001d0: c8de 8e3f a877 a53f 95ae 8b3f a564 98be
000001e0: ad22 7d3f 7ac9 253f d996 873f 48bf b03f
000001f0: 9ab7 5b3e 6be8 b43f a612 c6bd 9891 8f3f
00000200: b20d b83e 6c59 983f 3c66 17be 41a4 133e
00000210: a0ca 673e d6fa 6c3d 064b 8e3e 5014 fa3d
00000220: a167 933f 6a7f 8b3f 5d94 b2bc 622a 383f
00000230: fe73 f9bc 9467 39bc c892 c93c 32f6 e7bc
00000240: b745 c03f 3241 2e3f f706 893f 7d85 9b3f
00000250: a3ce 863f 31ba 903f fc75 583f 4ce0 a83f
00000260: 0b7f 9c3f c99c 4e3f f358 863f cd19 3bbd
00000270: c578 a1bd 6254 e2bd 1237 103f bcc7 9e3f
00000280: 45d3 733d 890b 1d3f 2474 583e d381 0cbe
00000290: 1511 833f f385 e8bd 4e52 ea3e 24ae 7fbc

1.l3.weight f4 [1, 168]
-0.015614861 -0.02088112 0.012193854 -0.6176366 0.006439623 0.06900646 0.020376056 -0.040793408
-0.00667109 -0.029990725 0.5687402 0.008633716 -0.14921181 -0.37778646 -0.024688117 0.25525647
0.006926605 0.03414867 0.059135392 -0.043659683 0.04310044 0.008245817 -0.009615376 0.032670457
-0.21677546 0.049503416 0.010676169 0.008635765 0.017440736 -0.0310453 -0.0114535745 -0.024689665
-0.011550639 -0.009911999 -0.014881193 -0.0151742045 0.029811602 -0.009028425 -0.015562778 -0.011453174
-0.01550013 0.009735663 0.0035597275 0.45399553 -0.03140298 -0.022759318 0.007088627 0.0062797563
-0.017692974 0.0070648743 -0.031225681 0.008487867 -0.109204024 0.024151629 -0.051762205 0.0057193222
0.008430718 0.046384487 0.0107992105 -0.015413891 -0.02949122 0.011044109 -0.04525622 -0.021822073
-0.019537011 -0.9040462 -0.0114091765 -0.0047775204 0.010659907 0.03391495 0.057812795 0.011313656
-0.024398796 0.006732837 -0.056101736 0.008679279 0.010077375 0.4238161 0.052788105 -0.009427693
0.04407744 -0.2583504 -0.022841474 -0.05754307 0.24436538 0.012090925 -0.93244284 -0.4800691
0.027386375 -0.010646851 -0.2553862 0.0098837 -0.0073366975 -0.32376236 0.021319192 -0.49183816
-0.009451484 0.72012347 -0.019827893 0.027483562 0.017419212 -0.7141853 0.061389264 -0.26635388
0.007434448 -0.025508726 -0.019488385 0.010270209 0.15966327 -0.008968842 0.013940105 0.006835222
0.008790883 0.007124564 -0.2846604 0.016699962 0.01124646 0.012372131 0.01368667 0.0016936468
0.012834087 0.0069055133 0.013508367 -0.022397878 -0.12358857 -0.038370986 -0.054392394 0.015965085
0.32251644 0.017600412 -0.0140686855 -0.12851398 -0.12320961 -0.13319777 0.78570676 -0.4107507
-0.027284501 0.0076307165 -0.011536739 0.059511412 -0.039530024 0.054337442 0.053554792 -0.03666196
0.03135682 -0.007801531 -0.021126907 -0.02854009 0.023232255 -0.01884923 0.04294367 -0.018766485
-0.021336146 0.008055891 0.0132414615 -0.024834385 -0.020049911 -0.027323266 0.008437506 -0.0053909793
-0.101812445 -0.009145327 -0.31989118 -0.045720138 0.0094762165 0.068207294 -0.076978095 -0.025155252
00000000: 79d5 7fbc e20e abbc bbc8 473c 6f1d 1ebf
00000010: 7903 d33b 4253 8d3d b0eb a63c fd16 27bd
00000020: 2999 dabb 1caf f5bc f598 113f 6e74 0d3c
00000030: fbca 18be 3a6d c1be bc3e cabc fab0 823e
00000040: 93f8 e23b 7adf 0b3d f437 723d 7fd4 32bd
00000050: 168a 303d 7719 073c cf89 1dbc 75d1 053d
00000060: 63fa 5dbe 18c4 4a3d 19eb 2e3c 067d 0d3c
00000070: e0df 8e3c b752 febc c6a7 3bbc fb41 cabc
00000080: e43e 3dbc f065 22bc 3fd0 73bc 3a9d 78bc
00000090: 7637 f43c f6eb 13bc 06fb 7ebc 18a6 3bbc
000000a0: 42f4 7dbc 5582 1f3c 514a 693b 1a72 e83e
000000b0: 69a0 00bd c071 babc b747 e83b 6ac6 cd3b
000000c0: dbf0 90bc 7680 e73b 00cd ffbc b210 0b3c
000000d0: 5ca6 dfbd a3d9 c53c 9b04 54bd 2769 bb3b
000000e0: ff20 0a3c a9fd 3d3d 2cef 303c 8b8a 7cbc
000000f0: 9297 f1bc 5af2 343c 965e 39bd 34c4 b2bc
00000100: 150c a0bc 926f 67bf 8eed 3abc bf8c 9cbb
00000110: e4a6 2e3c 67ea 0a3d 1ccd 6c3d ea5c 393c
00000120: fcdf c7bc 219f dc3b efca 65bd 8933 0e3c
00000130: 931b 253c 6dfe d83e 5738 583d 9c76 1abc
00000140: 8c8a 343d 8146 84be 0b1e bbbc 48b2 6bbd
00000150: eb3a 7a3e 0419 463c 93b4 6ebf 9ecb f5be
00000160: 6459 e03c 2170 2ebc fbc1 82be 3eef 213c
00000170: ae68 f0bb 2ec4 a5be 96a5 ae3c 36d2 fbbe
00000180: 66da 1abc 035a 383f 1b6e a2bc 3525 e13c
00000190: bcb2 8e3c d9d4 36bf 4f73 7b3d 895f 88be
000001a0: ac9c f33b adf7 d0bc 1ba6 9fbc 6144 283c
000001b0: c57e 233e 0df2 12bc 0a65 643c fff9 df3b
000001c0: a307 103c 2d75 e93b 02bf 91be 5cce 883c
000001d0: 1243 383c 7bb4 4a3c 0e3e 603c 5bfd dd3a
000001e0: 1046 523c a547 e23b 3352 5d3c c17b b7bc
000001f0: 011c fdbd e52a 1dbd 8fca 5ebd 36c9 823c
00000200: e020 a53e bd2e 903c 5880 66bc 2b99 03be
00000210: 5255 fcbd ff64 08be 1424 493f ea4d d2be
00000220: bf83 dfbc 170b fa3b 9704 3dbc 3dc2 733d
00000230: 3cea 21bd f090 5e3d 455c 5b3d da2a 16bd
00000240: 0270 003d fca3 ffbb 5612 adbc e8cc e9bc
00000250: 9251 be3c b369 9abc b4e5 2f3d 2cbc 99bc
00000260: 24c9 aebc dbfc 033c b7f2 583c 7b71 cbbc
00000270: b63f a4bc 0bd5 dfbc 773d 0a3c d0a6 b0bb
00000280: 0b83 d0bd 48d6 15bc c7c8 a3be 0a45 3bbd
00000290: 2242 1b3c 44b0 8b3d b1a6 9dbd 6312 cebc
