ergoCubSN001/friction_pinn/2_lhr_b4657_h4.onnx (onnx, 268177 bytes, 7 tensors)

0.weight f4 [8, 8]
0.30677506 0.0 0.0 0.0 0.0 0.0 0.0 0.0
0.0 0.30677506 0.0 0.0 0.0 0.0 0.0 0.0
0.0 0.0 0.30677506 0.0 0.0 0.0 0.0 0.0
0.0 0.0 0.0 0.30677506 0.0 0.0 0.0 0.0
0.0 0.0 0.0 0.0 48.671932 0.0 0.0 0.0
0.0 0.0 0.0 0.0 0.0 48.64004 0.0 0.0
0.0 0.0 0.0 0.0 0.0 0.0 48.602074 0.0
0.0 0.0 0.0 0.0 0.0 0.0 0.0 48.52702
00000000: 9f11 9d3e 0000 0000 0000 0000 0000 0000
00000010: 0000 0000 0000 0000 0000 0000 0000 0000
00000020: 0000 0000 9f11 9d3e 0000 0000 0000 0000
00000030: 0000 0000 0000 0000 0000 0000 0000 0000
00000040: 0000 0000 0000 0000 9f11 9d3e 0000 0000
00000050: 0000 0000 0000 0000 0000 0000 0000 0000
00000060: 0000 0000 0000 0000 0000 0000 9f11 9d3e
00000070: 0000 0000 0000 0000 0000 0000 0000 0000
00000080: 0000 0000 0000 0000 0000 0000 0000 0000
00000090: 0fb0 4242 0000 0000 0000 0000 0000 0000
000000a0: 0000 0000 0000 0000 0000 0000 0000 0000
000000b0: 0000 0000 678f 4242 0000 0000 0000 0000
000000c0: 0000 0000 0000 0000 0000 0000 0000 0000
000000d0: 0000 0000 0000 0000 8668 4242 0000 0000
000000e0: 0000 0000 0000 0000 0000 0000 0000 0000
000000f0: 0000 0000 0000 0000 0000 0000 ab1b 4242

0.bias f4 [8]
-0.4919086 -0.49198318 -0.49203742 -0.49210948 -0.4650415 -0.46479186 -0.46450567 -0.46386728
00000000: 72db fbbe 38e5 fbbe 54ec fbbe c6f5 fbbe
00000010: eb19 eebe 33f9 edbe b0d3 edbe 0380 edbe

1.l0.weight f4 [239, 8]
0.40351865 0.14578731 -0.13771702 -0.3682607 0.2821507 0.2989338 -0.42796594 -0.12782978
0.1751179 -0.19335908 0.107561775 0.20760648 0.13275073 -0.32459038 -0.2471575 0.2243341
-0.26447275 -0.17747672 -0.04496868 0.26439866 -0.029744154 -0.14211737 -0.08216498 0.38985074
0.32043424 -0.37145633 0.22200303 0.04598601 -0.26270363 -0.068283305 0.03339872 0.10961478
0.40108046 -0.2606894 0.06203634 0.09605019 0.13377161 -0.23054886 -0.11527785 -0.070319034
-0.32631665 0.2795027 -0.022628138 0.068391964 -0.30521712 -0.3834113 0.23328461 -0.104075395
-0.24814992 -0.059006963 0.3573407 -0.27892533 -0.28231043 0.28774568 0.37831193 -0.16857526
-0.4137531 -0.23178846 0.048428297 0.1284403 -0.26573595 0.25253215 0.111496985 -0.17463368
0.43538657 -0.05403183 0.024066001 -0.20682825 0.2886836 -0.051716335 -0.19486663 -0.11417993
-0.07670021 -0.01893158 -0.12047416 0.42218077 -0.06477433 -0.15554984 -0.23821813 0.03665402
-0.036434986 0.17969939 -0.21549147 -0.0026366534 -0.06407182 0.3487499 0.45672736 0.0073403
0.17346802 -0.068183616 0.00540279 0.12516028 0.15179048 -0.28722596 0.08860045 -0.11630132
0.223872 0.2681533 0.12013762 -0.296545 0.19570503 -0.15492186 0.021428749 -0.2964113
-0.15328078 -0.20023423 0.17256172 0.100581974 -0.31211025 0.025331767 0.11179052 0.23720422
0.3574936 0.3226507 0.2622118 0.024878563 -0.13032402 -0.17264596 -0.28157258 0.24635088
-0.141565 -0.09092764 0.047154676 0.14017703 0.03733997 -0.27321172 0.27221444 0.15437174
0.18370888 0.030494858 -0.02526062 0.08083517 0.20981303 0.17013161 -0.31984094 -0.13361882
0.17956606 -0.024773002 -0.06565884 -0.17223115 0.051009834 -0.0020779301 0.20885551 -0.14458875
0.11269975 -0.25181 -0.0449648 0.21386695 0.13494557 -0.22917761 0.1402371 0.043316748
-0.343212 -0.009371252 0.19854897 -0.20215313 0.06111524 0.24469575 0.25543082 0.12492994
0.25886998 0.067948096 0.2451566 0.399503 0.036506046 -0.1929954 -0.09371928 -0.010144589
0.10529889 0.3680185 -0.14420636 0.40066692 -0.061668392 -0.25305414 0.08716566 0.21773067
-0.15693869 0.24311209 -0.029593322 0.4063409 -0.2954146 -0.14943662 -0.093763836 -0.11522485
0.5530576 0.31394908 0.030991962 0.11610461 0.3026505 -0.27512577 -0.2114115 -0.12318502
0.011183185 -0.130699 0.08848037 0.24725813 0.15409063 -0.2593897 0.23112024 -0.25224787
0.037889667 0.07116704 -0.07170088 0.0149608515 -0.24970077 0.013869942 0.3315826 -0.14827444
-0.04629745 -0.0694743 0.17632745 0.3174917 0.1684397 -0.13444704 0.057019982 -0.40522626
0.16440499 0.1783382 0.09981476 0.2725455 -0.32391417 -0.06375818 -0.16910307 -0.16287245
-0.12354323 -0.030188926 -0.0033610184 -0.06486892 0.14229703 0.23907156 0.117602244 -0.29488504
-0.33852825 -0.16779004 -0.20279253 0.07700525 -0.26984477 -0.14334446 0.15146609 0.1810743
-0.27973923 0.2784802 -0.22680146 0.038173642 0.107967384 0.25069714 -0.07892557 -0.0892252
0.33221373 0.07612802 0.13014075 0.35147467 -0.3324527 -0.0815293 0.32116267 -0.021132763
00000000: ff99 ce3e 4549 153e b105 0dbe ab8c bcbe
00000010: 0e76 903e da0d 993e 5a1e dbbe cfe5 02be
00000020: 1b52 333e ecff 45be 5949 dc3d cb96 543e
00000030: cfef 073e b630 a6be db16 7dbe d7b7 653e
00000040: f968 87be 75bc 35be 1431 38bd 435f 873e
00000050: 03aa f3bc 3787 11be 1d46 a8bd 849a c73e
00000060: f50f a43e 862f bebe c354 633e d45b 3c3d
00000070: 1781 86be 1ed8 8bbd 19cd 083d b77d e03d
00000080: 6b5a cd3e 1579 85be d119 7e3d f6b5 c43d
00000090: 6dfb 083e 0015 6cbe cb16 ecbd 6d03 90bd
000000a0: fa12 a7be fa1a 8f3e a55e b9bc 1611 8c3d
000000b0: 6b45 9cbe 7c4e c4be 29e2 6e3e 7b25 d5bd
000000c0: 031b 7ebe 49b1 71bd 5cf5 b63e 4dcf 8ebe
000000d0: fe8a 90be 6753 933e 1ab2 c13e fe9e 2cbe
000000e0: 72d7 d3be f459 6dbe c05c 463d db85 033e
000000f0: 8b0e 88be e54b 813e 8858 e43d 2cd3 32be
00000100: fdea de3e 7b50 5dbd 1026 c53c c9ca 53be
00000110: 56ce 933e 82d4 53bd 1e8b 47be 2bd7 e9bd
00000120: 0015 9dbd 6716 9bbc 28bb f6bd 1428 d83e
00000130: 67a8 84bd 7548 1fbe 74ef 73be 8722 163d
00000140: da3c 15bd 1e03 383e cca9 5cbe b4cb 2cbb
00000150: 1638 83bd 598f b23e 2bd8 e93e e686 f03b
00000160: 9aa1 313e daa3 8bbd e309 b13b 042a 003e
00000170: f76e 1b3e 480f 93be 2774 b53d 632f eebd
00000180: b43e 653e 644b 893e b60a f63d bfd4 97be
00000190: e666 483e d6a3 1ebe 588b af3c 39c3 97be
000001a0: a3f5 1cbe 340a 4dbe 05b4 303e ecfd cd3d
000001b0: eacc 9fbe 9184 cf3c 6ef2 e43d aae5 723e
000001c0: 6709 b73e 7932 a53e a040 863e 21ce cb3c
000001d0: a973 05be 1aca 30be 482a 90be 6843 7c3e
000001e0: 6af6 10be 4538 babd 4325 413d 918a 0f3e
000001f0: ccf1 183d 68e2 8bbe b15f 8b3e a013 1e3e
00000200: 2e1e 3c3e 5ad0 f93c 5cef cebc e98c a53d
00000210: 3ad9 563e fb36 2e3e 31c2 a3be 5fd3 08be
00000220: 2ae0 373e c0f0 cabc 2478 86bd 5d5d 30be
00000230: b0ef 503d e22d 08bb 38de 553e 130f 14be
00000240: 20cf e63d 3eed 80be 032d 38bd f0ff 5a3e
00000250: 2c2f 0a3e 89ad 6abe 509a 0f3e e76c 313d
00000260: 7cb9 afbe e189 19bc 6c50 4b3e 3b01 4fbe
00000270: f953 7a3d 8691 7a3e d4c7 823e 45db ff3d
00000280: 9b8a 843e 5f28 8b3d 550a 7b3e a88b cc3e
00000290: 5d87 153d 96a0 45be e5ef bfbd 7d35 26bc
000002a0: f2a6 d73d ec6c bc3e d5aa 13be 3724 cd3e
000002b0: ff97 7cbd 5090 81be e983 b23d caf4 5e3e
000002c0: 89b4 20be 60f2 783e b26d f2bc ea0b d03e
000002d0: 9540 97be ea05 19be 4107 c0bd 02fb ebbd
000002e0: 2f95 0d3f efbd a03e dbe2 fd3c 41c8 ed3d
000002f0: 02f5 9a3e 49dd 8cbe 427c 58be 6e48 fcbd
00000300: ad39 373c f5d5 05be 3235 b53d 3c31 7d3e
00000310: efc9 1d3e bace 84be c9aa 6c3e a226 81be
00000320: 3232 1b3d 06c0 913d e9d7 92bd 5c1e 753c
00000330: 8fb1 7fbe c13e 633c 32c5 a93e 41d5 17be
00000340: 65a2 3dbd 8b48 8ebd 2f8f 343e 468e a23e
00000350: 757b 2c3e 7cac 09be c98d 693d d179 cfbe
00000360: c859 283e 4a9e 363e ae6b cc3d 158b 8b3e
00000370: 14d8 a5be a693 82bd 5b29 2dbe 09c8 26be
00000380: 3c04 fdbd c44e f7bc 8844 5cbb ffd9 84bd
00000390: 50b6 113e 2dcf 743e 72d9 f03d 2cfb 96be
000003a0: 9353 adbe 27d1 2bbe d8a8 4fbe eeb4 9d3d
000003b0: 1829 8abe e4c8 12be ed19 1b3e 8b6b 393e
000003c0: fb39 8fbe f594 8e3e a43e 68be f75b 1c3d
000003d0: 011e dd3d 605b 803e bba3 a1bd b4bb b6bd
000003e0: eb17 aa3e 02e9 9b3d 9e43 053e 7df4 b33e
000003f0: 3e37 aabe d5f8 a6bd 6f6f a43e 9e1e adbc

1.l0.bias f4 [239]
0.028605938 -0.7284041 -0.4302104 0.033853773 0.047418393 -0.28660658 0.014374945 -0.2501111
0.019526197 -0.40135816 0.31794456 0.050959926 -1.1475464 0.0015404156 0.31552204 -0.05495631
-0.16179657 0.03694855 -0.6713174 0.23893766 0.3693132 0.36623782 -0.4121795 0.34805357
-0.20815486 -0.075276464 -0.27941775 0.043339033 0.0029427712 -0.3258243 0.010472207 0.3890251
-0.009118915 0.32477006 -0.11779248 -0.14587304 0.009036752 -0.4831342 0.26652563 -0.046859022
0.047095608 -0.3528697 0.4497912 -0.017023569 0.0072435862 0.043691427 -0.009711079 0.03504654
0.27950564 -0.38473713 -0.78424835 0.0018717351 0.10833476 0.013478428 0.22330111 -0.020232767
0.31556934 -0.6508874 0.38350135 -0.40435532 0.025714295 0.36173317 -0.4354081 -0.019044269
-0.07034513 -0.3549418 0.12472598 0.1794154 0.011894899 0.0027656932 -0.12625365 -0.06292078
0.43700686 0.3059083 -0.051176373 0.08138867 0.15148772 0.46907806 -0.6382248 0.028164681
-0.32620758 -0.38923937 0.026182659 -0.027957333 -0.62212425 -0.57507724 -0.33875537 0.10812568
-0.42103302 -0.3921771 -0.42534113 0.037459686 -0.33028162 -0.0149945095 0.12618709 0.10792016
0.13824694 0.019815795 -0.46350428 -0.65465623 -0.24353714 -0.727292 -0.5270197 0.017764488
-0.012183786 -0.12594292 -0.05938587 -0.012064761 0.00067885313 -0.015600137 -0.27060634 -0.34216997
-0.45827228 -1.0484674 -0.36462787 0.022351518 0.22574547 -0.5932384 0.54473037 -0.20210145
-0.25367886 0.37454817 0.013082203 -0.9275416 0.050515257 -0.49534467 -0.22646086 -0.15515141
0.01221093 -0.6604238 0.034777634 -0.42792898 -0.34948382 0.00879479 -0.28158054 0.019147033
0.036503784 0.017692748 -0.00767644 -0.6907569 -0.017414683 0.054899517 0.034502737 0.18448952
-0.5388083 -0.7567321 -0.0030153971 0.31412822 -0.13284667 -0.0046846317 -0.9483733 0.057941277
-0.909208 -0.84010625 0.101351395 -0.02001222 0.033213757 -0.0024384193 -0.5993301 0.08635439
0.39603677 0.03575573 -0.55269516 -0.02385597 0.33267975 0.035007138 0.008709867 -0.40735552
0.29992005 0.14770366 -0.26813817 0.039397925 -0.41040504 -0.35005075 -0.36594313 -0.03428674
0.01903984 -0.6761992 -0.18124652 0.025868975 -0.67787045 0.39531076 0.50719863 -0.042545274
-0.31111506 0.012666175 -0.2873763 0.015115345 -0.115404464 -1.1879138 0.0442228 0.034420542
-0.27022794 -0.04546084 0.029808423 -0.633182 0.04154482 0.03436235 0.023742821 0.015933955
-0.4400083 -0.15759955 -0.39774853 -0.07660531 -0.41986266 -0.004230061 -0.0012591787 -0.007575978
-0.030346867 -0.22878629 -0.28974682 -0.38969338 -0.055608828 -0.0024464277 -0.0636961 -0.053474907
-0.022933561 0.37946948 -0.020770043 -0.054052025 -0.03512519 0.30998018 -0.1238468 0.020812018
0.15129645 -0.01255181 -0.008979964 -0.076496474 -0.13979329 0.023677045 -0.3691405 0.010903462
0.02925085 -0.73385066 -0.86531496 0.018643098 -0.4830901 -0.19945784 -0.57744235
00000000: 0057 ea3c b178 3abf 8a44 dcbe 41aa 0a3d
00000010: ca39 423d 19be 92be e484 6b3c 900e 80be
00000020: 67f5 9f3c d17e cdbe a1c9 a23e 5bbb 503d
00000030: cde2 92bf c5e7 c93a 1b8c a13e de19 61bd
00000040: 00ae 25be 5d57 173d 75db 2bbf 13ac 743e
00000050: 9f16 bd3e 8683 bb3e 3109 d3be 1434 b23e
00000060: 8c26 55be 8c2a 9abd d80f 8fbe 4584 313d
00000070: 82db 403b 71d2 a6be 9f93 2b3c 4c2e c73e
00000080: 8067 15bc 4348 a63e 2f3d f1bd be5f 15be
00000090: e30e 143c 5e5d f7be 0c76 883e 3fef 3fbd
000000a0: 53e7 403d 56ab b4be 084b e63e 0375 8bbc
000000b0: 9b5b ed3b c8f5 323d 381b 1fbc f68c 0f3d
000000c0: 5d1b 8f3e 44fc c4be 80c4 48bf 0255 f53a
000000d0: 9dde dd3d a0d4 5c3c 0ca9 643e 30bf a5bc
000000e0: 4e92 a13e 8fa0 26bf 4a5a c43e a907 cfbe
000000f0: c9a6 d23c 1735 b93e cfed debe ba02 9cbc
00000100: 1c11 90bd eeba b5be 5670 ff3d acb8 373e
00000110: d3e2 423c a240 353b a348 01be 9cdc 80bd
00000120: 5dbf df3e 03a0 9c3e 519e 51bd 1aaf a63d
00000130: 991f 1b3e 002b f03e b362 23bf 9eb9 e63c
00000140: ae04 a7be 624a c7be 047d d63c c706 e5bc
00000150: 8943 1fbf 4338 13bf 5871 adbe ff70 dd3d
00000160: a491 d7be 70cb c8be 50c6 d9be 546f 193d
00000170: ac1a a9be 88ab 75bc 3037 013e 3f05 dd3d
00000180: 9b90 0d3e bc54 a23c 6f50 edbe 8d97 27bf
00000190: cd61 79be cf2f 3abf c3ea 06bf d586 913c
000001a0: 819e 47bc 2ef7 00be 993e 73bd 46ab 45bc
000001b0: 10f5 313a b897 7fbc ea8c 8abe e730 afbe
000001c0: aaa2 eabe 2e34 86bf 81b0 babe 881a b73c
000001d0: d229 673e 79de 17bf 7373 0b3f aff3 4ebe
000001e0: 32e2 81be c7c4 bf3e bd56 563c 5e73 6dbf
000001f0: 16e9 4e3d d19d fdbe 5be5 67be 03e0 1ebe
00000200: 5a10 483c 8911 29bf fe72 0e3d 8219 dbbe
00000210: 8bef b2be 0618 103c 532b 90be 3dda 9c3c
00000220: fe84 153d 62f0 903c a58a fbbb 72d5 30bf
00000230: 3da9 8ebc 51de 603d be52 0d3d d2ea 3c3e
00000240: 57ef 09bf 32b9 41bf f89d 45bb 6ad5 a03e
00000250: f508 08be 8a81 99bb 98c8 72bf d553 6d3d
00000260: dbc1 68bf 3411 57bf 5291 cf3d abf0 a3bc
00000270: 260b 083d e3cd 1fbb b36d 19bf 92da b03d
00000280: 55c5 ca3e 9a74 123d 6e7d 0dbf 986d c3bc
00000290: 0055 aa3e a563 0f3d d4b3 0e3c e790 d0be
000002a0: 1f8f 993e a13f 173e 6849 89be b85f 213d
000002b0: 9c20 d2be da39 b3be e65c bbbe 4170 0cbd
000002c0: 70f9 9b3c 641b 2dbf b098 39be 2ceb d33c
000002d0: eb88 2dbf 2c66 ca3e c5d7 013f f443 2ebd
000002e0: 794a 9fbe ca85 4f3c fd22 93be 5aa6 773c
000002f0: 2d59 ecbd 8f0d 98bf f722 353d 8efc 0c3d
00000300: 515b 8abe 2535 3abd cb30 f43c 3718 22bf
00000310: e72a 2a3d 89bf 0c3d 4e80 c23c ed87 823c
00000320: c548 e1be c761 21be b2a5 cbbe 3fe3 9cbd
00000330: 3df8 d6be 539c 8abb 070b a5ba e93f f8bb
00000340: fe99 f8bc f446 6abe b259 94be e485 c7be
00000350: 15c6 63bd 3f54 20bb 1a73 82bd 8108 5bbd
00000360: 2adf bbbc d349 c23e f025 aabc a865 5dbd
00000370: 6edf 0fbd b9b5 9e3e 64a3 fdbd f77d aa3c
00000380: 75ed 1a3e 1ba6 4dbc b320 13bc 2faa 9cbd
00000390: f925 0fbe 5df6 c13c fcff bcbe 6fa4 323c
000003a0: 7b9f ef3c a3dd 3bbf 4885 5dbf 69b9 983c
000003b0: 9657 f7be ad3e 4cbe 43d3 13bf

1.l1.weight f4 [268, 239]
0.23299141 -0.04128691 -0.018650303 -0.03142493 0.1084274 -0.037816267 -0.02340338 -0.0008394384
-0.1133339 0.031907845 -0.09850956 -0.022906264 -0.0036058945 -0.014745364 -0.035873123 -0.47003937
-0.873887 0.038745057 -0.016796816 -0.079186685 -0.04190986 -0.0071303444 -0.043053735 0.08242105
0.43378323 0.05367388 0.6823081 0.09332641 -0.009621027 0.002003111 -0.05376283 -0.019618923
-0.758924 -0.07347076 0.018945556 0.056880333 0.027565463 0.026487373 -0.28567258 0.024768358
0.060792256 0.029333184 0.005011158 -0.24576445 -0.024914928 -0.02363717 0.6882797 -0.046799287
-0.11517729 -0.036364745 -0.24301033 -0.010868557 -0.37017918 0.047515478 -0.015976219 -0.8065727
0.019146403 -0.023526171 0.033644862 0.044386614 0.13745654 0.03340203 0.0581995 0.12233004
-0.03319228 0.03366869 -0.1597115 0.020445785 0.024072487 0.0670426 -0.012421305 -0.055312995
0.042569295 0.0055702766 0.012946667 0.007193754 0.14009249 -0.06690651 -0.029881883 -0.64701295
-0.028008137 -0.011296723 0.017471258 -0.0035864175 -0.06585438 -0.09797761 -0.031978816 -0.05299514
0.00508463 -0.0390982 0.017253626 -0.012556299 0.035837185 -0.023453783 -0.008655159 -0.12196198
-0.1460061 0.0044891126 0.0033604018 0.010505291 -0.0015369982 0.04975837 0.018768216 0.0018958022
0.041139428 -0.0019602594 0.01847575 -0.037665598 0.042771403 0.061321855 1.6653024 -0.024841879
0.051644124 0.023976782 0.021935413 0.004036583 -0.038768377 0.018708974 -0.011904675 0.033123605
0.32246566 -0.015573979 0.10401925 -0.10888401 0.053603135 0.056950152 0.0064729485 0.03342288
0.057489265 -0.010754108 0.08545782 0.047817167 -0.025987526 -0.02949064 -0.006018434 -0.07406862
0.017707493 0.07186632 -0.002246505 -0.07206082 0.047224015 0.064120844 0.12188806 0.03196167
0.041297108 0.10622192 -0.0019145661 -0.08064961 0.005731058 0.07139758 0.0006333104 0.008142647
-0.1487238 -0.22566219 -0.0552529 0.04423794 0.04903886 0.0032485817 0.009471899 -0.028822407
0.010057306 0.07005816 0.0043359697 -0.038054414 -0.009980778 -0.010853678 -0.015623821 -0.044220433
-0.008153208 0.030355237 -0.026275689 0.009264721 0.074936956 0.030893836 -0.0065400363 0.04420463
0.005929247 0.009817307 -0.06473636 -0.030442923 -0.041326802 -0.02964272 -0.024153192 0.07887636
0.041034486 -0.036864057 0.011174693 -0.03408136 -0.09705544 0.039721858 -0.020231353 0.027038444
-0.027169297 -0.0077591045 -0.040702406 -0.024790715 0.08422193 0.030210597 0.080284655 0.027638936
-0.0069104685 0.0477676 -0.029196642 0.061301216 -0.06652541 -0.1297233 -0.20593677 0.8586946
0.033013675 -0.03828068 -0.042130023 -0.0038438903 -0.06771181 -0.009205601 0.060040347 -0.03936303
0.03271652 -0.014327396 -0.038008984 0.036067143 0.014795904 0.03513637 -1.2590561 0.033796888
-0.03179854 -0.64402896 -0.44524378 -0.134092 0.030112142 -0.093761444 -0.054325942 0.07613674
0.09358446 -0.13362166 -0.026324194 0.11475946 0.008996388 0.0136249345 0.043023165 -0.036626317
-0.08413515 -0.041301917 -0.0038669766 -0.03356845 -0.4197082 0.052431013 -0.67938155 0.0541617
0.050415784 -0.0055821612 -0.0014857363 -0.07007468 -0.017818762 0.008954506 0.0034227853 0.023925468
00000000: 4d95 6e3e 771c 29bd 85c8 98bc 6db7 00bd
00000010: 2f0f de3d 3be5 1abd 72b8 bfbc c20d 5cba
00000020: 9b1b e8bd cdb1 023d 61bf c9bd eba5 bbbc
00000030: df50 6cbb 8a96 71bc b2ef 12bd 00a9 f0be
00000040: 0fb7 5fbf 23b3 1e3d 7a99 89bc a12c a2bd
00000050: aca9 2bbd aaa5 e9bb 1d59 30bd 5ecc a83d
00000060: d618 de3e 24d9 5b3d beab 2e3f eb21 bf3d
00000070: 83a1 1dbc a046 033b 6a36 5cbd ddb7 a0bc
00000080: d848 42bf d677 96bd b633 9b3c 5afb 683d
00000090: f7d0 e13c 0cfc d83c ad43 92be 03e7 ca3c
000000a0: 4d01 793d 254c f03c a434 a43b ada9 7bbe
000000b0: 641a ccbc bda2 c1bc 1933 303f 9cb0 3fbd
000000c0: 12e2 ebbd 33f3 14bd b3d7 78be 0812 32bc
000000d0: 2088 bdbe 979f 423d 8fe0 82bc 8c7b 4ebf
000000e0: ebd8 9c3c f5b9 c0bc 32cf 093d bdce 353d
000000f0: 68c1 0c3e 91d0 083d 9962 6e3d 2c88 fa3d
00000100: a1f4 07bd 2ee8 093d 698b 23be eb7d a73c
00000110: aa33 c53c a14d 893d bb82 4bbc e18f 62bd
00000120: 245d 2e3d de86 b63b 421e 543c 95b9 eb3b
00000130: 6874 0f3e 4806 89bd daca f4bc a4a2 25bf
00000140: 5271 e5bc e415 39bc e21f 8f3c 1a0a 6bbb
00000150: a9de 86bd 7ca8 c8bd 38fc 02bd 6f11 59bd
00000160: f89c a63b 6f25 20bd 7a57 8d3c efb8 4dbc
00000170: 03ca 123d 2622 c0bc 5ece 0dbc 34c7 f9bd
00000180: a082 15be 6819 933b 303a 5c3b 621e 2c3c
00000190: 1a75 c9ba 6fcf 4b3d cdbf 993c 917c f83a
000001a0: d181 283d b277 00bb 755a 973c 3e47 1abd
000001b0: 1131 2f3d a02c 7b3d a128 d53f 3281 cbbc
000001c0: ca88 533d f56a c43c e5b1 b33c 5045 843b
000001d0: 97cb 1ebd 9043 993c d30b 43bc 9eac 073d
000001e0: 381a a53e 012a 7fbc 0b08 d53d 94fe debd
000001f0: f68e 5b3d 9044 693d 071b d43b 6ee6 083d
00000200: dd79 6b3d 0032 30bc 8204 af3d efdb 433d
00000210: cbe3 d4bc 5b96 f1bc 4936 c5bb 4ab1 97bd
00000220: 4e0f 913c a62e 933d 1a3a 13bb a094 93bd
00000230: f86d 413d ca51 833d 72a0 f93d 3dea 023d
00000240: 2827 293d e18a d93d 2ef2 faba 9f2b a5bd
00000250: 99cb bb3b e538 923d be04 263a bd68 053c
00000260: 0d4b 18be fd13 67be dd50 62bd d832 353d
00000270: f9dc 483d 28e6 543b 0630 1b3c f81c ecbc
00000280: 66c7 243c a77a 8f3d c014 8e3b f2de 1bbd
00000290: 6b86 23bc a0d3 31bc 0efb 7fbc 7c20 35bd
000002a0: 0895 05bc 8cab f83c 1d40 d7bc 0ecb 173c
000002b0: 8c78 993d 1215 fd3c cd4d d6bb ea0f 353d
000002c0: 214a c23b c5d8 203c 7f94 84bd 7063 f9bc
000002d0: 4b46 29bd 4ad5 f2bc eadc c5bc ee89 a13d
000002e0: c713 283d c4fe 16bd 0f16 373c e598 0bbd
000002f0: 01c5 c6bd 63b3 223d 39bc a5bc ba7f dd3c
00000300: 2592 debc 1640 febb 91b7 26bd e615 cbbc
00000310: 8c7c ac3d 377c f73c 486c a43d 0d6b e23c
00000320: 3671 e2bb f5a7 433d cc2d efbc fc16 7b3d
00000330: 793e 88bd 2fd6 04be 17e1 52be 69d3 5b3f
00000340: 5939 073d 34cc 1cbd 8890 2cbd c7e9 7bbb
00000350: 7dac 8abd 17d3 16bc deec 753d 213b 21bd
00000360: c201 063d 74bd 6abc 4faf 1bbd 24bb 133d
00000370: 856a 723c 28eb 0f3d c028 a1bf 9b6e 0a3d
00000380: 303f 02bd 15df 24bf fef6 e3be 6a4f 09be
00000390: bdad f63c 0006 c0bd e184 5ebd 94ed 9b3d
000003a0: 36a9 bf3d 1ed4 08be d6a5 d7bc 0207 eb3d
000003b0: 9665 133c 1e3b 5f3c 0f39 303d 7a05 16bd
000003c0: 0d4f acbd 332c 29bd 1a6d 7dbb 127f 09bd
000003d0: fee3 d6be e7c1 563d f3eb 2dbf a9d8 5d3d
000003e0: c880 4e3d 90ea b6bb 0abd c2ba 5083 8fbd
000003f0: a7f8 91bc ecb5 123c cf50 603b 58ff c33c

1.l1.bias f4 [268]
0.41569716 0.38028774 0.39623648 -0.22701709 -0.1755143 -0.03279214 0.4178901 -0.0379215
0.04707052 0.42252034 0.37766698 0.37119716 0.44423556 -0.2613078 -0.072172955 0.4727306
0.37296462 -0.0020843423 -0.6269842 0.4447704 0.35137942 0.36279956 0.30449563 -0.0643005
0.37886146 -0.073148325 0.3874505 0.3780315 0.3975941 0.082171075 0.34689626 0.36236745
0.48520777 0.1470568 0.039538544 -0.059416898 0.44771284 0.19772568 0.39528948 0.36945325
-0.8906462 -0.0033796367 0.38963622 0.32759568 0.35930237 0.4345695 0.34255227 0.37520283
0.3756689 0.42838204 0.38634172 0.4040118 0.42717117 0.1853983 -0.030094307 0.44669887
0.12970868 0.718137 -0.16443457 0.3470787 0.26999453 0.38889506 -0.05967662 -0.019465994
-0.056308597 -0.03884399 0.046702158 0.36417362 0.37608835 0.36352906 0.41567534 0.19301948
0.38270423 -0.024972755 -0.07755711 0.39150497 0.39586025 -0.061445437 0.41906592 0.44636193
0.40859115 0.06967881 0.38059264 0.42873603 0.02465827 0.38898003 0.33725223 0.4704761
0.027759785 0.37130228 0.41628048 -0.15602666 0.38690782 0.47160512 0.36813527 0.36200148
0.16869982 0.37689266 0.6429152 0.1416024 0.29170737 0.2707439 0.55347437 0.4887211
0.5248589 -0.013787671 -0.052888498 0.13971595 0.4046369 0.38732314 0.26075116 0.37456125
0.34896076 -0.0349936 0.18016994 0.20563614 0.29838425 -0.048532296 0.11683704 0.13427797
0.20761864 -0.058386054 0.14331025 -0.057959583 0.32896522 0.015317717 0.018935302 -0.11248406
0.20368536 0.17900209 0.021710074 -0.014705724 0.39913526 0.0021705679 0.1911287 0.40661183
0.4361861 0.13972186 0.34295046 0.34805483 0.30703655 -0.042124726 0.42725626 0.36132804
0.41540962 0.2924546 0.29651055 -0.0676421 0.35561684 0.27308568 0.3203075 0.41688478
0.58955765 0.42905617 0.36969754 0.4364699 0.06696757 0.4074147 -0.003066986 -0.10824049
-0.197274 0.17504722 0.38762426 0.3235782 0.3411772 -0.062063586 0.40304178 0.45248297
-0.008125463 0.42493042 -0.026756063 0.39394003 0.06576872 0.3540049 -0.04300836 0.037143495
0.39077687 0.39405847 0.19208051 0.40622902 0.3754827 0.26879287 0.3468166 0.21728392
0.43665096 -0.011775638 0.5527703 0.048854645 0.3515286 0.36357284 -0.06994522 -0.028005674
-0.13194041 0.004746429 0.3328865 0.031298354 0.39975494 0.37125987 0.3611365 0.46408758
0.28397277 0.35945976 0.09566612 0.33022714 0.40326133 0.18341646 0.39586848 0.0573178
-0.084717646 0.3110302 0.13564974 0.40383652 -0.04119815 0.4155196 0.16017883 0.35408852
-0.0077503626 0.18504712 -0.106639445 -0.38398623 -0.03912831 0.31971812 -0.03553796 0.31484416
0.29098842 0.30411088 0.013593154 0.010144255 0.48937523 0.121631116 -0.04707834 0.37449065
0.38528225 0.43486494 0.3093767 -0.022492388 0.32231313 0.3561581 0.11257076 0.43006563
0.3734937 -0.08901532 0.012597852 0.0015659577 -0.21421406 0.6014739 0.21014766 0.33288512
0.37269032 0.19971727 0.39336044 0.38414824 0.3859348 -0.059008114 -0.11553354 0.47564778
00000000: 42d6 d43e 13b5 c23e 82df ca3e 2b77 68be
00000010: 05ba 33be 0d51 06bd b1f5 d53e 9353 1bbd
00000020: 05cd 403d 9654 d83e 915d c13e 8e0d be3e
00000030: d872 e33e 23ca 85be 6acf 93bd bf09 f23e
00000040: 38f5 be3e 7699 08bb 0982 20bf f2b8 e33e
00000050: 01e8 b33e ddc0 b93e dae6 9b3e fbaf 83bd
00000060: 21fa c13e cace 95bd e95f c63e 588d c13e
00000070: 7491 cb3e 4f49 a83d 639c b13e 3a88 b93e
00000080: 276d f83e 0f96 163e 2bf3 213d 225f 73bd
00000090: 9e3a e53e 9a78 4a3e 6263 ca3e fa28 bd3e
000000a0: 6401 64bf e57c 5dbb 667e c73e 9fba a73e
000000b0: 7bf6 b73e e57f de3e 0363 af3e 961a c03e
000000c0: ad57 c03e e454 db3e 95ce c53e a2da ce3e
000000d0: 2eb6 da3e 0dd9 3d3e 5688 f6bc b7b5 e43e
000000e0: 5ad2 043e d4d7 373f 8961 28be 4db4 b13e
000000f0: b93c 8a3e 411d c73e 796f 74bd 2677 9fbc
00000100: d8a3 66bd e01a 1fbd c34a 3f3d f774 ba3e
00000110: a78e c03e 7b20 ba3e 66d3 d43e e6a6 453e
00000120: cff1 c33e aa93 ccbc 43d6 9ebd 5773 c83e
00000130: 32ae ca3e 36ae 7bbd cf8f d63e 8d89 e43e
00000140: dc32 d13e c4b3 8e3d 0add c23e 4a83 db3e
00000150: 2400 ca3c 6428 c73e 53ac ac3e 3ee2 f03e
00000160: 7d68 e33c 551b be3e b722 d53e 74c5 1fbe
00000170: c818 c63e 3a76 f13e 3a7c bc3e 4258 b93e
00000180: a5bf 2c3e 13f8 c03e 1796 243f 3800 113e
00000190: ab5a 953e f29e 8a3e 7fb0 0d3f a739 fa3e
000001a0: 275d 063f afe5 61bc 9ca1 58bd b311 0f3e
000001b0: 912c cf3e 384f c63e 2d81 853e 7ec6 bf3e
000001c0: fcaa b23e 7355 0fbd 787e 383e 4892 523e
000001d0: d2c5 983e cdc9 46bd 4248 ef3d 2a80 093e
000001e0: fb99 543e 3726 6fbd ecbf 123e 0767 6dbd
000001f0: 216e a83e 29f7 7a3c 351e 9b3c 0b5e e6bd
00000200: e592 503e 534c 373e 53d9 b13c 47f0 70bc
00000210: 755b cc3e 1640 0e3b 3eb7 433e 6d2f d03e
00000220: c953 df3e 3f13 0f3e 3497 af3e 3e34 b23e
00000230: e533 9d3e fa8a 2cbd 55c1 da3e fdff b83e
00000240: 92b0 d43e 9cbc 953e 3bd0 973e f187 8abd
00000250: 6913 b63e e3d1 8b3e 58ff a33e ec71 d53e
00000260: 40ed 163f 40ad db3e ff48 bd3e fc78 df3e
00000270: 4b26 893d a998 d03e 7dff 48bb 31ad ddbd
00000280: 3202 4abe 943f 333e b076 c63e 0bac a53e
00000290: c7ae ae3e 6336 7ebd 7e5b ce3e d9ab e73e
000002a0: a920 05bc 7b90 d93e 882f dbbc 82b2 c93e
000002b0: c0b1 863d 2140 b53e 8929 30bd c723 183d
000002c0: e813 c83e 08c2 c93e c1b0 443e 40fd cf3e
000002d0: 453f c03e 389f 893e f291 b13e ad7f 5e3e
000002e0: b790 df3e 9bee 40bc 5b82 0d3f cf1b 483d
000002f0: 8ffb b33e 3826 ba3e 713f 8fbd 286c e5bc
00000300: 631b 07be ef87 9b3b 1970 aa3e b432 003d
00000310: aeac cc3e c615 be3e e2e6 b83e e39c ed3e
00000320: e164 913e 1c0b b83e 99ec c33d 8813 a93e
00000330: 4578 ce3e 86d1 3b3e 46af ca3e 12c6 6a3d
00000340: 7280 adbd 5a3f 9f3e c4e7 0a3e a9c3 ce3e
00000350: 64bf 28bd fcbe d43e eb05 243e 174b b53e
00000360: c1f6 fdbb fe7c 3d3e c865 dabd d899 c4be
00000370: 0245 20bd 18b2 a33e 4090 11bd 4133 a13e
00000380: 6ffc 943e 6cb4 9b3e d2b5 5e3c 1734 263c
00000390: 648f fa3e bc19 f93d 38d5 40bd 3dbd bf3e
000003a0: b743 c53e 9ea6 de3e 9f66 9e3e f541 b8bc
000003b0: 3a06 a53e 5b5a b63e 808b e63d 9031 dc3e
000003c0: 913a bf3e aa4d b6bd 3967 4e3c d240 cd3a
000003d0: ee5a 5bbe 32fa 193f f330 573e eb6f aa3e
000003e0: 44d1 be3e af82 4c3e 8a66 c93e 14af c43e
000003f0: 3f99 c53e 7eb2 71bd d99c ecbd 1b88 f33e

1.l3.weight f4 [1, 268]
-0.03334547 0.043553222 0.028644238 0.036964487 0.016494218 3.1352692 0.04602819 0.019186966
-0.07058085 -0.03576101 0.027904013 -0.032125115 0.027915563 0.009551173 -0.016128186 0.024713134
-0.062295526 -0.026209135 0.00023916193 -0.091061875 -0.038377106 0.023136418 -0.2841703 -0.030196095
0.06403868 -0.03211556 0.022180693 -0.031245166 -0.040709604 1.0951091 -0.033579092 -0.07488062
0.07212309 1.0513942 -0.017695537 0.030066965 0.027564405 0.95904577 0.026737228 0.051532775
-0.0029033436 -0.052930243 0.025727795 0.020336077 0.023993654 -0.042521767 0.020867888 0.060424227
0.023173004 -0.03175629 -0.04698084 -0.051338565 0.026525695 0.111000076 0.020202558 -0.03149935
2.740201 0.19882973 -0.011623573 -0.045879867 -0.116681136 0.082827054 -0.014253885 -0.0028967622
0.010062728 0.0073398477 -2.2472582 0.025546685 0.08229218 -0.03079881 -0.05624692 -0.1686064
0.022185905 0.03247367 -0.034483913 0.10872589 -0.0495022 -0.018285092 0.052896276 0.026596976
-0.029435614 0.084249996 -0.030271847 -0.29000333 -0.026164604 0.02622663 -0.0849731 -0.2829205
-0.031527754 0.057128605 0.07686528 0.035243504 0.083259456 0.028137129 -0.033914294 -0.1148356
-0.5766435 -0.0386386 0.14764853 0.04417267 0.2515978 -0.14464357 0.05909233 0.06184082
0.0430336 0.0014280011 -0.05126688 0.08548409 0.023301061 0.02439063 0.09367505 0.06500149
0.023110555 -0.0019376667 -0.47035825 0.5379833 0.077239916 0.021459306 0.7214606 -0.12119911
0.10585975 0.036658242 -0.68530536 -0.024389472 -0.031185433 0.013921326 -0.008622131 -0.0044197147
0.34460527 -0.36482978 -0.0014175413 -0.04981027 -0.034063052 -0.013405989 -0.4118909 0.022684598
-0.05654371 0.087576285 0.021882204 0.07573905 -0.10653592 -0.0052565746 0.027141755 -0.09800298
-0.060847722 -0.11847132 0.020038707 -0.033177532 -0.08837464 -0.22911716 -0.069805324 -0.028161203
0.1007355 0.024682341 0.023288827 0.02857895 0.43573493 -0.035576735 0.0068248794 -0.006901093
0.012214148 0.055894963 -0.031044707 -0.11286747 -0.029262718 0.022104865 -0.035869215 -0.031502377
-0.019097293 -0.03131372 0.020200223 -0.031015355 1.2116784 -0.0390348 -0.010135581 -0.0054394575
0.08015217 -0.030270211 0.099854454 -0.033693474 -0.046317704 0.09306965 0.022241924 0.35253885
0.02409737 -0.045593157 0.059668723 0.0594482 -0.076143235 0.021930348 -0.032674305 -0.0038972911
0.030316826 -0.030603686 -0.10049019 0.0004974979 0.023413043 0.02278537 -0.040567197 0.0262971
-0.12697773 -0.12780488 -1.7013991 0.020323666 -0.05014246 0.08182197 0.06726471 -0.012740782
-0.0010677439 -0.07368805 0.17545208 0.06457229 0.014267116 -0.033539787 0.07243802 -0.045394097
-0.0039438806 -0.18312548 -0.046530798 0.022046773 0.012780634 0.022860963 0.020477539 0.066934906
0.48211288 -0.14413089 -0.01621053 -0.01791843 0.064395115 -0.3204989 0.018468369 -0.051122937
0.021012416 0.021480666 0.0932864 -0.036153156 -0.11022151 -0.030146506 0.9623545 0.07465353
0.025255341 -0.0067163496 -0.014671024 -0.01855971 -0.022824673 -0.3871115 1.5306946 -0.04337439
-0.053613063 0.40613404 -0.060123276 -0.02939804 0.057825178 0.01701143 0.039246578 0.054904226
00000000: 4295 08bd dd64 323d 52a7 ea3c 1368 173d
00000010: e21e 873c 40a8 4840 0e88 3c3d fc2d 9d3c
00000020: b18c 90bd 237a 12bd f596 e43c a095 03bd
00000030: 2eaf e43c 867c 1c3c 421f 84bc 3373 ca3c
00000040: 9829 7fbd 8ab4 d6bc 8bc7 7a39 a67e babd
00000050: 5031 1dbd 9688 bd3c c57e 91be cd5d f7bc
00000060: b626 833d 9b8b 03bd 49b4 b53c ddf5 ffbc
00000070: 1dbf 26bd 892c 8c3f 3b8a 09bd 035b 99bd
00000080: 45b5 933d 1694 863f 3bf6 90bc ff4e f63c
00000090: bfce e13c 0684 753f 0808 db3c 0814 533d
000000a0: 0646 3ebb 62cd 58bd 19c3 d23c d897 a63c
000000b0: 578e c43c 4e2b 2ebd 22f3 aa3c 657f 773d
000000c0: 50d5 bd3c e212 02bd fb6e 40bd 6348 52bd
000000d0: 6a4c d93c 0254 e33d d67f a53c 7605 01bd
000000e0: 745f 2f40 059a 4b3e cc70 3ebc 87ec 3bbd
000000f0: 85f6 eebd 3ba1 a93d 2089 69bc 9bd7 3dbb
00000100: 24de 243c 1b83 f03b 14d3 0fc0 4847 d13c
00000110: cd88 a83d c94d fcbc 2c63 66bd 28a7 2cbe
00000120: 37bf b53c 1c03 053d 013f 0dbd aeab de3d
00000130: d2c2 4abd 9eca 95bc c4a9 583d e7e1 d93c
00000140: f522 f1bc 438b ac3d aafc f7bc 517b 94be
00000150: 2757 d6bc 3bd9 d63c 6006 aebd f5da 90be
00000160: 3f23 01bd afff 693d 8b6b 9d3d 7e5b 103d
00000170: ef83 aa3d d67f e63c b7e9 0abd ed2e ebbd
00000180: e99e 13bf 8243 1ebd 2d31 173e 67ee 343d
00000190: 6dd1 803e 721d 14be cd0a 723d cd4c 7d3d
000001a0: 0044 303d c42b bb3a 38fd 51bd 4812 af3d
000001b0: dee1 be3c dcce c73c b4d8 bf3d 801f 853d
000001c0: 5952 bd3c 4ef9 fdba ccd2 f0be 46b9 093f
000001d0: f62f 9e3d 6dcb af3c a4b1 383f 3d37 f8bd
000001e0: ffcc d83d f426 163d 2c70 2fbf 6ecc c7bc
000001f0: 9878 ffbc 4616 643c d743 0dbc 41d3 90bb
00000200: 1a70 b03e f8ca babe cbcc b9ba db05 4cbd
00000210: b385 0bbd cba4 5bbc 5de3 d2be 0dd5 b93c
00000220: 619a 67bd 325b b33d 4f42 b33c 131d 9b3d
00000230: 812f dabd 583f acbb 6358 de3c c9b5 c8bd
00000240: 763b 79bd 17a1 f2bd 3728 a43c 2ae5 07bd
00000250: c3fd b4bd b09d 6abe 18f6 8ebd 53b2 e6bc
00000260: 6a4e ce3d 9f32 ca3c 36c8 be3c 671e ea3c
00000270: a618 df3e e9b8 11bd 3da3 df3b 9022 e2bb
00000280: da1d 483c 1ef2 643d 7851 febc 0f27 e7bd
00000290: 5eb8 efbc 4315 b53c 99eb 12bd a308 01bd
000002a0: ed71 9cbc d142 00bd f07a a53c ea13 febc
000002b0: 4718 9b3f f4e2 1fbd b50f 26bc 7a3d b2bb
000002c0: d226 a43d 3cf9 f7bc 7e80 cc3d 2b02 0abd
000002d0: a2b7 3dbd 4d9b be3d b234 b63c f97f b43e
000002e0: d967 c53c e4bf 3abd 3167 743d f57f 733d
000002f0: fcf0 9bbd 46a7 b33c 7ed5 05bd b269 7fbb
00000300: fe5a f83c 95b4 fabc cdcd cdbd 856a 023a
00000310: b6cc bf3c 62a8 ba3c ca29 26bd 046d d73c
00000320: 7306 02be 48df 02be 72c7 d9bf d17d a63c
00000330: 2e62 4dbd 4792 a73d 15c2 893d b7be 50bc
00000340: 8af3 8bba c3e9 96bd b6a9 333e 7a3e 843d
00000350: 9fc0 693c 0461 09bd 625a 943d 29ef 39bd
00000360: ab3b 81bb 3f85 3bbe 1497 3ebd 6f9b b43c
00000370: dd65 513c ea46 bb3c 83c0 a73c 2b15 893d
00000380: 80d7 f63e 0c97 13be f2cb 84bc acc9 92bc
00000390: 96e1 833d 6f18 a4be fa4a 973c 4966 51bd
000003a0: 3b22 ac3c 39f8 af3c f10c bf3d 5515 14bd
000003b0: d1bb e1bd cef5 f6bc dd5c 763f f3e3 983d
000003c0: 4ae4 ce3c d314 dcbb bc5e 70bc 880a 98bc
000003d0: cffa babc 7b33 c6be cded c33f 58a9 31bd
000003e0: 5f99 5bbd cdf0 cf3e d343 76bd 29d4 f0bc
000003f0: 18da 6c3d 8e5b 8b3c 05c1 203d 41e3 603d
