ergoCubSN001/friction_pinn/2_lhy_b3722_h17.onnx (onnx, 233897 bytes, 7 tensors)

0.weight f4 [34, 34]
1.938503 0.0 0.0 0.0 0.0 0.0 0.0 0.0
0.0 0.0 0.0 0.0 0.0 0.0 0.0 0.0
0.0 0.0 0.0 0.0 0.0 0.0 0.0 0.0
0.0 0.0 0.0 0.0 0.0 0.0 0.0 0.0
0.0 0.0 0.0 1.9325497 0.0 0.0 0.0 0.0
0.0 0.0 0.0 0.0 0.0 0.0 0.0 0.0
0.0 0.0 0.0 0.0 0.0 0.0 0.0 0.0
0.0 0.0 0.0 0.0 0.0 0.0 0.0 0.0
0.0 0.0 0.0 0.0 0.0 0.0 1.9259405 0.0
0.0 0.0 0.0 0.0 0.0 0.0 0.0 0.0
0.0 0.0 0.0 0.0 0.0 0.0 0.0 0.0
0.0 0.0 0.0 0.0 0.0 0.0 0.0 0.0
0.0 0.0 0.0 0.0 0.0 0.0 0.0 0.0
0.0 1.9249525 0.0 0.0 0.0 0.0 0.0 0.0
0.0 0.0 0.0 0.0 0.0 0.0 0.0 0.0
0.0 0.0 0.0 0.0 0.0 0.0 0.0 0.0
0.0 0.0 0.0 0.0 0.0 0.0 0.0 0.0
0.0 0.0 0.0 0.0 1.9292612 0.0 0.0 0.0
0.0 0.0 0.0 0.0 0.0 0.0 0.0 0.0
0.0 0.0 0.0 0.0 0.0 0.0 0.0 0.0
0.0 0.0 0.0 0.0 0.0 0.0 0.0 0.0
0.0 0.0 0.0 0.0 0.0 0.0 0.0 1.9335595
0.0 0.0 0.0 0.0 0.0 0.0 0.0 0.0
0.0 0.0 0.0 0.0 0.0 0.0 0.0 0.0
0.0 0.0 0.0 0.0 0.0 0.0 0.0 0.0
0.0 0.0 0.0 0.0 0.0 0.0 0.0 0.0
0.0 0.0 1.9335849 0.0 0.0 0.0 0.0 0.0
0.0 0.0 0.0 0.0 0.0 0.0 0.0 0.0
0.0 0.0 0.0 0.0 0.0 0.0 0.0 0.0
0.0 0.0 0.0 0.0 0.0 0.0 0.0 0.0
0.0 0.0 0.0 0.0 0.0 1.9342928 0.0 0.0
0.0 0.0 0.0 0.0 0.0 0.0 0.0 0.0
00000000: de20 f83f 0000 0000 0000 0000 0000 0000
00000010: 0000 0000 0000 0000 0000 0000 0000 0000
00000020: 0000 0000 0000 0000 0000 0000 0000 0000
00000030: 0000 0000 0000 0000 0000 0000 0000 0000
00000040: 0000 0000 0000 0000 0000 0000 0000 0000
00000050: 0000 0000 0000 0000 0000 0000 0000 0000
00000060: 0000 0000 0000 0000 0000 0000 0000 0000
00000070: 0000 0000 0000 0000 0000 0000 0000 0000
00000080: 0000 0000 0000 0000 0000 0000 ca5d f73f
00000090: 0000 0000 0000 0000 0000 0000 0000 0000
000000a0: 0000 0000 0000 0000 0000 0000 0000 0000
000000b0: 0000 0000 0000 0000 0000 0000 0000 0000
000000c0: 0000 0000 0000 0000 0000 0000 0000 0000
000000d0: 0000 0000 0000 0000 0000 0000 0000 0000
000000e0: 0000 0000 0000 0000 0000 0000 0000 0000
000000f0: 0000 0000 0000 0000 0000 0000 0000 0000
00000100: 0000 0000 0000 0000 0000 0000 0000 0000
00000110: 0000 0000 0000 0000 3885 f63f 0000 0000
00000120: 0000 0000 0000 0000 0000 0000 0000 0000
00000130: 0000 0000 0000 0000 0000 0000 0000 0000
00000140: 0000 0000 0000 0000 0000 0000 0000 0000
00000150: 0000 0000 0000 0000 0000 0000 0000 0000
00000160: 0000 0000 0000 0000 0000 0000 0000 0000
00000170: 0000 0000 0000 0000 0000 0000 0000 0000
00000180: 0000 0000 0000 0000 0000 0000 0000 0000
00000190: 0000 0000 0000 0000 0000 0000 0000 0000
000001a0: 0000 0000 d864 f63f 0000 0000 0000 0000
000001b0: 0000 0000 0000 0000 0000 0000 0000 0000
000001c0: 0000 0000 0000 0000 0000 0000 0000 0000
000001d0: 0000 0000 0000 0000 0000 0000 0000 0000
000001e0: 0000 0000 0000 0000 0000 0000 0000 0000
000001f0: 0000 0000 0000 0000 0000 0000 0000 0000
00000200: 0000 0000 0000 0000 0000 0000 0000 0000
00000210: 0000 0000 0000 0000 0000 0000 0000 0000
00000220: 0000 0000 0000 0000 0000 0000 0000 0000
00000230: 08f2 f63f 0000 0000 0000 0000 0000 0000
00000240: 0000 0000 0000 0000 0000 0000 0000 0000
00000250: 0000 0000 0000 0000 0000 0000 0000 0000
00000260: 0000 0000 0000 0000 0000 0000 0000 0000
00000270: 0000 0000 0000 0000 0000 0000 0000 0000
00000280: 0000 0000 0000 0000 0000 0000 0000 0000
00000290: 0000 0000 0000 0000 0000 0000 0000 0000
000002a0: 0000 0000 0000 0000 0000 0000 0000 0000
000002b0: 0000 0000 0000 0000 0000 0000 e17e f73f
000002c0: 0000 0000 0000 0000 0000 0000 0000 0000
000002d0: 0000 0000 0000 0000 0000 0000 0000 0000
000002e0: 0000 0000 0000 0000 0000 0000 0000 0000
000002f0: 0000 0000 0000 0000 0000 0000 0000 0000
00000300: 0000 0000 0000 0000 0000 0000 0000 0000
00000310: 0000 0000 0000 0000 0000 0000 0000 0000
00000320: 0000 0000 0000 0000 0000 0000 0000 0000
00000330: 0000 0000 0000 0000 0000 0000 0000 0000
00000340: 0000 0000 0000 0000 b67f f73f 0000 0000
00000350: 0000 0000 0000 0000 0000 0000 0000 0000
00000360: 0000 0000 0000 0000 0000 0000 0000 0000
00000370: 0000 0000 0000 0000 0000 0000 0000 0000
00000380: 0000 0000 0000 0000 0000 0000 0000 0000
00000390: 0000 0000 0000 0000 0000 0000 0000 0000
000003a0: 0000 0000 0000 0000 0000 0000 0000 0000
000003b0: 0000 0000 0000 0000 0000 0000 0000 0000
000003c0: 0000 0000 0000 0000 0000 0000 0000 0000
000003d0: 0000 0000 e896 f73f 0000 0000 0000 0000
000003e0: 0000 0000 0000 0000 0000 0000 0000 0000
000003f0: 0000 0000 0000 0000 0000 0000 0000 0000

0.bias f4 [34]
2.3933494 2.387421 2.3807502 2.3809867 2.387669 2.3945417 2.3960884 2.398454
2.3897789 2.3885746 2.389399 2.3880825 2.39075 2.392503 2.380312 2.377763
2.3724446 -0.8610949 -0.86076933 -0.8609353 -0.86129385 -0.8612729 -0.86119825 -0.86109823
-0.8608772 -0.8611237 -0.86162984 -0.86164486 -0.8616159 -0.86168545 -0.861795 -0.8615218
-0.86151105 -0.8620551
00000000: a32c 1940 81cb 1840 365e 1840 1662 1840
00000010: 92cf 1840 2c40 1940 8359 1940 4580 1940
00000020: 23f2 1840 68de 1840 eaeb 1840 58d6 1840
00000030: 0c02 1940 c51e 1940 0857 1840 452d 1840
00000040: 22d6 1740 b770 5cbf 615b 5cbf 4166 5cbf
00000050: c17d 5cbf 617c 5cbf 7d77 5cbf ef70 5cbf
00000060: 7362 5cbf 9a72 5cbf c693 5cbf c294 5cbf
00000070: dc92 5cbf 6b97 5cbf 999e 5cbf b18c 5cbf
00000080: fd8b 5cbf a5af 5cbf

1.l0.weight f4 [222, 34]
0.060916223 -0.1169861 0.13243604 -0.033802804 -0.07749551 -0.03831065 -0.13855198 -0.13116187
-0.04666529 -0.029715648 -0.028216027 0.03984586 -0.10636012 0.14089474 0.01165891 0.09283759
0.12195395 0.035149064 0.12058835 0.10001737 0.012679317 -0.10528975 0.028514875 -0.005621281
-0.0060317903 -0.037496414 0.05900385 -0.076935716 0.09902527 0.11239779 0.076685145 -0.046189487
-0.12836018 -0.018457083 -0.011510273 -0.07642686 0.16097702 -0.08660231 -0.06469661 0.031108024
-0.02725592 -0.040565945 -0.051293954 -0.10168053 -0.110215016 0.039529245 0.15303706 -0.12953202
0.20117715 0.07981271 0.13631454 -0.135402 0.11615513 0.12784767 0.12735838 0.10721571
0.16345106 -0.12785946 -0.12989312 0.026694668 0.120490044 0.086791754 -0.14090565 0.019385776
0.000154792 -0.0066485126 0.02933012 -0.09937822 0.11062816 -0.095492534 0.02744982 -0.007380079
-0.11088549 -0.045554437 0.071156144 0.10482118 0.11479592 0.094336346 -0.14750257 -0.05291927
0.021123594 -0.031211883 -0.043300465 -0.0993576 0.1239534 0.12446843 0.1735835 0.09772007
0.033467058 0.031485695 0.15383084 0.03275554 0.15400024 0.12718244 0.036886595 -0.10009999
0.14881985 -0.11228615 -0.09971397 0.008493271 0.0903468 -0.060710106 -0.052052334 -0.00781719
-0.04756281 -0.014719956 -0.07236327 0.054766536 -0.2275756 -0.026037142 0.14505985 0.1826274
0.1210148 -0.106803305 0.08904451 0.038668387 -0.10227774 0.08432013 -0.1334097 -0.21603586
0.0045130337 0.03442403 -0.237715 -0.21080683 -0.041315474 -0.029635739 0.069139026 0.049380552
-0.0019442214 0.12869112 0.09746099 0.045982376 0.1898449 -0.06266191 0.07527247 0.15373173
0.063577294 0.053308696 0.04377926 -0.071559004 -0.018898997 -0.2757757 0.17947184 0.13565814
-0.018541666 0.017141078 0.013106855 -0.060071625 0.05185937 -0.10540317 -0.1818045 0.0008525123
0.13414422 0.07715159 0.036633763 0.09454503 -0.0525502 -0.17937793 -0.08142344 0.088102475
0.093125075 0.044329677 0.00703222 -0.14583108 -0.15066375 -0.043016613 0.028201925 0.120191
-0.0991452 0.18711379 0.026088946 0.037016053 0.05077126 -0.12337137 0.06160007 -0.042968284
-0.04415058 -0.043226227 0.03330519 -0.032435592 0.03671924 0.026229419 -0.04150828 -0.013813899
0.030670933 0.069955625 -0.02967334 -0.009439171 -0.1425931 0.07233544 0.1602851 0.16387704
0.0074691135 0.17662491 0.13021976 -0.11703714 -0.055270154 -0.067872904 0.13678384 0.024438586
0.042205665 -0.026633712 0.2079362 -0.023184372 -0.08500265 0.055771932 -0.07007686 0.04479338
-0.030185658 -0.16747858 0.12400265 0.09768206 -0.0632853 0.12609759 -0.037343726 -0.041770153
-0.14410888 0.07017352 0.008306325 0.02896364 -0.040423684 -0.09648433 -0.03754979 -0.05515127
-0.18850455 -0.15437339 0.060974155 -0.10186665 -0.13674256 -0.18258417 0.10328276 -0.10734422
-0.07364295 0.11172379 0.041555133 -0.046091806 -0.0721213 0.036383055 -0.044812296 0.07140817
-0.058391526 -0.109722055 0.028443344 0.07967976 -0.06725307 0.0072309356 0.028467437 0.001583764
0.05722987 0.107768886 -0.10922133 -0.0057065575 0.00530141 -0.009471959 -0.048038926 0.14303644
00000000: 4a83 793d 6996 efbd 509d 073e cf74 0abd
00000010: f7b5 9ebd a1eb 1cbd 92e0 0dbe 4c4f 06be
00000020: 1a24 3fbd 3b6e f3bc 4c25 e7bc 6a35 233d
00000030: 56d3 d9bd b646 103e 0305 3f3c a221 be3d
00000040: fec2 f93d 77f8 0f3d 06f7 f63d e8d5 cc3d
00000050: e9bc 4f3c 27a2 d7bd 0798 e93c b932 b8bb
00000060: 53a6 c5bb d795 19bd 05ae 713d 7990 9dbd
00000070: c3cd ca3d d030 e63d 1a0d 9d3d 3031 3dbd
00000080: da70 03be 4f33 97bc 9695 3cbc b085 9cbd
00000090: 29d7 243e 8d5c b1bd a87f 84bd 41d6 fe3c
000000a0: cf47 dfbc 7a28 26bd 9c19 52bd e23d d0bd
000000b0: 69b8 e1bd 6be9 213d bfb5 1c3e 0ba4 04be
000000c0: 6201 4e3e d974 a33d 0a96 0b3e d2a6 0abe
000000d0: bee2 ed3d 80ea 023e 3c6a 023e e993 db3d
000000e0: b75f 273e 97ed 02be b402 05be c7ae da3c
000000f0: 7cc3 f63d e0bf b13d 9249 10be ebce 9e3c
00000100: a94f 2239 c4db d9bb b845 f03c cf86 cbbd
00000110: 0491 e23d 9791 c3bd 72de e03c 97d4 f1bb
00000120: ef17 e3bd 4a97 3abd 50ba 913d 7dac d63d
00000130: 201a eb3d 6a33 c13d ea0a 17be e0c1 58bd
00000140: 630b ad3c 10b0 ffbc d45b 31bd ff7b cbbd
00000150: 48db fd3d 4ee9 fe3d dfbf 313e 7621 c83d
00000160: c114 093d 25f7 003d d585 1d3e ac2a 063d
00000170: 3db2 1d3e 1d3c 023e 6616 173d 3901 cdbd
00000180: 3b64 183e 48f6 e5bd d736 ccbd 5c27 0b3c
00000190: be07 b93d 29ab 78bd d434 55bd ac13 00bc
000001a0: 39d1 42bd f82b 71bc 3233 94bd e052 603d
000001b0: 9409 69be d84b d5bc 928a 143e ad02 3b3e
000001c0: 9cd6 f73d b1bb dabd f85c b63d be62 1e3d
000001d0: fe76 d1bd 08b0 ac3d 8d9c 08be 8138 5dbe
000001e0: 12e2 933b 3600 0d3d 906b 73be bfdd 57be
000001f0: 6a3a 29bd a6c6 f2bc c398 8d3d 4343 4a3d
00000200: 3fd5 feba 9bc7 033e a199 c73d 0458 3c3d
00000210: b466 423e e354 80bd 7428 9a3d da6b 1d3e
00000220: d034 823d 385a 5a3d e251 333d 878d 92bd
00000230: 12d2 9abc 7932 8dbe 77c7 373e f8e9 0a3e
00000240: b1e4 97bc 726b 8c3c 22be 563c aa0d 76bd
00000250: 7e6a 543d 9edd d7bd f52a 3abe 227b 5f3a
00000260: 1a5d 093e a701 9e3d 490d 163d d3a0 c13d
00000270: e13e 57bd d9ae 37be 55c1 a6bd 126f b43d
00000280: 5cb8 be3d 0993 353d 896e e63b be54 15be
00000290: 9947 1abe 3032 30bd b907 e73c b326 f63d
000002a0: a30c cbbd c29a 3f3e 7cb8 d53c 259e 173d
000002b0: 86f5 4f3d 21aa fcbd 5b50 7c3d 83ff 2fbd
000002c0: 3dd7 34bd fc0d 31bd 066b 083d 2fdb 04bd
000002d0: ea66 163d 14df d63c 9604 2abd b153 62bc
000002e0: 9c41 fb3c e544 8f3d 8115 f3bc c1a6 1abc
000002f0: ed03 12be 9a24 943d c721 243e 62cf 273e
00000300: 77bf f43b 29dd 343e 5458 053e 2bb1 efbd
00000310: f562 62bd f300 8bbd 1011 0c3e 6e33 c83c
00000320: d9df 2c3d f12e dabc 3aed 543e 27ed bdbc
00000330: df15 aebd 1c71 643d 7584 8fbd 4379 373d
00000340: ea47 f7bc 817f 2bbe 1af5 fd3d 880d c83d
00000350: b99b 81bd ba1f 013e bcf5 18bd 2e17 2bbd
00000360: 4791 13be 22b7 8f3d 4117 083c 2845 ed3c
00000370: 4e93 25bd 9499 c5bd cfcd 19bd 4ce6 61bd
00000380: 5607 41be 0f14 1ebe 09c0 793d 769f d0bd
00000390: 3e06 0cbe 58f7 3abe e985 d33d 49d7 dbbd
000003a0: 1dd2 96bd 71cf e43d b735 2a3d c3ca 3cbd
000003b0: 55b4 93bd 6606 153d 198d 37bd 723e 923d
000003c0: f42b 6fbd f5b5 e0bd 0402 e93c 242f a33d
000003d0: fabb 89bd 7cf1 ec3b 8b34 e93c 4d96 cf3a
000003e0: de69 6a3d efb5 dc3d 6faf dfbd 13fe babb
000003f0: 73b7 ad3b 4730 1bbc 77c4 44bd 2578 123e

1.l0.bias f4 [222]
0.3547715 -0.6575049 0.6583467 0.10260767 0.109277405 0.58543336 -0.4506309 -0.2546407
0.5432023 -0.7988217 0.4199712 0.22753534 -0.9959768 0.70841134 0.5235978 0.13372143
0.16388598 0.41679156 0.14203513 -0.5487317 0.16022664 0.2104447 0.615426 0.056343224
-0.023873245 -0.8188678 -1.017304 0.15437278 -0.59900326 0.225482 0.06713669 -0.07382821
0.011817042 0.5696338 -0.46895617 0.41532415 -0.87844586 -0.72808367 0.17491841 -0.30862153
-0.26626 -0.088483684 -0.5526402 0.71861345 -1.1372746 -0.59604305 -0.5440661 -0.592183
-0.70387167 0.3744324 0.17957021 0.18656363 0.18160114 0.6359306 0.78958803 0.07624457
0.09431769 0.14101107 0.07376839 0.49414462 0.35192025 0.13368319 0.6667639 0.5773508
0.047354598 0.32787523 0.051950917 -0.3654572 -0.19694781 0.46908292 -0.14286067 0.15498151
0.08746811 -0.3482694 -1.0711976 0.17598769 -0.118001975 -0.16865176 -0.10845305 -0.2529951
0.712897 -0.26700786 -0.12601466 -0.22077832 0.48368526 -0.043242246 0.06803341 -0.4650919
0.007489183 0.44561407 0.67360884 -1.249651 0.06899214 0.09584305 -0.22538787 0.051219262
0.47346267 0.084346525 0.13647757 -0.4860928 -0.9087102 -0.73584837 0.23909815 0.1773503
0.008208943 -0.16737176 0.2787703 -0.4414728 -0.016376631 -0.6707162 -0.465766 0.3090733
0.6610165 0.019672016 0.18453634 -0.5711435 -0.19833526 -0.04277203 0.19506665 0.26684055
0.21244666 0.6871121 0.9372533 0.24726647 -0.00043118515 0.6313684 -0.0047092643 -0.62925774
0.260542 0.10083747 0.16962384 0.24315949 0.50814164 0.33033562 -0.10472659 0.59880465
-0.12573317 -0.2349872 0.0847809 0.026094314 0.14287856 0.16275603 -0.6711646 -0.014817555
-0.55523086 0.5572678 0.15757228 0.34452623 0.19572201 -0.8709897 -0.51722133 -0.0050518345
0.32507008 0.075128265 -0.6589742 0.30755737 0.43620327 0.016377032 0.13375473 0.08387001
0.692913 0.4134595 0.17650959 -0.15865812 0.58350736 -0.07252488 0.3014631 0.124026865
-0.3133123 0.8660449 0.53902936 -0.46997195 -0.60016626 -0.33686146 1.0304084 -0.3873717
-0.75324315 0.19147596 0.3653255 -0.48780316 0.040543098 0.14120148 0.3841984 0.5664534
-0.37110114 0.07614565 0.008849875 -0.6301207 0.43176198 -0.5867763 0.049337193 -0.47162062
-0.39143243 -0.18203855 -0.090564385 -1.2243586 0.042511027 -0.5958381 -0.66295004 0.08089982
-0.53494066 0.07144218 0.08867055 -0.58570343 0.3010795 -0.6422801 -0.35920078 0.7272824
0.25756493 -0.026148945 0.24748808 0.32663947 0.19461662 0.4197127 -0.3353304 -0.12470705
0.07708081 -0.48071176 0.63220316 0.23227766 0.17313236 0.16740952
00000000: 9ca4 b53e 3e52 28bf 6989 283f f823 d23d
00000010: d5cc df3d f6de 153f 18b9 e6be 4460 82be
00000020: 4e0f 0b3f 947f 4cbf 7706 d73e 06ff 683e
00000030: 56f8 7ebf 725a 353f 810a 063f 45ee 083e
00000040: bad1 273e b465 d53e a871 113e ae79 0cbf
00000050: 7412 243e d17e 573e 8f8c 1d3f 27c8 663d
00000060: d391 c3bc 52a1 51bf 0437 82bf e613 1e3e
00000070: 4758 19bf c1e4 663e f67e 893d 3f33 97bd
00000080: 449c 413c 85d3 113f 061b f0be 5ea5 d43e
00000090: d4e1 60bf b163 3abf d01d 333e a403 9ebe
000000a0: 3b53 88be ef36 b5bd d479 0dbf 0df7 373f
000000b0: 3792 91bf 4796 18bf ea47 0bbf 4e99 17bf
000000c0: ef30 34bf 9bb5 bf3e 41e1 373e 890a 3f3e
000000d0: a6f5 393e 59cc 223f 7122 4a3f 1d26 9c3d
000000e0: a229 c13d 3565 103e e213 973d 8600 fd3e
000000f0: e42e b43e 3fe4 083e 0ab1 2a3f 43cd 133f
00000100: e5f6 413d 43df a73e 7cca 543d 351d bbbe
00000110: b0ac 49be a32b f03e 114a 12be 79b3 1e3e
00000120: 7b22 b33d 5e50 b2be 011d 89bf 1e36 343e
00000130: 05ab f1bd 0cb3 2cbe a21c debd 9388 81be
00000140: 6b80 363f 41b5 88be fd09 01be b613 62be
00000150: 98a5 f73e c81e 31bd 1a55 8b3d 8720 eebe
00000160: d267 f53b 8727 e43e a171 2c3f 90f4 9fbf
00000170: c04b 8d3d 5c49 c43d 14cc 66be 4acb 513d
00000180: b369 f23e dfbd ac3d c7c0 0b3e 28e1 f8be
00000190: 3ba1 68bf 8f60 3cbf 25d6 743e 519b 353e
000001a0: cd7e 063c 8163 2bbe fbba 8e3e b908 e2be
000001b0: 4928 86bc 0fb4 2bbf e278 eebe db3e 9e3e
000001c0: 6138 293f 3527 a13c 18f7 3c3e 7636 12bf
000001d0: 6618 4bbe b931 2fbd 8dbf 473e 539f 883e
000001e0: 9e8b 593e 94e6 2f3f d5ef 6f3f 6c33 7d3e
000001f0: b110 e2b9 5ca1 213f 2c50 9abb 0917 21bf
00000200: c365 853e e083 ce3d dfb1 2d3e cdfe 783e
00000210: 9215 023f c021 a93e e57a d6bd 434b 193f
00000220: 32c0 00be 7ca0 70be 9ca1 ad3d bec3 d53c
00000230: c24e 123e 84a9 263e 71d1 2bbf 55c5 72bc
00000240: 9c23 0ebf 1aa9 0e3f a15a 213e be65 b03e
00000250: 5a6b 483e 2ef9 5ebf 9e68 04bf dc89 a5bb
00000260: 966f a63e d9dc 993d 88b2 28bf 2978 9d3e
00000270: 0956 df3e 2029 863c 00f7 083e 0ac4 ab3d
00000280: bf62 313f f7b0 d33e eebe 343e 4677 22be
00000290: bd60 153f ed87 94bd 5f59 9a3e cc01 fe3d
000002a0: 786a a0be 1eb5 5d3f d4fd 093f 2aa0 f0be
000002b0: 7fa4 19bf 1b79 acbe 6ce4 833f 9555 c6be
000002c0: 8bd4 40bf 4612 443e f20b bb3e 56c1 f9be
000002d0: 8510 263d 1f97 103e a7b5 c43e 1703 113f
000002e0: f800 bebe 40f2 9b3d 11ff 103c 974f 21bf
000002f0: e80f dd3e f936 16bf cc15 4a3d 4278 f1be
00000300: d569 c8be 5068 3abe d279 b9bd c8b7 9cbf
00000310: 0b20 2e3d d988 18bf 18b7 29bf ceae a53d
00000320: dff1 08bf 4750 923d e898 b53d a9f0 15bf
00000330: 1827 9a3e 786c 24bf 2ae9 b7be 2e2f 3a3f
00000340: 8ddf 833e 5036 d6bc 846d 7d3e 4a3d a73e
00000350: 9449 473e 95e4 d63e 6db0 abbe 6966 ffbd
00000360: 8bdc 9d3d da1f f6be 11d8 213f 32da 6d3e
00000370: 9c49 313e 676d 2b3e

1.l1.weight f4 [220, 222]
-0.022140207 0.16597648 -0.014701036 -0.019349733 -0.029263727 0.048735242 -0.04159438 0.0096986415
0.04541491 -0.16130048 0.010729194 -0.014766691 -0.006898309 -0.017719638 -0.0062757744 -0.00012234431
0.023153141 -0.3809983 -0.04685366 -0.06868298 0.013435702 0.007838874 0.001681522 -0.057400506
0.033052325 -0.037827455 -0.036069855 -0.033651408 -0.023462541 0.022624703 0.04038751 0.08694095
-0.016733807 -0.015057963 -0.6713718 -0.010178717 -0.039092742 0.007970576 -0.046501275 -0.25510672
0.0119576175 0.2588856 -0.5486957 -0.018516442 -0.0037469093 -0.04642484 -0.036494087 -0.7629009
0.028358007 -0.0060944813 0.05230466 -0.02196492 0.015655553 -0.014023038 -0.016704425 0.039115045
-0.13423534 0.06659961 0.033426903 -0.010411084 0.013564122 -0.01404533 0.01183159 -0.010034644
0.02737817 -0.06266855 -0.019943442 0.032268453 0.04122682 0.020258933 -0.11156333 -0.16375543
0.04880099 -0.29490945 0.010228474 -0.001305263 -0.20920888 -0.08664437 -0.16389313 0.0844805
0.0154950805 0.047588244 0.10411798 0.10256011 -0.0028206692 -0.18900062 -0.33140364 0.32209754
0.05207282 0.010338629 -0.026693406 -0.19026634 -0.03515033 0.07858746 -0.3073649 -0.02261458
-0.022630408 -0.10995024 -0.11288103 -0.037000116 -0.08438366 0.20494153 0.031217646 0.02084478
-0.08503413 -0.0123180505 -0.054696526 -0.36945072 0.12842274 -0.029572837 -0.31477094 0.0013981768
-0.02723018 -0.42922324 -0.095949344 -0.036830094 -0.05397161 -0.017005406 0.072511345 -0.033924256
0.08706955 -0.012171818 -0.01735243 0.033428926 0.104848705 0.021099856 -0.017456945 -0.14213426
-0.13339975 0.08195252 -0.01139724 -0.007830169 0.015470687 0.030628698 0.061595187 0.010289043
0.022252534 -0.05710154 0.07056982 0.011659621 0.013331551 -0.0034924133 0.043360516 0.0013139741
-0.36340174 0.017664617 0.006181718 0.046631984 -0.026592858 -0.048423573 -0.056186985 0.0041461554
0.062142573 -0.015545358 -0.037613694 -0.00735794 -0.013119136 -0.617802 -0.00765103 -0.01888807
-0.019923149 -0.027314752 -0.0001912985 -0.054577302 -0.027685484 0.042297494 -0.008726335 0.12211221
0.020025333 -0.0015021923 0.0065310397 0.01791945 -0.0087435655 0.16212785 -0.0019915125 0.07725008
0.107178345 -0.04383638 0.004576537 -0.2143157 0.016763376 0.007342449 0.12959832 0.014653801
-0.13345727 -0.057668038 0.025360946 -0.03878779 0.048081096 -0.17001076 0.019130092 0.054357264
-0.45960918 0.034795612 -0.02667021 -0.16203688 -0.07527879 -1.0409143 -0.017345443 0.1540706
-0.19634347 0.012075425 0.038531967 -0.15634051 0.0017497523 0.085343845 0.017018901 -0.006180903
0.0029668289 0.03646671 -0.20164913 -0.02771026 -0.0027619987 -0.0007741347 -0.052726407 0.124271445
-0.001398999 -0.0076562283 -0.013237614 -0.0006660192 0.039463025 0.0496836 -0.7599184 0.08221312
0.07651151 0.080439635 -0.10249647 -0.009267235 0.02671714 -0.25787523 -0.10837847 0.03818455
-0.72569567 -0.007924646 -0.0752232 0.058053583 0.12393707 0.035582162 -0.0030887949 0.1609626
0.1063353 -0.010557223 0.04203666 -0.023987524 -0.51953155 -0.09945347 0.0153844105 -0.0856814
-0.022328375 -0.18066941 0.057123378 0.0031378537 -0.33393368 -0.039805982 0.057585154 0.022227878
00000000: 615f b5bc bdf5 293e 9ddc 70bc 5583 9ebc
00000010: 7cba efbc 9b9e 473d de5e 2abd 0de7 1e3c
00000020: fc04 3a3d f42b 25be 80c9 2f3c feef 71bc
00000030: 360b e2bb c628 91bc 03a5 cdbb 8d49 00b9
00000040: a8ab bd3c 3612 c3be a0e9 3fbd aaa9 8cbd
00000050: 6b21 5c3c 9f6e 003c 8466 dc3a cb1c 6bbd
00000060: e061 073d f6f0 1abd fcbd 13bd 0fd6 09bd
00000070: 8434 c0bc 7157 b93c 606d 253d 190e b23d
00000080: 5615 89bc adb5 76bc 06df 2bbf a2c4 26bc
00000090: b61f 20bd 0597 023c 1f78 3ebd 599d 82be
000000a0: e2e9 433c a78c 843e 5277 0cbf cbaf 97bc
000000b0: b58e 75bb f927 3ebd d37a 15bd 794d 43bf
000000c0: 0d4f e83c 37b4 c7bb 693d 563d c7ef b3bc
000000d0: 1340 803c e2c0 65bc b8d7 88bc 1937 203d
000000e0: fd74 09be 6065 883d a6ea 083d 4093 2abc
000000f0: 0d3c 5e3c 621e 66bc 49d9 413c 5968 24bc
00000100: 2f48 e03c 5e58 80bd 6e60 a3bc ed2b 043d
00000110: 74dd 283d 10f6 a53c 517b e4bd 81af 27be
00000120: 8ce3 473d 5ffe 96be 5495 273c 5c15 abba
00000130: da3a 56be 9a72 b1bd 9ad3 27be 1d04 ad3d
00000140: 14df 7d3c e4eb 423d cf3b d53d 090b d23d
00000150: fada 38bb 6189 41be bdad a9be f8e9 a43e
00000160: 4f4a 553d 5a63 293c 21ac dabc 2ed5 42be
00000170: cbf9 0fbd 76f2 a03d ef5e 9dbe 3642 b9bc
00000180: 6863 b9bc 972d e1bd 2b2e e7bd 6f8d 17bd
00000190: 57d1 acbd 31dc 513e 26bc ff3c acc2 aa3c
000001a0: 6026 aebd a6d1 49bc 7709 60bd a528 bdbe
000001b0: 4081 033e bc42 f2bc a829 a1be 0743 b73a
000001c0: d411 dfbc 26c3 dbbe 1781 c4bd 27db 16bd
000001d0: 5611 5dbd ec4e 8bbc d480 943d 29f4 0abd
000001e0: 8551 b23d 4e6c 47bc af26 8ebc c5ec 083d
000001f0: ebba d63d 9bd9 ac3c de01 8fbc a58b 11be
00000200: f299 08be b9d6 a73d 7dbb 3abc 1c4a 00bc
00000210: c478 7d3c 09e9 fa3c 3c4b 7c3d 6093 283c
00000220: f24a b63c 4ee3 69bd e986 903d ff07 3f3c
00000230: 946c 5a3c f9e0 64bb cc9a 313d a839 ac3a
00000240: cb0f babe 63b5 903c 0290 ca3b 2e01 3f3d
00000250: 44d9 d9bc cc57 46bd 5324 66bd 79dc 873b
00000260: 3689 7e3d f5b1 7ebc d110 1abd e01a f1bb
00000270: a5f1 56bc 4628 1ebf 7eb5 fabb 27bb 9abc
00000280: df35 a3bc 30c3 dfbc 4d97 48b9 738c 5fbd
00000290: abcc e2bc 2340 2d3d e7f8 0ebc f715 fa3d
000002a0: 2b0c a43c 36e5 c4ba 5502 d63b cfcb 923c
000002b0: 2c41 0fbc d804 263e 0984 02bb 4a35 9e3d
000002c0: 5280 db3d c78d 33bd c6f6 953b 9375 5bbe
000002d0: 5953 893c ed98 f03b 6cb5 043e 7f16 703c
000002e0: 06a9 08be 5235 6cbd c2c1 cf3c f2df 1ebd
000002f0: aff0 443d 4d17 2ebe b6b6 9c3c b9a5 5e3d
00000300: e551 ebbe d885 0e3d 7c7b dabc ffec 25be
00000310: c42b 9abd ae3c 85bf 0818 8ebc afc4 1d3e
00000320: 430e 49be 01d8 453c b2d3 1d3d ba17 20be
00000330: f257 e53a c1c8 ae3d 396b 8b3c 2c89 cabb
00000340: 216f 423b 1e5e 153d 1c7d 4ebe a100 e3bc
00000350: a602 35bb 4def 4aba a5f7 57bd 0782 fe3d
00000360: 9e5e b7ba 19e1 fabb 94e2 58bc cb97 2eba
00000370: fba3 213d 0881 4b3d 038a 42bf 5a5f a83d
00000380: 11b2 9c3d 89bd a43d abe9 d1bd 9ad5 17bc
00000390: e7dd da3c 3908 84be 88f5 ddbd 6767 1c3d
000003a0: 31c7 39bf 60d6 01bc 9f0e 9abd 98c9 6d3d
000003b0: b8d2 fd3d 9abe 113d 616d 4abb 61d3 243e
000003c0: 52c6 d93d 34f8 2cbc a22e 2c3d 7c81 c4bc
000003d0: 0500 05bf 43ae cbbd e50e 7c3c bb79 afbd
000003e0: ffe9 b6bc 6701 39be 34fa 693d 73a4 4d3b
000003f0: 5bf9 aabe 990b 23bd 69de 6b3d 3d17 b63c

1.l1.bias f4 [220]
-1.350199 0.32028663 -1.1162167 0.125554 0.48989943 -0.05286925 0.44569674 -1.0395069
0.45347312 -0.013606266 0.5197482 0.34770954 0.6056372 -0.0451107 0.38878167 0.2892568
0.44728473 -1.2021571 0.54424775 0.34008583 -0.55056125 -0.58602077 -0.7662393 0.5919719
0.5067987 -0.0031946579 0.22920085 0.38685367 -1.0597415 0.43753597 0.18859458 -1.1579012
0.48905358 0.4339818 0.009236663 0.5206321 0.4235182 -0.7036847 0.39615577 -0.12858856
0.055374343 0.4329221 -0.045232557 0.06831637 0.43971938 0.1803765 0.55527157 0.39347777
-0.8580945 -1.0099391 0.13037576 0.4422343 0.49130607 -1.3826461 0.52667445 0.4260666
0.5080684 0.6068971 0.3533169 0.09011426 -1.2442416 0.55259496 0.5195449 0.44940832
0.49616152 0.5563029 0.34566212 0.47966787 -0.8428181 0.18814503 0.42986056 0.45022598
0.46085396 -1.3895673 0.48420197 0.39451057 0.59717953 0.016057605 0.5956008 0.43126392
0.15020096 0.37506077 0.08651579 0.5514641 0.55426526 0.46012902 -0.2250786 -1.3687066
-1.085659 0.0664784 0.50115925 -0.8809754 0.07287449 -0.9601161 -0.9148535 0.55769444
0.13379684 -1.0890785 0.22454798 0.31664997 0.118662365 0.4223698 0.39389166 0.38062832
-1.3390803 0.32994384 0.38647494 0.15575837 0.44581062 0.22880399 0.10276675 0.17840016
0.22138503 -0.15753147 -0.9838723 -0.9249916 -1.1679605 0.51951283 0.5902002 -1.2173862
-1.0636152 0.11157812 0.38944933 0.5898949 0.13419071 0.28537643 0.54715025 -0.7030538
0.41506115 0.282296 0.42712164 0.14789164 0.41801667 0.48784444 0.44064823 0.3830599
0.0950075 0.50193185 -0.9618064 0.19132532 -1.2977362 0.038329426 0.4218609 -0.6950326
-0.808732 -1.1319597 0.5594116 0.57634443 0.42357448 0.45005134 0.38465595 0.38999623
0.3867649 0.09158542 0.13340537 0.20458104 0.47387168 0.43877152 0.5685117 -1.1083505
0.48005623 0.30217475 -0.86820394 0.17050034 0.14928436 0.42985702 0.43084177 -0.22438446
-0.964435 -1.177563 0.41048762 0.36988425 -0.9500584 0.40570912 0.4376686 0.23818432
0.4509656 -1.2337096 -0.9943932 0.49345094 0.1692025 0.442807 0.42024988 0.54606205
0.16591695 0.5167662 0.59090686 0.25062528 -0.8193645 -1.3270139 -0.6801542 -0.3020707
0.39169016 0.41915715 0.43110156 0.2652125 0.41749787 -0.8093269 0.21687847 -1.2265692
0.45126185 0.5058938 0.13719258 -1.0785722 0.44426355 0.39922214 0.55427307 0.158064
-0.23670337 -0.049365092 0.24038924 0.23061134 -1.0920174 0.51796085 0.56868297 0.46942645
0.4427422 -0.089332715 0.4172658 0.12368357
00000000: 52d3 acbf 9cfc a33e 30e0 8ebf 3a91 003e
00000010: 19d4 fa3e 6d8d 58bd 5d32 e43e 900e 85bf
00000020: a12d e83e d1ec 5ebc 380e 053f fc06 b23e
00000030: 0a0b 1b3f ffc5 38bd 640e c73e 7819 943e
00000040: 8102 e53e 49e0 99bf d253 0b3f bb1f ae3e
00000050: 95f1 0cbf 7505 16bf 4228 44bf 788b 173f
00000060: 8fbd 013f 775d 51bb a1b3 6a3e af11 c63e
00000070: 9ca5 87bf b704 e03e f01e 413e 1b36 94bf
00000080: 3b65 fa3e dd32 de3e 5f55 173c 2548 053f
00000090: 61d7 d83e ae24 34bf eed4 ca3e b8ac 03be
000000a0: 35d0 623d f7a7 dd3e c645 39bd 74e9 8b3d
000000b0: e622 e13e 9eb4 383e 4726 0e3f eb75 c93e
000000c0: 15ac 5bbf af45 81bf 3981 053e 896c e23e
000000d0: 788c fb3e 8cfa b0bf 23d4 063f 6725 da3e
000000e0: c510 023f 9c5d 1b3f f4e5 b43e d38d b83d
000000f0: 4f43 9fbf dd76 0d3f e500 053f d918 e63e
00000100: e208 fe3e de69 0e3f a0fa b03e 0797 f53e
00000110: edc2 57bf 17a9 403e af16 dc3e 0584 e63e
00000120: 0df5 eb3e 57dd b1bf 52e9 f73e 4afd c93e
00000130: c2e0 183f 3d8b 833c 4b79 183f a0ce dc3e
00000140: 48ce 193e f707 c03e 312f b13d c02c 0d3f
00000150: 54e4 0d3f 0896 eb3e 017b 66be c731 afbf
00000160: e0f6 8abf d425 883d f94b 003f 9b87 61bf
00000170: 383f 953d 2bca 75bf d733 6abf 10c5 0e3f
00000180: 0a02 093e ed66 8bbf e8ef 653e f21f a23e
00000190: 4105 f33d db40 d83e 2bac c93e b7e1 c23e
000001a0: fc66 abbf 66ee a83e 0be0 c53e 1f7f 1f3e
000001b0: 4a41 e43e 984b 6a3e 6077 d23d 88ae 363e
000001c0: c2b2 623e ee4f 21be 0edf 7bbf 40cc 6cbf
000001d0: bb7f 95bf cbfe 043f 5c17 173f 50d3 9bbf
000001e0: 8b24 88bf 1283 e43d e765 c73e 5a03 173f
000001f0: 4a69 093e dc1c 923e 0a12 0c3f 55fb 33bf
00000200: e582 d43e 1a89 903e b0af da3e e870 173e
00000210: 4806 d63e bfc6 f93e a59c e13e 6d20 c43e
00000220: 4b93 c23d 9b7e 003f f238 76bf c9ea 433e
00000230: 381c a6bf 51ff 1c3d 27fe d73e a8ed 31bf
00000240: 0f09 4fbf 0ee4 90bf 9935 0f3f 4f8b 133f
00000250: c1de d83e 216d e63e a0f1 c43e 96ad c73e
00000260: 0d06 c63e 2391 bb3d 6b9b 083e b17d 513e
00000270: 4f9f f23e a9a6 e03e fc89 113f 6ede 8dbf
00000280: eec9 f53e a6b6 9a3e 9d42 5ebf a497 2e3e
00000290: 00de 183e 3816 dc3e 4b97 dc3e 0ac5 65be
000002a0: 36e5 76bf 62ba 96bf 6f2b d23e 7861 bd3e
000002b0: 0737 73bf 1bb9 cf3e 1916 e03e 97e6 733e
000002c0: f7e4 e63e 32ea 9dbf 8e90 7ebf 9aa5 fc3e
000002d0: 6c43 2d3e 99b7 e23e fe2a d73e b9ca 0b3f
000002e0: 22e6 293e ca4a 043f ac45 173f f551 803e
000002f0: dfc1 51bf 97db a9bf 961e 2ebf 03a9 9abe
00000300: 9d8b c83e c49b d63e 58b9 dc3e efc9 873e
00000310: 48c2 d53e 0c30 4fbf 6415 5e3e 3800 9dbf
00000320: cb0b e73e 4282 013f 367c 0c3e a70e 8abf
00000330: 8376 e33e d866 cc3e d7e4 0d3f 87db 213e
00000340: 5e62 72be 0d33 4abd 9928 763e 6125 6c3e
00000350: 3ac7 8bbf 1599 043f 3595 113f aa58 f03e
00000360: 1baf e23e 12f4 b6bd dda3 d53e d04d fd3d

1.l3.weight f4 [1, 220]
-0.017417492 -0.03207953 0.26849595 0.60054064 0.15406285 -0.045810785 -0.0482784 -0.14882599
0.064038016 -1.4447347 0.028776694 0.017726256 0.24219088 0.0036517547 -0.20287035 0.38503847
-0.45364892 -0.116169415 -0.04956561 -0.026437698 -0.79235405 -0.83475757 0.44999078 0.04368815
0.084970914 2.6675026 0.5213815 -0.21554485 0.021651639 -0.25928497 1.3971658 0.095998645
0.07271675 -0.39148298 1.2105012 0.10214471 -0.040378056 -0.7017455 0.015250069 0.8658282
-2.4819489 0.014667107 -0.17159304 1.0575892 -0.2794558 0.81357974 0.025806757 -0.029686617
0.016971823 0.1593713 0.92484814 -0.231236 0.02267416 -0.26300323 0.098429814 -0.033089418
0.02351133 0.32242206 -0.4198163 -1.0955423 -0.15800443 0.02186577 0.019964712 0.020929242
-0.051064733 0.30821034 0.015282398 -0.034330126 -0.016048333 1.1918113 0.045177873 -0.036713388
0.022531867 -0.018664563 0.10469365 0.017492838 0.06934135 -0.050900497 0.22420529 -0.049279734
0.9270485 -0.034168568 -2.5967164 0.27896112 -0.05073003 -0.05256714 0.29861143 -0.05594243
0.11361428 -0.30543104 -0.05089098 -0.0044264668 -1.9690689 0.22328173 -0.04502694 0.023918623
0.64832985 0.04695915 -1.9700791 0.013021686 -0.2871852 -0.033773724 -0.03626931 -0.30137822
-0.005644511 -0.036029678 -0.19340384 1.2261213 -0.040651582 0.472658 -1.3886752 0.62295395
1.0403715 -0.050082047 0.059169903 0.032444548 -0.004124854 0.0188318 0.19678263 -0.06889238
-0.009115135 0.30546254 -0.032082208 0.042023677 0.69741106 1.1084188 0.024195481 -0.010678618
-0.22022822 -0.034983814 -0.059831433 0.4258162 -0.03589316 0.046783183 -0.039769676 -0.033963412
-3.075403 0.09795069 -0.0055342307 -1.7843378 -0.061345425 -0.3027978 -0.054217815 0.82068276
0.10641503 0.1124033 0.02630073 0.05865939 0.018410048 0.02117187 -0.2185498 -0.03945626
-0.03682255 0.34325856 1.2919135 1.3155006 0.02037826 -0.04043454 -0.0619992 0.18354073
0.024253724 2.4027822 0.09913846 -0.7852265 1.2734292 -0.059959423 -0.20851594 0.7372739
-0.011748176 -0.18204926 -0.059541214 0.017184231 0.02108266 -0.19656585 -0.089696616 -2.012653
-0.04728119 -0.055071253 -0.0101410365 -0.038910646 0.3447099 0.06114936 -0.03467126 0.16169152
-0.779484 -0.3075827 0.3102149 1.0387058 0.021567736 -0.043542918 -0.35708565 1.3124416
-0.043660756 -0.09281012 0.01846707 1.3504484 -0.034491133 -0.004852247 0.88539046 0.15532343
0.07717866 -0.056656923 -2.662314 -0.06475512 -0.034382455 0.025284858 0.09144587 0.66315776
1.2589185 0.084982194 0.009660389 1.4609443 -0.005807065 0.05706068 0.07708063 -0.05889406
-0.21362787 -2.9558158 -0.20371388 0.75267875
00000000: 21af 8ebc d365 03bd 4d78 893e 08bd 193f
00000010: a7c2 1d3e 17a4 3bbd 92bf 45bd d765 18be
00000020: 5d26 833d 11ed b8bf 1abd eb3c a736 913c
00000030: e300 783e 4752 6f3b 3fbd 4fbe c323 c53e
00000040: ac44 e8be 3bea edbd 4f05 4bbd df93 d8bc
00000050: b7d7 4abf acb2 55bf 3165 e63e 58f2 323d
00000060: 3b05 ae3d 5db8 2a40 4279 053f cab7 5cbe
00000070: c75e b13c 00c1 84be 54d6 b23f f09a c43d
00000080: 85ec 943d 7570 c8be b4f1 9a3f 3f31 d13d
00000090: 7663 25bd 98a5 33bf 6ddb 793c eba6 5d3f
000000a0: 40d8 1ec0 4e4e 703c 16b6 2fbe 155f 873f
000000b0: d514 8fbe c346 503f b168 d33c 5931 f3bc
000000c0: 7e08 8b3c 3b32 233e d9c2 6c3f 21c9 6cbe
000000d0: 29bf b93c 5ca8 86be 9295 c93d c588 07bd
000000e0: d59a c03c 8114 a53e 29f2 d6be bb3a 8cbf
000000f0: eacb 21be d81f b33c 098d a33c cd73 ab3c
00000100: 4129 51bd bfcd 9d3e 0663 7a3c bf9d 0cbd
00000110: cb77 83bc 468d 983f 6f0c 393d c760 16bd
00000120: c094 b83c 6de6 98bc a069 d63d 244d 8f3c
00000130: d602 8e3d 0a7d 50bd 1296 653e 8cd9 49bd
00000140: 0d53 6d3f 57f4 0bbd 9a30 26c0 fed3 8e3e
00000150: 4bca 4fbd a450 57bd 99e3 983e e423 65bd
00000160: 9bae e83d 7561 9cbe 0f73 50bd e50b 91bb
00000170: 730a fcbf f7a3 643e 2b6e 38bd fdf0 c33c
00000180: f2f8 253f 3d58 403d 8d2b fcbf e958 553c
00000190: f009 93be 5156 0abd 218f 14bd 3f4e 9abe
000001a0: 97f5 b8bb db93 13bd a80b 46be 8bf1 9c3f
000001b0: 4682 26bd 3b00 f23e 1cc0 b1bf e979 1f3f
000001c0: e52a 853f d522 4dbd 245c 723d 93e4 043d
000001d0: c929 87bb 2645 9a3c 6381 493e 7317 8dbd
000001e0: a657 15bc 9665 9c3e a268 03bd 0521 2c3d
000001f0: 8889 323f abe0 8d3f 9a35 c63c 5ff5 2ebc
00000200: 8283 61be 304b 0fbd ce11 75bd 9504 da3e
00000210: b504 13bd b99f 3f3d 87e5 22bd 381d 0bbd
00000220: 67d3 44c0 5f9a c83d 7e58 b5bb 2e65 e4bf
00000230: 5745 7bbd 5008 9bbe 8013 5ebd 4418 523f
00000240: 20f0 d93d b433 e63d a174 d73c d444 703d
00000250: abd0 963c a170 ad3c 85cb 5fbe e39c 21bd
00000260: 3ed3 16bd 96bf af3e 6c5d a53f 5362 a83f
00000270: 4ff0 a63c b09e 25bd e0f2 7dbd 1af2 3b3e
00000280: bfaf c63c 2fc7 1940 1b09 cb3d 9b04 49bf
00000290: baff a23f 0398 75bd 3485 55be fbbd 3c3f
000002a0: 6c7b 40bc 1f6b 3abe 7de1 73bd f2c5 8c3c
000002b0: 8bb5 ac3c 8f48 49be dcb2 b7bd 4fcf 00c0
000002c0: eca9 41bd 6592 61bd 9726 26bc c560 1fbd
000002d0: d17d b03e c077 7a3d 7303 0ebd 7692 253e
000002e0: 438c 47bf 7b7b 9dbe 7dd4 9e3e 50f4 843f
000002f0: d2ae b03c 0f5a 32bd eed3 b6be 16fe a73f
00000300: 9fd5 32bd 3b13 bebd 4148 973c 7edb ac3f
00000310: 9346 0dbd 99ff 9ebb f3a8 623f 1b0d 1f3e
00000320: d80f 9e3d 1711 68bd 5a63 2ac0 559e 84bd
00000330: 9ed4 0cbd 3122 cf3c f947 bb3d b5c4 293f
00000340: 3e24 a13f 250b ae3d 9c46 1e3c 3900 bb3f
00000350: 3149 bebb 76b8 693d 73dc 9d3d e63a 71bd
00000360: 44c1 5abe 162c 3dc0 5f9a 50be 8eaf 403f
