ergoCubSN001/friction_pinn/2_lhp_b4912_h23.onnx (onnx, 226169 bytes, 7 tensors)

0.weight f4 [46, 46]
000000 c4 37 b6 3d 00 00 00 00 00 00 00 00 00 00 00 00
       0.08897355 0.0 0.0 0.0
000010 00 00 00 00 00 00 00 00 00 00 00 00 00 00 00 00
       0.0 0.0 0.0 0.0
000020 00 00 00 00 00 00 00 00 00 00 00 00 00 00 00 00
       0.0 0.0 0.0 0.0
000030 00 00 00 00 00 00 00 00 00 00 00 00 00 00 00 00
       0.0 0.0 0.0 0.0
000040 00 00 00 00 00 00 00 00 00 00 00 00 00 00 00 00
       0.0 0.0 0.0 0.0
000050 00 00 00 00 00 00 00 00 00 00 00 00 00 00 00 00
       0.0 0.0 0.0 0.0
000060 00 00 00 00 00 00 00 00 00 00 00 00 00 00 00 00
       0.0 0.0 0.0 0.0
000070 00 00 00 00 00 00 00 00 00 00 00 00 00 00 00 00
       0.0 0.0 0.0 0.0
000080 00 00 00 00 00 00 00 00 00 00 00 00 00 00 00 00
       0.0 0.0 0.0 0.0
000090 00 00 00 00 00 00 00 00 00 00 00 00 00 00 00 00
       0.0 0.0 0.0 0.0
0000a0 00 00 00 00 00 00 00 00 00 00 00 00 00 00 00 00
       0.0 0.0 0.0 0.0
0000b0 00 00 00 00 00 00 00 00 00 00 00 00 1d 35 b6 3d
       0.0 0.0 0.0 0.08896849
0000c0 00 00 00 00 00 00 00 00 00 00 00 00 00 00 00 00
       0.0 0.0 0.0 0.0
0000d0 00 00 00 00 00 00 00 00 00 00 00 00 00 00 00 00
       0.0 0.0 0.0 0.0
0000e0 00 00 00 00 00 00 00 00 00 00 00 00 00 00 00 00
       0.0 0.0 0.0 0.0
0000f0 00 00 00 00 00 00 00 00 00 00 00 00 00 00 00 00
       0.0 0.0 0.0 0.0
000100 00 00 00 00 00 00 00 00 00 00 00 00 00 00 00 00
       0.0 0.0 0.0 0.0
000110 00 00 00 00 00 00 00 00 00 00 00 00 00 00 00 00
       0.0 0.0 0.0 0.0
000120 00 00 00 00 00 00 00 00 00 00 00 00 00 00 00 00
       0.0 0.0 0.0 0.0
000130 00 00 00 00 00 00 00 00 00 00 00 00 00 00 00 00
       0.0 0.0 0.0 0.0
000140 00 00 00 00 00 00 00 00 00 00 00 00 00 00 00 00
       0.0 0.0 0.0 0.0
000150 00 00 00 00 00 00 00 00 00 00 00 00 00 00 00 00
       0.0 0.0 0.0 0.0
000160 00 00 00 00 00 00 00 00 00 00 00 00 00 00 00 00
       0.0 0.0 0.0 0.0
000170 00 00 00 00 00 00 00 00 c7 21 b6 3d 00 00 00 00
       0.0 0.0 0.08893161 0.0
000180 00 00 00 00 00 00 00 00 00 00 00 00 00 00 00 00
       0.0 0.0 0.0 0.0
000190 00 00 00 00 00 00 00 00 00 00 00 00 00 00 00 00
       0.0 0.0 0.0 0.0
0001a0 00 00 00 00 00 00 00 00 00 00 00 00 00 00 00 00
       0.0 0.0 0.0 0.0
0001b0 00 00 00 00 00 00 00 00 00 00 00 00 00 00 00 00
       0.0 0.0 0.0 0.0
0001c0 00 00 00 00 00 00 00 00 00 00 00 00 00 00 00 00
       0.0 0.0 0.0 0.0
0001d0 00 00 00 00 00 00 00 00 00 00 00 00 00 00 00 00
       0.0 0.0 0.0 0.0
0001e0 00 00 00 00 00 00 00 00 00 00 00 00 00 00 00 00
       0.0 0.0 0.0 0.0
0001f0 00 00 00 00 00 00 00 00 00 00 00 00 00 00 00 00
       0.0 0.0 0.0 0.0
000200 00 00 00 00 00 00 00 00 00 00 00 00 00 00 00 00
       0.0 0.0 0.0 0.0
000210 00 00 00 00 00 00 00 00 00 00 00 00 00 00 00 00
       0.0 0.0 0.0 0.0
000220 00 00 00 00 00 00 00 00 00 00 00 00 00 00 00 00
       0.0 0.0 0.0 0.0
000230 00 00 00 00 bc 2a b6 3d 00 00 00 00 00 00 00 00
       0.0 0.0889487 0.0 0.0
000240 00 00 00 00 00 00 00 00 00 00 00 00 00 00 00 00
       0.0 0.0 0.0 0.0
000250 00 00 00 00 00 00 00 00 00 00 00 00 00 00 00 00
       0.0 0.0 0.0 0.0
000260 00 00 00 00 00 00 00 00 00 00 00 00 00 00 00 00
       0.0 0.0 0.0 0.0
000270 00 00 00 00 00 00 00 00 00 00 00 00 00 00 00 00
       0.0 0.0 0.0 0.0
000280 00 00 00 00 00 00 00 00 00 00 00 00 00 00 00 00
       0.0 0.0 0.0 0.0
000290 00 00 00 00 00 00 00 00 00 00 00 00 00 00 00 00
       0.0 0.0 0.0 0.0
0002a0 00 00 00 00 00 00 00 00 00 00 00 00 00 00 00 00
       0.0 0.0 0.0 0.0
0002b0 00 00 00 00 00 00 00 00 00 00 00 00 00 00 00 00
       0.0 0.0 0.0 0.0
0002c0 00 00 00 00 00 00 00 00 00 00 00 00 00 00 00 00
       0.0 0.0 0.0 0.0
0002d0 00 00 00 00 00 00 00 00 00 00 00 00 00 00 00 00
       0.0 0.0 0.0 0.0
0002e0 00 00 00 00 00 00 00 00 00 00 00 00 00 00 00 00
       0.0 0.0 0.0 0.0
0002f0 ac 2c b6 3d 00 00 00 00 00 00 00 00 00 00 00 00
       0.08895239 0.0 0.0 0.0
000300 00 00 00 00 00 00 00 00 00 00 00 00 00 00 00 00
       0.0 0.0 0.0 0.0
000310 00 00 00 00 00 00 00 00 00 00 00 00 00 00 00 00
       0.0 0.0 0.0 0.0
000320 00 00 00 00 00 00 00 00 00 00 00 00 00 00 00 00
       0.0 0.0 0.0 0.0
000330 00 00 00 00 00 00 00 00 00 00 00 00 00 00 00 00
       0.0 0.0 0.0 0.0
000340 00 00 00 00 00 00 00 00 00 00 00 00 00 00 00 00
       0.0 0.0 0.0 0.0
000350 00 00 00 00 00 00 00 00 00 00 00 00 00 00 00 00
       0.0 0.0 0.0 0.0
000360 00 00 00 00 00 00 00 00 00 00 00 00 00 00 00 00
       0.0 0.0 0.0 0.0
000370 00 00 00 00 00 00 00 00 00 00 00 00 00 00 00 00
       0.0 0.0 0.0 0.0
000380 00 00 00 00 00 00 00 00 00 00 00 00 00 00 00 00
       0.0 0.0 0.0 0.0
000390 00 00 00 00 00 00 00 00 00 00 00 00 00 00 00 00
       0.0 0.0 0.0 0.0
0003a0 00 00 00 00 00 00 00 00 00 00 00 00 98 2c b6 3d
       0.0 0.0 0.0 0.08895224
0003b0 00 00 00 00 00 00 00 00 00 00 00 00 00 00 00 00
       0.0 0.0 0.0 0.0
0003c0 00 00 00 00 00 00 00 00 00 00 00 00 00 00 00 00
       0.0 0.0 0.0 0.0
0003d0 00 00 00 00 00 00 00 00 00 00 00 00 00 00 00 00
       0.0 0.0 0.0 0.0
0003e0 00 00 00 00 00 00 00 00 00 00 00 00 00 00 00 00
       0.0 0.0 0.0 0.0
0003f0 00 00 00 00 00 00 00 00 00 00 00 00 00 00 00 00
       0.0 0.0 0.0 0.0

0.bias f4 [46]
000000 7c de da 3b 13 90 db 3b 99 5f dc 3b c2 89 dd 3b
       0.0066793542 0.0067005246 0.0067252633 0.006760807
000010 22 81 de 3b 16 79 df 3b 4e 9e e0 3b ae 9f e1 3b
       0.006790296 0.0068198545 0.006854809 0.0068854904
000020 14 69 e2 3b d7 38 e3 3b bb 23 e4 3b 87 c2 e4 3b
       0.006909499 0.006934266 0.006962267 0.0069811973
000030 02 45 e5 3b 27 df e5 3b 2f 22 e6 3b 8a 62 e6 3b
       0.0069967518 0.007015127 0.007023118 0.0070307897
000040 f5 cf e6 3b 24 be e6 3b df 67 e6 3b 28 fb e5 3b
       0.0070438334 0.0070417095 0.0070314254 0.0070184655
000050 f0 6c e5 3b ec 4a e5 3b 05 a4 e4 3b b4 07 6c bc
       0.0070015118 0.006997457 0.0069775605 -0.014406133
000060 6a fb 6b bc 68 ea 6b bc 0c dd 6b bc 8d d5 6b bc
       -0.0144032035 -0.0143991485 -0.014395963 -0.014394176
000070 42 d3 6b bc 7b d2 6b bc 9a cc 6b bc 93 dc 6b bc
       -0.0143936295 -0.014393444 -0.0143920425 -0.014395851
000080 c1 e2 6b bc 99 e3 6b bc 6e e0 6b bc 73 e3 6b bc
       -0.014397324 -0.014397525 -0.01439677 -0.01439749
000090 a8 d8 6b bc 3c d2 6b bc dc c9 6b bc 55 be 6b bc
       -0.014394917 -0.0143933855 -0.014391389 -0.01438864
0000a0 ff a7 6b bc db 92 6b bc 73 74 6b bc 2c 55 6b bc
       -0.014383315 -0.014378275 -0.014371025 -0.014363568
0000b0 c9 33 6b bc de 11 6b bc
       -0.014355608 -0.014347522

1.l0.weight f4 [224, 46]
000000 67 41 1c bd 45 5c e7 bd cf 23 32 bc d7 96 4d 3c
       -0.03814831 -0.11296896 -0.010872795 0.01254817
000010 74 5e af 3d 77 c0 0c bc bb 25 8c 3d eb 4b cc 3d
       0.085629374 -0.008590809 0.06843134 0.09975418
000020 20 4d 9c bc 61 82 0c bd 75 dc 2b be 6f e9 ab bd
       -0.019079745 -0.034304027 -0.16783316 -0.08394133
000030 37 e3 1b bc ce cd 02 be 0c 83 8f bd ae e2 8b bc
       -0.009514621 -0.12773821 -0.07007417 -0.017075863
000040 f1 0f cf bd a8 c3 21 be 01 26 b7 3c 56 b4 b4 bd
       -0.101104625 -0.15797293 0.022356989 -0.08823459
000050 13 35 59 bd 89 e6 94 bd 6a 9b 07 3e 97 48 51 3e
       -0.05302913 -0.072705336 0.1324288 0.20437847
000060 2d 3c 37 be bd 4b 12 3c 26 3e 84 bd 73 67 84 bd
       -0.17894049 0.00892919 -0.064571664 -0.06465044
000070 4d 72 2a 3d 62 55 15 3d a8 2f 23 3d 15 1c 3f be
       0.041612912 0.03645838 0.03984037 -0.18663056
000080 f5 2b 65 bd e7 38 23 be 1e 51 8b 3d d2 00 b0 bc
       -0.055950124 -0.15939675 0.06802581 -0.021484766
000090 28 83 20 3e 6a 49 71 3d cd 6b a1 3d 20 18 45 3e
       0.15675032 0.058907904 0.078818895 0.19247484
0000a0 81 49 87 bd 31 1d bb bc 15 01 5d bd a8 b1 10 be
       -0.06605817 -0.022841068 -0.05395611 -0.1413027
0000b0 a4 fd 2d be 24 7b cb 3d 1c 57 00 3e 52 b7 bb 3d
       -0.16991287 0.099355966 0.1253323 0.09165825
0000c0 55 66 1c 3c 2c e7 1b bd c6 6e 4c bc 3a 07 73 3d
       0.009545882 -0.03806226 -0.012477582 0.059333064
0000d0 89 15 96 3d e5 17 74 bd 70 50 8b 3c 2a 97 03 bd
       0.07328326 -0.0595931 0.017006129 -0.032126583
0000e0 2a 0b a6 3d 96 cd 48 3a 00 dd c9 bb 51 6f 26 3e
       0.08107598 0.0007660029 -0.0061603785 0.16253401
0000f0 ee a5 1e 3e 32 af f6 3c 62 bb 1c bd bb 16 58 bc
       0.15492985 0.030112837 -0.03826464 -0.013189013
000100 45 d2 39 3c 12 b2 52 3c cb ff cd bd cd 60 d9 3d
       0.011341636 0.012859838 -0.10058554 0.106141664
000110 dd 1d a2 3e fd d4 b8 be e1 b5 66 be a3 ae 1a bd
       0.3166341 -0.36099997 -0.22530319 -0.037764203
000120 88 f8 58 bd 8f 8c 63 3e 5d bd 04 3e 2e 19 35 3e
       -0.052971393 0.22221588 0.12962861 0.17685387
000130 21 ef 6e 3e ac 71 b6 3e 18 a5 5c 3e ee 2f c5 3e
       0.23333408 0.356336 0.21547353 0.3851313
000140 38 66 cd 3d be a1 15 3e 31 27 8a 3e f2 bc 91 3e
       0.10029262 0.14612481 0.26983026 0.28464466
000150 67 30 85 3d ce 80 05 bb d1 81 f0 3c ba c6 be bd
       0.06503373 -0.0020370963 0.029358776 -0.09315248
000160 87 7b 73 bc c5 b3 76 be 7b 53 1a be 00 ac 8c be
       -0.014860994 -0.24092014 -0.15070908 -0.27474976
000170 c5 33 98 be 5b ab b0 bd d1 04 2e be db 46 60 be
       -0.29726997 -0.086264335 -0.16994025 -0.21902029
000180 64 46 8f be 9f dc 90 be 81 50 88 be 6f a9 4e be
       -0.2798339 -0.2829332 -0.2662392 -0.20181821
000190 59 37 2b be 48 6b 92 be 5e 6e 2b be a6 89 d9 bd
       -0.16720332 -0.28597474 -0.1674132 -0.106219575
0001a0 a5 d0 43 be db d9 22 be 19 3a 43 be 20 ca 27 be
       -0.1912256 -0.15903418 -0.19065131 -0.16385698
0001b0 86 bd 81 be 9a d0 79 be 5f 92 29 be ed 2f 4e be
       -0.25339907 -0.24395981 -0.16559742 -0.2013547
0001c0 e4 d7 2b be 77 3f 8f bd c1 c7 4f 3c 9f de bc 3d
       -0.16781574 -0.06994527 0.012681902 0.09222149
0001d0 52 de 52 3c 27 fa e5 3c 3c 07 c1 bd 58 4a c2 3d
       0.012870388 0.028073383 -0.09425208 0.09486836
0001e0 cc 24 00 bc d2 2a 91 bd de 47 f4 bc de d5 2b 3d
       -0.007821273 -0.070882455 -0.029819425 0.041952007
0001f0 0b ee 17 3e 1e 00 a6 bd 06 b5 d1 bd 7f de 0a 3e
       0.148369 -0.08105491 -0.102396056 0.13561438
000200 94 00 f1 bd 8e b8 5f bd 30 a0 9b 3d a3 2b 11 3d
       -0.117676884 -0.054619364 0.07598913 0.035442006
000210 f6 44 35 bc 74 50 ca bc 2e 0a 41 3d 5e b3 04 be
       -0.011063805 -0.024696566 0.04712885 -0.12959048
000220 21 b0 3e bd b2 5a 49 3e 91 5e b2 3d d5 d9 d9 3d
       -0.04655469 0.19663504 0.08709443 0.10637251
000230 8a ab a6 3d 12 83 f2 3d 7d 12 2e 3e 28 c6 fb 3d
       0.08138187 0.11841406 0.1699924 0.12293655
000240 34 52 18 3e 47 71 0c bd 48 df 8c bd 61 db 1c bd
       0.14875108 -0.034287717 -0.06878525 -0.038295154
000250 97 7d f0 bd 7f 14 ca bd 6c f1 34 be c3 d7 1a be
       -0.11742704 -0.098671906 -0.1767022 -0.15121369
000260 d3 be 39 3d cc c4 0f bd d9 30 f9 3c 0c e5 af 3d
       0.045348 -0.03509979 0.0304188 0.08588609
000270 dc 3c 35 3d 81 a1 f5 3d a5 46 21 3e b5 6e 03 3e
       0.044247493 0.11993695 0.15749605 0.128352
000280 e4 4d 3f 3e af 87 7e be be b9 b1 3e dc 8b cf 3e
       0.18682057 -0.24856447 0.34712023 0.40536392
000290 e8 99 8d 3e f1 1b 2d 3e 0e e8 61 bc 03 34 12 bd
       0.27656484 0.1690519 -0.013788236 -0.035694133
0002a0 13 f8 97 bd c9 ba e9 bd 66 6c 36 3d 4f b3 1f be
       -0.07420363 -0.114125796 0.04453697 -0.15595745
0002b0 35 52 31 be 6a 50 66 3c a4 64 bd 3d d1 a6 34 be
       -0.17316516 0.014057258 0.09247711 -0.1764176
0002c0 b9 8f f0 bd 3d 05 c2 3d 3b c8 04 3e 03 7a 5a 3e
       -0.11746163 0.094736554 0.12967007 0.21335606
0002d0 fc 5a db 3d 40 a8 6f 3e fa e5 79 3d ba dd de be
       0.10710713 0.23404026 0.06101034 -0.4352854
0002e0 57 e3 a9 be ec cd 9a be cd d2 43 be bc b9 0b be
       -0.3318126 -0.3023523 -0.19123383 -0.13645071
0002f0 90 86 7a 3d 47 20 d7 3d 91 93 7d 3d 62 c5 52 bd
       0.061163485 0.10504203 0.06190831 -0.05145777
000300 ed 9c 8b 3d 54 7e f3 ba e7 5e 4b 3d 88 dc 68 bd
       0.068170406 -0.0018577077 0.049651053 -0.05685094
000310 48 bb b1 bd b9 b8 fa bd af d0 d7 bd 53 e7 30 be
       -0.08678299 -0.12242264 -0.1053785 -0.17275743
000320 b1 01 d1 3d 23 27 21 be 3b ee f2 bd e6 0a 5e 3d
       0.10205401 -0.15737586 -0.11861845 0.054209612
000330 44 7c b2 3c de 81 08 3d f8 12 91 bd 0c c4 8b be
       0.02178777 0.033326976 -0.07083696 -0.2729801
000340 74 34 26 be 75 18 83 bd 7b a5 01 be 14 3e 4f be
       -0.16230947 -0.06401149 -0.12660782 -0.20238525
000350 f6 58 73 be cf e4 1a 3d 3f 4e 48 be c1 5d 0d be
       -0.23764405 0.037815865 -0.19561099 -0.13805296
000360 b8 62 1d be 34 0c 9a 3b 20 6a 0e 3c 1f 6a 7e ba
       -0.1536969 0.0047011618 0.008692294 -0.00097051443
000370 68 f8 0f bc a7 18 6b bd f1 13 06 3d ea 37 9e 3d
       -0.008787252 -0.057396557 0.03273386 0.077255085
000380 d7 5f 9e bd 53 dc a0 3d 7d 07 03 be 71 9a 07 3c
       -0.07733124 0.078545235 -0.12795825 0.008276568
000390 33 95 18 3e ad 2b 17 3e 75 3d 24 be 10 e5 24 be
       0.14900665 0.14762755 -0.16039069 -0.16103005
0003a0 1b b8 15 bd d1 3b 42 be 71 7a fa bd 8a cb 86 3c
       -0.03655253 -0.1896813 -0.12230385 0.016454477
0003b0 8b c4 9c 3d 01 29 89 3d 60 8f 1e 3d e3 7b 64 3d
       0.07654675 0.06697274 0.03871095 0.05578221
0003c0 17 36 ff 3d 1e 8b 44 bd f8 ae c6 3d 2b fc 32 be
       0.12461489 -0.047984235 0.097013414 -0.17479007
0003d0 9a 16 84 bd 1d 5f 00 bd a4 34 b1 bd 25 30 c7 bd
       -0.064496234 -0.031340707 -0.086526185 -0.0972598
0003e0 df 3b cc bd 4c 92 14 3c d2 4a f3 bd 0d ae eb 3d
       -0.09972357 0.009068083 -0.11879505 0.11507807
0003f0 fd 06 05 bd 93 81 14 bd 96 38 8a 3d 0a d3 3d bd
       -0.032477368 -0.036256384 0.06749074 -0.04634384

1.l0.bias f4 [224]
000000 98 79 7e 3c 69 03 dc 3c b2 b3 91 3d d0 46 15 3c
       0.01553192 0.026857095 0.07114352 0.009111121
000010 33 c2 a7 3c 1b f9 a3 3c d9 7b a4 3d ae 4e 56 bf
       0.020478344 0.020016244 0.080314346 -0.83713806
000020 52 d8 c6 bd 07 4a 44 3c 80 85 c0 3b aa ab cc 3d
       -0.097092286 0.01198054 0.0058752894 0.0999368
000030 7b 12 a7 3c 9c 6c 6a 3c 44 c0 91 3d 36 e7 19 3c
       0.020394554 0.014308121 0.0711675 0.009393504
000040 c7 1f 5b 3c f0 a1 05 bd 61 e7 81 bf b8 a1 9c 3c
       0.0133742755 -0.03262514 -1.0148736 0.019120082
000050 70 bd e8 bd e5 ff a7 bb e9 a7 5a bf 63 ea 80 3c
       -0.11364257 -0.0051269406 -0.8541246 0.015736764
000060 92 f7 71 3d 99 d2 d9 3c 05 82 37 bc 23 41 8b bd
       0.059073992 0.026589679 -0.011200433 -0.06799533
000070 ba 3a 95 bf fc ab 56 bd 72 b2 96 be 3c 45 2b be
       -1.1658547 -0.05241011 -0.29433018 -0.1672563
000080 81 f6 b8 3c a6 d3 fb 3e 58 c1 2f 3d 9b 72 7e 3c
       0.02257848 0.49184912 0.042908996 0.015530254
000090 10 e1 7a bb a6 02 89 3c 4d 19 70 3c b3 c9 e9 be
       -0.003828112 0.016724896 0.01465447 -0.45661697
0000a0 27 28 92 be 3d 8d 2b bb 85 55 bd 3c 18 3f 6c 3e
       -0.2854626 -0.0026176714 0.023112068 0.23070943
0000b0 03 9c 24 3c cb 32 d0 bc ea 80 4e 3c 2b 3b f7 bc
       0.010046962 -0.025414845 0.012603978 -0.03017958
0000c0 fd 32 c0 3c 76 e5 d3 3b 68 62 1b be 62 ea 86 bf
       0.023461813 0.006466563 -0.15174258 -1.0540278
0000d0 3d 4d b4 3c 5e 6f 65 3c 52 75 7d 3d 3a 25 49 bd
       0.022009486 0.014003603 0.061879463 -0.049107768
0000e0 b9 cc 7f bf 2b 83 93 bf 86 6d b8 be 21 19 8a bd
       -0.99921757 -1.1524404 -0.3602106 -0.06743074
0000f0 ee f4 50 bc 21 b5 5a be f5 09 86 bd 8b 75 01 3c
       -0.012753708 -0.21358158 -0.06544868 0.00790156
000100 b8 23 1d 3c 7f fb 45 be 14 9c 72 bb 4b 11 49 bf
       0.009591036 -0.1933422 -0.00370193 -0.7854201
000110 8c 5d 5c 3d de 09 11 3c ce 59 50 bf 06 b4 5a 3e
       0.05380015 0.00885245 -0.8138703 0.21357736
000120 dc 60 cf be 7a d1 48 bd d2 6d f8 be 49 f0 dd 3c
       -0.40503585 -0.049027897 -0.48521286 0.027092116
000130 f3 4f d0 be 75 b7 80 3c 18 b3 27 3c ec e8 2a 3c
       -0.40685996 0.01571248 0.01023557 0.010431509
000140 e5 b0 38 bd 66 b1 8e 3c bb 16 d5 3c fa 98 36 bd
       -0.045090575 0.017418575 0.026011815 -0.044579484
000150 07 0e 83 bf 26 f2 3c 3d fd a4 96 ba ba 06 3b be
       -1.0238656 0.04612937 -0.0011493262 -0.18264285
000160 9a 00 01 3d db 2a 4d bf bc 16 54 3b 8e 14 ad be
       0.031494714 -0.8014352 0.0032362184 -0.33804744
000170 21 a8 a6 3a dc 3f 99 bf 09 1d 26 3d 16 e8 7a 3c
       0.0012714901 -1.1972613 0.040555034 0.015314123
000180 8e 42 2e bc 06 cc f6 be 8b cc 7c be 46 bc 42 3a
       -0.010635985 -0.48202533 -0.24687402 0.00074285676
000190 67 95 55 3b c9 13 1f 3d 19 6d aa be bc 87 6a 3c
       0.0032590271 0.038837228 -0.3328636 0.014314588
0001a0 a8 8c 15 bd 6a af c4 3c bc 41 10 39 8e 51 dd 3c
       -0.036511093 0.024009425 0.00013757398 0.027016427
0001b0 37 29 27 bf b7 4b 24 3c ac 10 54 bc 9c f5 a7 bd
       -0.65297264 0.010027817 -0.012943428 -0.08201143
0001c0 21 a5 3c 3b e4 98 c2 bd 5d cb f3 be 77 1c 98 bb
       0.0028784948 -0.09501818 -0.4761609 -0.004642065
0001d0 ec 39 94 bb 97 cd 2f bb d8 d4 25 3d 9d 51 70 bf
       -0.0045235064 -0.0026825422 0.040486187 -0.9387453
0001e0 7b cf d6 3b 50 e1 36 be a6 5c b6 bd 77 fa 90 be
       0.0065554953 -0.17859387 -0.0890439 -0.2831609
0001f0 22 9b 65 3c ff 7e 53 3d ec 69 aa 3c b9 e7 20 3d
       0.014014037 0.051634785 0.02080246 0.039283488
000200 e2 04 d9 3e 99 85 c8 3c c8 21 bc 3c 16 88 39 bd
       0.42386538 0.024477767 0.022965327 -0.045295797
000210 b6 ce 36 3d 4c f7 cb 3c 91 3b 2a be 0c 79 9c 3c
       0.04463073 0.024898194 -0.16624285 0.019100688
000220 35 0b 50 bc dd 09 a7 bf 4b d4 ee be 41 6b 88 bc
       -0.012697984 -1.3049885 -0.46646342 -0.016652705
000230 d0 84 30 bd 95 db 7c 3c 13 dc d0 bb 41 13 45 ba
       -0.04309541 0.015433212 -0.006373891 -0.00075178227
000240 53 04 af be 53 d5 41 3c c7 0c 40 bd 5d c5 8b b9
       -0.34182987 0.011830646 -0.046887185 -0.00026659193
000250 4e e7 e5 3b 02 72 77 bf 3f d6 c0 3e 68 d9 a1 3c
       0.007016099 -0.9665834 0.37663457 0.019756988
000260 26 a0 10 bf 4a f3 98 3c 34 25 38 3e 0b 41 de 3c
       -0.5649437 0.018670697 0.17982942 0.027130624
000270 c2 da 35 3c 39 37 65 3d 59 04 23 be dd 79 75 be
       0.011099519 0.055960868 -0.15919627 -0.23972268
000280 45 d4 80 bf fb 52 cd bc 76 2e 85 3c 60 08 9a 3b
       -1.006478 -0.025063982 0.016257506 0.0047007054
000290 70 07 ba bc 81 cb 71 bf 78 af d3 bd 3e 47 2b 3c
       -0.022708625 -0.9445115 -0.103362024 0.010453997
0002a0 4f 83 1c 3c 43 23 da 3c 0e 05 4b 3d 5d e8 19 be
       0.009552791 0.026628142 0.049565367 -0.15030046
0002b0 57 eb 05 3c 03 e1 82 3b ab 44 4e 3c 6d 66 ab be
       0.008173785 0.0039941086 0.012589614 -0.33476582
0002c0 bf 9f bd be a1 fd 45 be 5c 95 29 3c 95 d1 5b bd
       -0.3703594 -0.19335033 0.010350551 -0.05366667
0002d0 f5 60 bf ba 8c a8 d9 be 8b d8 b0 3c a6 20 8e 3d
       -0.0014601039 -0.42511404 0.02158763 0.06939821
0002e0 51 1e f1 bc 73 31 b4 3c 78 ad 66 3c 43 53 a4 bb
       -0.029433401 0.021996235 0.014079444 -0.0050148084
0002f0 db 1d bb be ad ff 80 bc 74 7c 4f bd 5b 8c 13 bf
       -0.36546215 -0.015746916 -0.050655797 -0.5763604
000300 bc de 95 be d2 46 fa ba d5 f8 b4 3c 3a 21 8c 3c
       -0.29271495 -0.0019094592 0.022091309 0.017105687
000310 67 64 3b 3d da ff a4 bf 70 e4 28 bf 8c 65 b6 3c
       0.045750048 -1.289058 -0.6597357 0.022265218
000320 44 ba 35 bb 84 6d 29 3b ee db cd bb 8e 8a 47 3d
       -0.0027729431 0.002585263 -0.006282321 0.04871612
000330 03 06 de 3a ba 78 de be a1 d4 d2 3b c7 1e aa bd
       0.0016939047 -0.43451482 0.0064340387 -0.083066516
000340 5c 8c 44 bf 69 9f 6e 3d 03 e5 0f bf 76 a7 9c 3c
       -0.7677667 0.058257494 -0.5620882 0.01912282
000350 cf 54 63 bc c8 16 cd ba 17 a7 af 3d 29 33 15 3d
       -0.0138752 -0.0015647048 0.08576792 0.036425743
000360 67 e0 c2 bd 09 e5 04 bb 42 6c 03 3d 70 cd b0 3c
       -0.095154576 -0.0020278117 0.032085665 0.021582335
000370 9e ef 0f 3f e2 2b 19 bc fa 17 f4 3c 94 29 01 bf
       0.56225 -0.009348841 0.02979659 -0.5045407

1.l1.weight f4 [193, 224]
000000 7a 40 9c be b4 54 89 3d cc 38 a6 c0 31 0d 4c bc
       -0.30517942 0.06705609 -5.194433 -0.012454317
000010 db eb b8 3d 0f 6a 2a bb 20 f0 1f bd 64 d4 10 bf
       0.09029361 -0.0026003157 -0.03904736 -0.5657408
000020 2c fb 82 3e 79 3e 74 bc d5 77 7f bc b1 a6 b7 c0
       0.25582254 -0.014907473 -0.015592535 -5.739098
000030 ed c6 d1 bf 7e 9c 10 bc 1c 07 89 c0 cb 87 1e bc
       -1.6388832 -0.008826373 -4.282118 -0.00967593
000040 3a cc d8 bd e0 13 a8 3e 59 e9 24 3e 87 2c 77 bc
       -0.10585828 0.32827663 0.1610464 -0.0150863
000050 a2 94 96 3e 9b ff ee 3b dd 29 0b 3c bd 0f 9d bf
       0.29410273 0.007293654 0.008493868 -1.2270428
000060 36 4d bb bc 96 cb 2d bc f3 11 80 bd 87 ef 74 be
       -0.022863965 -0.010607621 -0.062534235 -0.23919497
000070 0c f1 05 be 5b 4d 50 3e 31 b1 5f 3e c4 b1 f4 bf
       -0.13080233 0.20342009 0.21844937 -1.911675
000080 b7 c4 68 3c 70 5f 5d 3b b2 33 ae bc 42 96 c7 bf
       0.014207057 0.003377881 -0.021264885 -1.559273
000090 1c 96 54 3e b9 02 96 bf 05 13 50 bd 37 41 a0 bf
       0.20760387 -1.1719581 -0.05079939 -1.2519902
0000a0 e0 d5 14 be d7 df 9c 3e dd af dc bf d7 02 b2 38
       -0.14534712 0.30639526 -1.7241169 8.4882304e-05
0000b0 3e 33 c7 bf 56 2d f7 ba 04 62 82 bf 65 ed a0 3b
       -1.5562513 -0.0018858116 -1.0186162 0.004911112
0000c0 ac 8a 42 bc 9c c0 2a bc b2 b6 85 bf bd 53 28 be
       -0.011873882 -0.010421898 -1.0446379 -0.16438194
0000d0 c3 91 7a bb 95 0c 28 bc 2b 03 92 c0 fb 7a e9 3d
       -0.0038233853 -0.010256906 -4.5628867 0.1140041
0000e0 d5 f1 0a be a4 a7 a7 be 3b 13 35 3e 33 85 10 bf
       -0.13568814 -0.32745087 0.17683117 -0.56453246
0000f0 15 6c 9c 3a 68 2b da 3d f8 b1 09 bb 81 ea 63 bc
       0.0011934066 0.1065281 -0.0021010619 -0.013910891
000100 4a f7 64 bc 7f d4 a1 3e 52 7e 09 bd 8a e6 a0 bf
       -0.013974974 0.31607434 -0.033567734 -1.2570355
000110 c1 c6 87 c0 63 82 97 be 82 a0 1e be fb b7 28 ba
       -4.243012 -0.29591665 -0.15490916 -0.00064361066
000120 e1 f2 8f 3d c0 60 b2 be f6 a2 3e 3d a9 b1 10 3d
       0.07028747 -0.3483944 0.04654213 0.03532568
000130 ad 8e 3f be 22 4f d7 3d 1c ec d2 bb ec 73 cf 3b
       -0.1870677 0.1051314 -0.006436838 0.0063309576
000140 3f 31 a6 3e 3c e7 48 bc 07 ec 18 bc 12 eb 86 3e
       0.32459447 -0.012262162 -0.009333617 0.2635122
000150 75 79 31 c0 f2 57 53 c0 87 c4 c6 bb e6 38 6d 3e
       -2.7730381 -3.3022428 -0.0060659084 0.23166236
000160 08 b9 ca bb 2d 47 b0 3d 0f 1b b6 bd 00 f0 ca bf
       -0.006186608 0.08607326 -0.0889188 -1.5854492
000170 1c 8c 7a 3e da ac 11 be 86 70 82 bd f3 22 6f bb
       0.2446751 -0.14226094 -0.063691184 -0.0036489337
000180 86 80 da 3d 00 36 20 3f 46 a7 07 be e6 cc 34 3e
       0.10669045 0.625824 -0.13247404 0.17656288
000190 ce 84 ef 3c dd e8 8e 3d 78 a0 96 bf ee 66 59 bf
       0.02923813 0.06978009 -1.1767721 -0.84922683
0001a0 78 71 c7 3d db 16 f4 bf ac 39 19 be a6 30 64 bb
       0.09738439 -1.9069475 -0.14963406 -0.0034819036
0001b0 f6 90 90 3e 07 43 72 bc a0 12 9a 39 7f 17 b6 ba
       0.28235596 -0.014786488 0.00029387046 -0.00138925
0001c0 55 24 f1 bd 03 02 80 3e f9 36 a8 be c4 c3 5a bf
       -0.11774508 0.25001535 -0.3285444 -0.85454965
0001d0 9c 1d b7 bc 74 60 d9 3c ed 90 ab 3d 1a 62 57 c0
       -0.022352986 0.02653525 0.08377252 -3.3653626
0001e0 e1 75 33 bc f2 be 25 c0 87 45 11 bf 29 b9 db bd
       -0.0109533975 -2.5897794 -0.56746715 -0.10728676
0001f0 d0 cb c1 bd 4b 9d db bd d5 25 02 bd 26 91 66 3d
       -0.09462702 -0.10723361 -0.03177436 0.056290768
000200 cb 96 92 3b b1 7e 1b bc 47 68 80 bd 46 70 d9 be
       0.0044735423 -0.009490655 -0.06269889 -0.4246847
000210 b9 a7 1b bf 7a b8 3c bc b2 cb 0c bb 4f 9b 04 c0
       -0.608028 -0.011518592 -0.0021483717 -2.0719793
000220 93 a9 42 3e e4 6e 4c be 09 ce 9a bf b4 93 e8 bd
       0.1901 -0.19964176 -1.2094127 -0.11356297
000230 92 a5 a7 ba 2c 4c 98 3d 7d ff d2 3b a3 83 09 be
       -0.0012790433 0.07436404 0.006439148 -0.13429122
000240 b8 8b 59 3c e1 be 97 3c c8 8a 2b bd cb 6e 08 c0
       0.01327794 0.018523635 -0.0418804 -2.1317623
000250 59 32 8a bc c6 0a b4 be 57 ab ba 3a 2b fe 9b 3c
       -0.01686971 -0.3516447 0.0014241737 0.019042095
000260 85 b3 67 bf 3f fd 9c ba 6e 08 44 3c ba 9f 76 bc
       -0.905083 -0.0011977329 0.0119649 -0.01505273
000270 14 e0 a5 bc f9 ae 77 c0 13 d5 42 3e 7d 89 0d be
       -0.02024845 -3.8700545 0.19026594 -0.13821979
000280 6b d6 39 be 4e 62 95 3c 6f 49 57 3c a3 95 89 bc
       -0.181482 0.018235352 0.0131400665 -0.016794985
000290 99 cd a9 bd 3a 2a 2c c0 6b b7 78 3f c9 14 05 3c
       -0.08291168 -2.6900773 0.97154874 0.008122631
0002a0 76 4a 0a bd 40 37 8b bf eb 72 4b 3d 5f cf 59 3e
       -0.033762418 -1.0876236 0.04967014 0.21270512
0002b0 23 46 b1 bc ce 34 b2 bc d6 ff 4e bc 6f 06 00 3e
       -0.02163989 -0.021753695 -0.012634238 0.12502454
0002c0 32 2b 0d bf ec 0a dd bc b0 67 d2 bb b4 01 1c ba
       -0.55144036 -0.026982747 -0.006421052 -0.00059511815
0002d0 32 32 cb bf 1c 0f 32 bf d1 7e 5a bc 41 32 43 bc
       -1.5874693 -0.69554305 -0.013335899 -0.011913837
0002e0 62 ea 09 be db 00 c6 bb b4 4e 8a be ff 66 14 3b
       -0.13468316 -0.0060425824 -0.2701317 0.0022644398
0002f0 09 6d d2 be 11 9b 01 bc 8c 51 c1 bd 25 30 b5 be
       -0.41098812 -0.007910506 -0.09439382 -0.35388294
000300 f3 39 20 3e 73 2d e1 bd 62 95 d7 bf 1b 05 59 bf
       0.15647106 -0.10994997 -1.6842463 -0.84773415
000310 ae a9 4f bd a6 b4 2f 3e 66 0f 4a be 11 e1 ce bf
       -0.05069893 0.17158756 -0.19732437 -1.6162435
000320 d3 90 ac 3d 1a e5 65 be 0f 52 1c bd 3b b7 fb bd
       0.084260605 -0.22450677 -0.038164195 -0.12290808
000330 d1 be 36 c0 3c b7 97 be a2 e5 16 bc 81 15 b6 ba
       -2.8553965 -0.29631984 -0.009210022 -0.0013891907
000340 90 7a 53 be 30 3b 6b bb c6 01 ba 3d 96 28 b1 bf
       -0.20652223 -0.0035893433 0.090823695 -1.3840511
000350 f9 29 32 bd 90 5f 33 bd da e3 17 bd 91 b5 02 c0
       -0.04349706 -0.043792307 -0.03708253 -2.042332
000360 35 10 86 ba 12 49 3d 3d a9 49 81 3d 6e b8 ce bb
       -0.0010228219 0.046212263 0.06312878 -0.006308607
000370 bd 87 b7 39 a8 36 25 be 55 f4 f4 bb f0 f8 3c be
       0.00035005613 -0.16134131 -0.0074754157 -0.18454337
000380 34 97 1f 3d b4 0e 17 3d 99 b0 9f ba 1d db 4d bf
       0.038962558 0.036879256 -0.0012183368 -0.80412465
000390 47 d1 91 3d c6 75 4f 3c d4 dd d9 38 b4 6c 15 bd
       0.071199946 0.012662357 0.00010388685 -0.03648062
0003a0 fd 09 c9 3c 36 06 76 be b1 4e be be 52 bb 52 3b
       0.024540896 -0.24025807 -0.37169412 0.0032155109
0003b0 01 53 3e bc 66 ac 47 3d 71 a5 53 3b 3c 57 ec be
       -0.011616469 0.048748396 0.0032294656 -0.46160305
0003c0 0f 35 97 3c 4f 49 cb bd 99 95 e4 be 92 4f 1c 3c
       0.018457917 -0.09926092 -0.44645384 0.009540455
0003d0 7e 69 72 bf 15 12 f0 3c b7 98 63 3d d6 11 cc bc
       -0.9469222 0.029305497 0.055565562 -0.024910849
0003e0 28 94 91 bb 05 02 b9 bd e6 9f f5 be 26 5d 76 be
       -0.0044427104 -0.09033588 -0.47973555 -0.24058971
0003f0 8f a8 ef bc 80 c3 8e be 0c 26 35 bf 5d e9 d5 3d
       -0.02925518 -0.2788353 -0.7076118 0.10444901

1.l1.bias f4 [193]
000000 13 7e 09 3e b2 b1 05 3f c1 cc f2 3e 4a 27 6e 3e
       0.13427 0.52224267 0.4742184 0.23257175
000010 d8 ef 88 bc f1 b1 ba 3e b5 08 df 3e 30 bd 17 3e
       -0.016715929 0.36463884 0.4356133 0.14818263
000020 cc 5c 4b 3e 6e 21 3c 3e 8f 7e 20 3e 92 bb 12 3d
       0.19859618 0.18372127 0.15673278 0.035823412
000030 4c e7 07 3f ac d5 24 3e ea c4 c1 bc ff 43 15 3d
       0.53087306 0.16097134 -0.023653466 0.0364418
000040 12 91 14 3e 42 57 30 3e 08 1b 55 3e 8a 36 ef 3e
       0.14508465 0.17220786 0.20811093 0.46721298
000050 8f 44 47 3e 69 a9 55 3e 8d f0 13 3d 3a 70 78 3e
       0.19459747 0.20865406 0.03611808 0.24261561
000060 64 c4 03 3f 7e a0 ea 3d 11 f3 0c 3f 33 f6 60 3e
       0.51471543 0.11456393 0.5505839 0.21968918
000070 d9 d5 a2 3e a4 20 fb 3e 2b ad 09 3f 2d 7c 06 3f
       0.31803778 0.4904834 0.5377986 0.5253323
000080 64 36 48 3e ec 6e 11 3f 00 ed 50 3e 27 53 b2 3d
       0.19551998 0.5680988 0.20402908 0.08707266
000090 29 fc 4c 3d 16 62 e6 3e 80 77 b5 3d 4f e2 66 3e
       0.050045166 0.4499671 0.088606834 0.22547267
0000a0 6a 23 38 3e 71 4d 55 3c fe a0 4d 3e 30 5f ec 3e
       0.1798226 0.013018952 0.20080945 0.46166372
0000b0 f6 40 9a 3e 3b 16 81 bc f8 e2 e4 3e ff fc 8a 3c
       0.30127686 -0.01575767 0.44704413 0.016966341
0000c0 e5 23 4e 3e 86 d7 d1 bd 27 4d 2e 3e 08 68 75 3e
       0.2013088 -0.10246186 0.17021619 0.23965466
0000d0 07 5e 0b 3f eb b9 29 3e fa c0 f1 3e ef 1b d7 3e
       0.5444035 0.16574828 0.47217542 0.420135
0000e0 31 a3 7e bd f9 f3 60 3e 08 24 61 3e 70 53 2b 3e
       -0.06216735 0.21968068 0.21986401 0.16731048
0000f0 e2 a0 8a 3e dc c2 a9 3e 02 a5 36 3e 2e c6 75 bc
       0.2707587 0.33156478 0.17836383 -0.015000863
000100 62 ba 8d 3e 58 97 47 3e ff 1f 10 3f 0c d8 55 3e
       0.2768126 0.19491327 0.5629882 0.20883197
000110 40 b3 8d 3e a7 c3 25 3f 34 11 5f 3a 09 26 fd 3e
       0.2767582 0.64751667 0.00085093384 0.4944308
000120 61 c4 d6 3e e4 62 38 3e 38 16 fc 3e 46 38 1e 3f
       0.419467 0.18006474 0.49235702 0.61804616
000130 c7 5f 89 3e 16 6e 03 3f 31 5b 2a 3e 72 8b 93 3e
       0.26830885 0.5133985 0.1663635 0.28817326
000140 d0 bd 90 3e 23 35 09 3f f0 0b e8 3d e1 d1 01 3f
       0.28269815 0.53596705 0.11330402 0.50710875
000150 e9 f2 43 3e ea 81 b3 3c f3 3e 58 3e b4 a7 7f 3c
       0.19135632 0.021912534 0.21117763 0.015603948
000160 94 e6 f9 3e a4 e4 6e 3e 78 6d 84 3e 81 f7 a4 3e
       0.4880873 0.23329407 0.25864768 0.3222008
000170 ed 6c ae 3e 6b e3 b9 3e ba 37 5a 3e b9 96 81 3e
       0.3406748 0.3630632 0.2131032 0.25310305
000180 ff 74 70 3e 42 54 02 3f 67 13 0e 3f 19 b7 eb 3e
       0.2348213 0.5090982 0.55498356 0.4603813
000190 17 01 d0 3e 97 a6 02 3f 70 3a 4d 3e 60 59 8f bd
       0.4062583 0.51035446 0.20041823 -0.06999469
0001a0 67 01 ff 3e 20 ac 03 3f 58 48 91 3e 29 49 ff 3e
       0.49805757 0.51434517 0.28375506 0.49860504
0001b0 97 e7 2e 3e 53 6f 1d 3d 80 5c 22 3c 30 85 dd 3e
       0.17080532 0.038436245 0.009909749 0.43265676
0001c0 2d 35 49 3e 9b 30 88 3e 16 cd 02 3f 95 52 1e 3d
       0.19649191 0.26599583 0.51094186 0.038652975
0001d0 32 ba 91 3e cc 60 98 3e be 48 ba 3d af 20 c4 3d
       0.28462368 0.2976135 0.09095906 0.095765464
0001e0 04 9e a1 3e 85 dd 40 3e 73 29 a4 3d 0c c6 80 3d
       0.3156587 0.18834503 0.08015718 0.062877744
0001f0 ee 9a 8e bf 13 1f 0e 3e b6 24 34 3e 7d 1d 7c 3e
       -1.1141031 0.13879041 0.17592129 0.24620624
000200 64 38 44 3e 80 40 25 3e 0a 47 d6 3e f5 b7 5d 3e
       0.19162136 0.16137886 0.41851074 0.21652205
000210 76 67 02 3f 6e 2b d8 3e 9a 87 06 3f 03 0a 0d 3f
       0.5093912 0.42220634 0.5255066 0.550934
000220 eb 67 7b 3e 77 28 53 3e 3c 7e f2 3e 22 46 5b 3e
       0.2455136 0.20620905 0.47361934 0.21413472
000230 29 ac 01 3f 11 92 01 3f 50 e8 65 bb 30 3f 03 3f
       0.5065332 0.50613505 -0.0035081096 0.5126829
000240 6d 10 26 3e bd 8d 9d 3c 97 03 c5 3d c1 e8 cd 3e
       0.16217203 0.019232625 0.09619825 0.4021664
000250 3c 19 ea 3e 71 05 06 3f 66 f2 05 3f 2f 10 72 3d
       0.45722377 0.5235205 0.52322996 0.059097465
000260 77 d4 95 3e 0d a0 d4 3e 8f e8 cf 3d fd 01 87 3e
       0.2926366 0.4152836 0.10151779 0.26368704
000270 50 c5 fe 3e 88 91 e7 3d 75 e9 70 3e 14 49 f4 3d
       0.49759912 0.11307055 0.23526557 0.11928001
000280 fb 80 19 3e ae 03 fa 3e 82 d4 76 3e 86 10 1d bd
       0.14990608 0.48830932 0.24104503 -0.038345836
000290 e2 a7 fd 3e 6b e6 8a bd 3a 86 74 3e 67 89 ff 3e
       0.49542147 -0.0678223 0.23879328 0.49909517
0002a0 32 73 fa bc f1 a2 cc 3d 53 50 f4 3e b0 3b 76 3e
       -0.030572508 0.09992016 0.47717533 0.24046206
0002b0 50 db 0f 3d a0 85 9a 3d 11 60 04 3f 20 9b 52 3e
       0.035121262 0.07545018 0.51709086 0.20566988
0002c0 88 8d c1 be 11 ab 26 3e 52 e4 19 bc 3e cc 15 3d
       -0.37803292 0.16276194 -0.009392815 0.036571734
0002d0 f6 6e 9c 3e ef c2 36 3e b8 a7 77 3e 50 6c 37 3e
       0.30553406 0.17847799 0.24185073 0.17912412
0002e0 99 36 33 3e 04 76 40 3e f2 3d d2 3e f0 1b 0c 3e
       0.17501296 0.1879502 0.41062886 0.13682532
0002f0 40 24 67 3e 76 7f 0c bf 99 e7 76 3e 85 96 57 3e
       0.22572422 -0.5488199 0.24111785 0.21053512
000300 e8 d2 f5 be
       -0.4801247

1.l3.weight f4 [1, 193]
000000 4d 6b 85 bf 66 f9 3b 3d ff 82 22 3d 93 53 9a bd
       -1.0423371 0.04589214 0.03967571 -0.07535472
000010 8b 0a 8e bc a8 32 03 3f 3e 69 04 3e a2 66 3b bf
       -0.017339012 0.5124917 0.12930772 -0.7320348
000020 da 6d 8e be f7 3d 58 be 2a 47 67 be a4 9f 77 3f
       -0.27818185 -0.21117388 -0.2258574 0.9672797
000030 93 f4 5a 3d d3 12 82 be e1 01 15 40 f6 ce c4 3f
       0.0534559 -0.25404987 2.3282397 1.537566
000040 7c d5 88 be d2 cf bf bd c9 7b 73 be a0 6f 51 3d
       -0.26725376 -0.093658105 -0.23777689 0.051131845
000050 f7 01 03 3f 05 48 db be 6c 95 38 40 23 b6 ce bd
       0.51174873 -0.42828384 2.88412 -0.100933336
000060 de 59 26 3d be a9 6a bf 78 82 f1 3d 1d 91 20 bf
       0.040613048 -0.91665256 0.11792463 -0.62721425
000070 3d 2e f5 3d 30 fc 14 3d 08 c9 1d 3d b6 91 20 3d
       0.1197171 0.036373317 0.038521796 0.03920146
000080 55 51 79 3e e7 34 4d 3d d1 e2 25 be 9d 29 74 bf
       0.24347432 0.05009928 -0.16199805 -0.95375997
000090 0d a9 cf 3f 53 4b fd 3c 49 f8 3c 40 55 f3 e3 bd
       1.6223465 0.030919706 2.9526541 -0.11130396
0000a0 52 3d 36 bd 08 16 f8 3f ce 82 3e be 98 db fb 3c
       -0.044492073 1.9381723 -0.18604586 0.030744359
0000b0 06 de b2 bd 96 70 b5 bf 22 e5 7c 3d da 2e 0a 3f
       -0.08733754 -1.4174984 0.061741956 0.5397774
0000c0 d9 d8 82 be c9 57 9a 3f 07 5e 51 be 2b 47 a4 3d
       -0.25556067 1.205804 -0.20446025 0.08021387
0000d0 6e 7b 20 3d 64 8a ac be 58 64 15 3d c2 1f a3 3e
       0.03918021 -0.33699334 0.03647265 0.31860167
0000e0 d0 b3 e8 3b d9 19 a7 3f 85 bb 2e be 21 09 b4 bd
       0.0071015134 1.3054763 -0.1706372 -0.08790804
0000f0 fb 75 68 bd 8e 7c 21 3e 56 fb 75 bf 2c 45 d9 3f
       -0.05675314 0.1577017 -0.96086633 1.6974235
000100 94 9b 94 bd 5f e7 a6 bd 9f b7 27 3d ce 4c 29 be
       -0.07256237 -0.08149599 0.0409466 -0.16533205
000110 77 3b 8a bd ba 81 2b 3f 32 60 f9 3f f2 6f 3b 3d
       -0.06749623 0.6699482 1.9482481 0.045761056
000120 2e af d5 3d a0 eb b6 bd 9e 57 26 3d 77 8a 37 3f
       0.104338035 -0.08931661 0.040610902 0.71695656
000130 5a 9f 25 3e 9f f2 12 3d a4 53 ce be 4a 1c d1 3d
       0.16174069 0.035875913 -0.40298188 0.10210474
000140 0b fb 71 bd 7a 28 53 3d 0d 1d 9f be 39 d9 18 3d
       -0.059077304 0.051552273 -0.3107685 0.037316535
000150 52 fc 55 3e e7 a7 59 3f 5e b1 83 bd 35 c0 bc 3f
       0.20897034 0.85021824 -0.064303145 1.4746157
000160 43 7e 25 3d fc a6 88 bd b8 ee 99 bd 9d 96 7b bd
       0.040403616 -0.06672475 -0.07516235 -0.061422933
000170 95 57 c0 3d 43 aa 30 3e 78 c1 3c be c2 42 2c be
       0.09391705 0.1725245 -0.18433177 -0.16822341
000180 a2 79 72 bd 3f 89 33 3d ec b3 02 3f 8e 24 20 3d
       -0.05919803 0.04383206 0.5105579 0.03909736
000190 ce 00 57 3d a5 aa 10 3d 78 2f 8c bd 11 2d 81 40
       0.052491 0.03531899 -0.068449914 4.0367513
0001a0 51 20 0e 3d 47 6e 27 3d bc c1 9d bd cf 89 3f 3d
       0.034698788 0.040876653 -0.077029675 0.046762284
0001b0 12 53 60 be 20 40 f0 be 2a 8b 0e 40 d7 b9 22 3d
       -0.21906689 -0.46923923 2.227244 0.039728012
0001c0 3b fd db 3e 21 94 88 bd 39 97 12 3d d7 ab 91 3f
       0.42966637 -0.06668878 0.03578875 1.1380566
0001d0 f3 bb 6f bd 52 c3 a2 bd d6 0b 8c be 69 78 79 bf
       -0.05852885 -0.07947411 -0.2735278 -0.97449356
0001e0 53 15 38 bd 83 be 6d be b3 f7 f5 3e bf 00 31 bf
       -0.04494221 -0.23217206 0.48040542 -0.69141763
0001f0 8b fa 35 bf 11 0b 95 be b3 6a 9a 3e 2b 30 b1 bd
       -0.71085423 -0.29110005 0.3015953 -0.086517654
000200 cf ee 1c bf ae 3a 35 bf 5a b3 d8 3d 86 89 69 be
       -0.61301893 -0.70792663 0.105810836 -0.22806367
000210 87 21 aa 3d dc 81 73 3d e9 35 23 3d 5a 31 73 3d
       0.08307176 0.059450015 0.039846335 0.059373237
000220 9e fb fc bd c9 10 63 be 58 92 f5 3c 79 95 c4 bd
       -0.1235268 -0.22174372 0.029977009 -0.09598822
000230 44 bf 21 3d 8d 92 34 3d 68 4f 38 40 83 a0 18 3d
       0.039489046 0.044085074 2.8798466 0.03726245
000240 77 8f a9 be c7 51 85 3f a1 54 82 40 76 b4 94 3d
       -0.33117267 1.0415581 4.0728307 0.07260983
000250 a6 ac 20 3d 89 6b 1f 3d ff 03 47 3d c8 d6 01 3f
       0.03922715 0.038920913 0.048587795 0.50718355
000260 3f 17 09 be 39 3f c3 3d 10 71 07 40 cd 80 a9 bd
       -0.13387774 0.09533543 2.1162758 -0.0827652
000270 b8 b9 4b 3d da 2a 6d bf 87 56 5d be 42 4b 50 bf
       0.049737662 -0.9264351 -0.21615039 -0.81364834
000280 f5 04 3a be 9c c4 14 3d e7 fb c8 bd 2c 09 89 3b
       -0.18165953 0.036320314 -0.098136716 0.0041820016
000290 ca be b0 3d f6 7c 0f 40 7d 56 17 bf b4 09 2f 3d
       0.0863014 2.242002 -0.59116346 0.042733863
0002a0 a7 89 c7 3f 59 c4 46 bf ab a1 6e 3d cd 11 b5 bd
       1.5588883 -0.7764335 0.058259647 -0.08841286
0002b0 19 6e 32 3f 5c 97 1e 3f 6c cf 15 3d 71 1b bd bd
       0.69699246 0.61949706 0.036574766 -0.0923375
0002c0 fe cf 8d bd 63 42 1b be 85 33 94 3f ff 73 fd 3f
       -0.06924437 -0.15162043 1.1578223 1.9801024
0002d0 d0 1c 78 bd 53 cb a5 bd 39 f1 b1 bd 72 ad b8 bd
       -0.060574353 -0.08095422 -0.08688588 -0.09017457
0002e0 69 64 82 be b8 b2 e3 bd db eb 58 3e 83 08 32 bf
       -0.25467232 -0.11118072 0.21183722 -0.6954424
0002f0 82 0e 4b be 7d 35 8d 3f 43 d5 6a 3f 6b 1b 8e bf
       -0.19829753 1.1031948 0.9173166 -1.1102117
000300 87 bf 13 bf
       -0.5771412
