ergoCubSN001/friction_pinn/2_lk_b4566_h20.onnx (onnx, 266241 bytes, 7 tensors)

0.weight f4 [40, 40]
2.3457596 0.0 0.0 0.0 0.0 0.0 0.0 0.0
0.0 0.0 0.0 0.0 0.0 0.0 0.0 0.0
0.0 0.0 0.0 0.0 0.0 0.0 0.0 0.0
0.0 0.0 0.0 0.0 0.0 0.0 0.0 0.0
0.0 0.0 0.0 0.0 0.0 0.0 0.0 0.0
0.0 2.3450694 0.0 0.0 0.0 0.0 0.0 0.0
0.0 0.0 0.0 0.0 0.0 0.0 0.0 0.0
0.0 0.0 0.0 0.0 0.0 0.0 0.0 0.0
0.0 0.0 0.0 0.0 0.0 0.0 0.0 0.0
0.0 0.0 0.0 0.0 0.0 0.0 0.0 0.0
0.0 0.0 2.3466184 0.0 0.0 0.0 0.0 0.0
0.0 0.0 0.0 0.0 0.0 0.0 0.0 0.0
0.0 0.0 0.0 0.0 0.0 0.0 0.0 0.0
0.0 0.0 0.0 0.0 0.0 0.0 0.0 0.0
0.0 0.0 0.0 0.0 0.0 0.0 0.0 0.0
0.0 0.0 0.0 2.34471 0.0 0.0 0.0 0.0
0.0 0.0 0.0 0.0 0.0 0.0 0.0 0.0
0.0 0.0 0.0 0.0 0.0 0.0 0.0 0.0
0.0 0.0 0.0 0.0 0.0 0.0 0.0 0.0
0.0 0.0 0.0 0.0 0.0 0.0 0.0 0.0
0.0 0.0 0.0 0.0 2.3483443 0.0 0.0 0.0
0.0 0.0 0.0 0.0 0.0 0.0 0.0 0.0
0.0 0.0 0.0 0.0 0.0 0.0 0.0 0.0
0.0 0.0 0.0 0.0 0.0 0.0 0.0 0.0
0.0 0.0 0.0 0.0 0.0 0.0 0.0 0.0
0.0 0.0 0.0 0.0 0.0 2.3475213 0.0 0.0
0.0 0.0 0.0 0.0 0.0 0.0 0.0 0.0
0.0 0.0 0.0 0.0 0.0 0.0 0.0 0.0
0.0 0.0 0.0 0.0 0.0 0.0 0.0 0.0
0.0 0.0 0.0 0.0 0.0 0.0 0.0 0.0
0.0 0.0 0.0 0.0 0.0 0.0 2.3490405 0.0
0.0 0.0 0.0 0.0 0.0 0.0 0.0 0.0
00000000: ed20 1640 0000 0000 0000 0000 0000 0000
00000010: 0000 0000 0000 0000 0000 0000 0000 0000
00000020: 0000 0000 0000 0000 0000 0000 0000 0000
00000030: 0000 0000 0000 0000 0000 0000 0000 0000
00000040: 0000 0000 0000 0000 0000 0000 0000 0000
00000050: 0000 0000 0000 0000 0000 0000 0000 0000
00000060: 0000 0000 0000 0000 0000 0000 0000 0000
00000070: 0000 0000 0000 0000 0000 0000 0000 0000
00000080: 0000 0000 0000 0000 0000 0000 0000 0000
00000090: 0000 0000 0000 0000 0000 0000 0000 0000
000000a0: 0000 0000 9e15 1640 0000 0000 0000 0000
000000b0: 0000 0000 0000 0000 0000 0000 0000 0000
000000c0: 0000 0000 0000 0000 0000 0000 0000 0000
000000d0: 0000 0000 0000 0000 0000 0000 0000 0000
000000e0: 0000 0000 0000 0000 0000 0000 0000 0000
000000f0: 0000 0000 0000 0000 0000 0000 0000 0000
00000100: 0000 0000 0000 0000 0000 0000 0000 0000
00000110: 0000 0000 0000 0000 0000 0000 0000 0000
00000120: 0000 0000 0000 0000 0000 0000 0000 0000
00000130: 0000 0000 0000 0000 0000 0000 0000 0000
00000140: 0000 0000 0000 0000 ff2e 1640 0000 0000
00000150: 0000 0000 0000 0000 0000 0000 0000 0000
00000160: 0000 0000 0000 0000 0000 0000 0000 0000
00000170: 0000 0000 0000 0000 0000 0000 0000 0000
00000180: 0000 0000 0000 0000 0000 0000 0000 0000
00000190: 0000 0000 0000 0000 0000 0000 0000 0000
000001a0: 0000 0000 0000 0000 0000 0000 0000 0000
000001b0: 0000 0000 0000 0000 0000 0000 0000 0000
000001c0: 0000 0000 0000 0000 0000 0000 0000 0000
000001d0: 0000 0000 0000 0000 0000 0000 0000 0000
000001e0: 0000 0000 0000 0000 0000 0000 bb0f 1640
000001f0: 0000 0000 0000 0000 0000 0000 0000 0000
00000200: 0000 0000 0000 0000 0000 0000 0000 0000
00000210: 0000 0000 0000 0000 0000 0000 0000 0000
00000220: 0000 0000 0000 0000 0000 0000 0000 0000
00000230: 0000 0000 0000 0000 0000 0000 0000 0000
00000240: 0000 0000 0000 0000 0000 0000 0000 0000
00000250: 0000 0000 0000 0000 0000 0000 0000 0000
00000260: 0000 0000 0000 0000 0000 0000 0000 0000
00000270: 0000 0000 0000 0000 0000 0000 0000 0000
00000280: 0000 0000 0000 0000 0000 0000 0000 0000
00000290: 464b 1640 0000 0000 0000 0000 0000 0000
000002a0: 0000 0000 0000 0000 0000 0000 0000 0000
000002b0: 0000 0000 0000 0000 0000 0000 0000 0000
000002c0: 0000 0000 0000 0000 0000 0000 0000 0000
000002d0: 0000 0000 0000 0000 0000 0000 0000 0000
000002e0: 0000 0000 0000 0000 0000 0000 0000 0000
000002f0: 0000 0000 0000 0000 0000 0000 0000 0000
00000300: 0000 0000 0000 0000 0000 0000 0000 0000
00000310: 0000 0000 0000 0000 0000 0000 0000 0000
00000320: 0000 0000 0000 0000 0000 0000 0000 0000
00000330: 0000 0000 ca3d 1640 0000 0000 0000 0000
00000340: 0000 0000 0000 0000 0000 0000 0000 0000
00000350: 0000 0000 0000 0000 0000 0000 0000 0000
00000360: 0000 0000 0000 0000 0000 0000 0000 0000
00000370: 0000 0000 0000 0000 0000 0000 0000 0000
00000380: 0000 0000 0000 0000 0000 0000 0000 0000
00000390: 0000 0000 0000 0000 0000 0000 0000 0000
000003a0: 0000 0000 0000 0000 0000 0000 0000 0000
000003b0: 0000 0000 0000 0000 0000 0000 0000 0000
000003c0: 0000 0000 0000 0000 0000 0000 0000 0000
000003d0: 0000 0000 0000 0000 ae56 1640 0000 0000
000003e0: 0000 0000 0000 0000 0000 0000 0000 0000
000003f0: 0000 0000 0000 0000 0000 0000 0000 0000

0.bias f4 [40]
-0.04956035 -0.050410528 -0.051351972 -0.052103348 -0.05317935 -0.05396861 -0.054797728 -0.055573083
-0.0564104 -0.057118386 -0.057794787 -0.058638245 -0.059243307 -0.060023256 -0.060622767 -0.061241154
-0.061704695 -0.062393095 -0.06292646 -0.063343525 -0.093462825 -0.093085974 -0.092645854 -0.09226271
-0.0918859 -0.09147443 -0.09104992 -0.0906287 -0.09015876 -0.089685544 -0.08918266 -0.08874425
-0.0882726 -0.087820314 -0.08738462 -0.08698814 -0.086518764 -0.0861105 -0.085724324 -0.085346855
00000000: cbff 4abd 457b 4ebd 7256 52bd 526a 55bd
00000010: 97d2 59bd 300e 5dbd 9573 60bd 9aa0 63bd
00000020: 970e 67bd f8f4 69bd 3aba 6cbd a82e 70bd
00000030: 1ca9 72bd f2da 75bd 944f 78bd 01d8 7abd
00000040: 10be 7cbd e78f 7fbd 96df 80bd 40ba 81bd
00000050: 7069 bfbd dca3 bebd 1cbd bdbd 3bf4 bcbd
00000060: ad2e bcbd f256 bbbd 6178 babd 8a9b b9bd
00000070: 28a5 b8bd 0ead b7bd 66a5 b6bd 8cbf b5bd
00000080: 44c8 b4bd 23db b3bd b5f6 b2bd d726 b2bd
00000090: c030 b1bd b45a b0bd 3c90 afbd 55ca aebd

1.l0.weight f4 [251, 40]
-0.19224274 0.038018074 -0.09435929 -0.06746719 0.066537775 0.0014988149 0.010383348 0.06404247
0.014515134 0.06507261 0.034171227 0.0697068 -0.0031642735 0.068504795 0.008294288 0.038278352
0.0665367 0.031150006 0.055838782 0.018397037 0.17399144 0.018901018 -0.018608648 0.12435479
-0.02332821 -0.112571 0.051557604 -0.08056173 -0.087154776 -0.16743957 -0.091602355 -0.12355588
0.037217624 -0.2283754 -0.03135676 -0.26506907 -0.10796861 0.05639294 0.27000841 0.23479909
0.2604531 0.048851516 0.10603709 0.06797955 0.061342165 0.16610561 0.041905366 0.0054154657
0.12063394 -0.111938454 0.06615191 -0.060324054 -0.115350135 -0.056404993 -0.05196655 -0.016126221
-0.05890058 -0.16077943 -0.19123007 -0.041720126 -0.18111789 -0.044984385 -0.052660868 0.07875593
0.100066446 0.14210348 0.023022592 0.020789228 0.12076608 0.067647256 -0.092152596 -0.11242402
-0.11034668 -0.11344311 0.1733423 -0.10655279 0.07642076 0.1080269 0.08393733 -0.08502001
0.01435615 0.0055915588 -0.0032825232 -0.005640214 -0.00016566501 -0.011608577 0.0043135076 -0.008708106
-0.009888427 -0.013774683 -0.008884403 0.0025583613 -0.012570977 0.016003828 -0.030107308 0.00082629704
-0.008479121 0.0030235185 -0.011401116 -0.0013063693 0.50335145 -0.0077360114 -0.22856544 -0.33421028
-0.22349432 -0.2133272 0.14610313 0.015941827 0.1659603 0.20647454 0.1945033 0.12146445
0.12317726 -0.06965255 -0.2439135 -0.16387016 -0.31590462 -0.06682738 0.116955005 0.25946355
-0.13838212 -0.21982354 0.036389742 0.04272187 -0.07506326 0.09220914 -0.040769428 0.03875572
0.06368962 -0.1586815 -0.024006613 -0.14316584 0.09444047 0.07740324 -0.093786664 0.06374542
-0.11295452 0.06561231 0.02004033 -0.06597149 0.1260652 -0.09459358 0.058548607 0.0024731238
-0.06281186 -0.11328125 0.112587556 -0.08393205 0.08086392 -0.028755967 0.05162511 -0.07409971
-0.15713525 -0.009214108 0.08474764 0.028907768 -0.09195051 -0.15862474 -0.12507583 -0.3385267
-0.24441728 -0.15868482 0.032427896 -0.10089943 -0.04600949 -0.09696418 0.012742003 -0.0082301125
0.14365527 0.039242044 -0.13228974 0.05950564 -0.054532673 0.03320419 -0.01769226 0.0038689654
0.040913396 0.14797492 0.012603228 0.06574739 -0.0434629 0.00069508667 -0.12705086 0.114883184
-0.03275399 0.04788835 0.08066938 -0.022654075 0.07370698 0.059472594 0.078439474 -0.118646495
-0.0959344 -0.04881992 -0.11989802 -0.13422169 -0.109186865 -0.08458735 0.038415875 0.054557573
0.0795261 0.082713366 -0.01894063 0.0720146 -0.12941884 0.017735828 -0.119767115 0.0050536767
0.09814751 0.027334007 0.107539915 0.08097472 0.10287121 -0.07854253 0.09022507 -0.07096088
-0.019884929 0.025489634 -0.09947922 -0.1167539 -0.15623094 0.11625818 0.15859915 -0.07428266
0.16369028 0.07097288 -0.029334325 -0.1188377 0.14713226 -0.015228145 0.060635626 0.11430058
-0.15784632 0.13465862 -0.059536923 -0.14436586 0.1183168 -0.13992216 0.013560312 -0.1406769
0.012350606 -0.18145092 -0.18998499 -0.32470232 0.11891643 0.026093118 0.18159913 0.19813184
0.07632446 0.11626767 0.0032702647 0.16200246 -0.0052221385 -0.037732545 -0.1321041 0.031861138
00000000: 48db 44be d7b8 1b3d 723f c1bd 3d2c 8abd
00000010: f544 883d e273 c43a eb1e 2a3c b328 833d
00000020: e2d0 6d3c ca44 853d 21f7 0b3d 70c2 8e3d
00000030: b35f 4fbb 3e4c 8c3d c4e4 073c c3c9 1c3d
00000040: 6544 883d 4c2e ff3c 35b7 643d 62b5 963c
00000050: d02a 323e 4fd6 9a3c 2a71 98bc b9ad fe3d
00000060: cd1a bfbc a08b e6bd 112e 533d 8cfd a4bd
00000070: 347e b2bd 4775 2bbe 049a bbbd dd0a fdbd
00000080: 8271 183d 3edb 69be f26f 00bd 22b7 87be
00000090: a61e ddbd 49fc 663d 8b3e 8a3e 2c6f 703e
000000a0: 1c5a 853e 8718 483d f929 d93d dd38 8b3d
000000b0: ec41 7b3d 9717 2a3e f6a4 2b3d 3874 b13b
000000c0: ed0e f73d fd3f e5bd a77a 873d 5b16 77bd
000000d0: b13c ecbd ec08 67bd e1da 54bd 231b 84bc
000000e0: bc41 71bd 5da3 24be d1d1 43be b9e2 2abd
000000f0: f876 39be 8c41 38bd ecb2 57bd ca4a a13d
00000100: a3ef cc3d 9383 113e e099 bc3c 2c4e aa3c
00000110: 3554 f73d a58a 8a3d 80ba bcbd 913e e6bd
00000120: 71fd e1bd dc54 e8bd a580 313e 5938 dabd
00000130: 7d82 9c3d 353d dd3d 56e7 ab3d f91e aebd
00000140: 0f36 6b3c 6539 b73b 9a1f 57bb 8bd1 b8bb
00000150: 5db6 2db9 e731 3ebc 5358 8d3b 72ac 0ebc
00000160: 1203 22bc 35af 61bc e38f 11bc 2eaa 273b
00000170: 80f6 4dbc 761a 833c 9aa3 f6bc db9b 583a
00000180: 03ec 0abc 3926 463b bfcb 3abc 7b3a abba
00000190: a4db 003f 5e7e fdbb 0f0d 6abe 9c1d abbe
000001a0: b2db 64be 7272 5abe 0f9c 153e 6f98 823c
000001b0: 7ff1 293e 106e 533e e02b 473e 5bc2 f83d
000001c0: 5c44 fc3d ffa5 8ebd 76c4 79be 94cd 27be
000001d0: 40be a1be cbdc 88bd 1b86 ef3d 68d8 843e
000001e0: 0bb4 0dbe 6c19 61be 690d 153d 21fd 2e3d
000001f0: c4ba 99bd 25d8 bc3d d8fd 26bd 51be 1e3d
00000200: b46f 823d 677d 22be 84a9 c4bc 119a 12be
00000210: 016a c13d 9785 9e3d 3913 c0bd f58c 823d
00000220: b354 e7bd bf5f 863d 9e2b a43c 101c 87bd
00000230: 3c17 013e 47ba c1bd aad0 6f3d 2214 223b
00000240: 81a3 80bd 0000 e8bd 4e94 e63d 91e4 abbd
00000250: fc9b a53d a291 ebbc da74 533d 97c1 97bd
00000260: 10e8 20be c5f6 16bc 2c90 ad3d fccf ec3c
00000270: 8d50 bcbd 866e 22be e113 00be 5f53 adbe
00000280: 8648 7abe 467e 22be 1dd3 043d 5ca4 cebd
00000290: 7274 3cbd 2895 c6bd d6c3 503c 98d7 06bc
000002a0: 5e1a 133e 44bc 203d f676 07be 30bc 733d
000002b0: a75d 5fbd 1e01 083d 5cef 90bc 788e 7d3b
000002c0: ce94 273d bd86 173e c57d 4e3c 91a6 863d
000002d0: 2706 32bd 7a36 363a 9f19 02be e047 eb3d
000002e0: 0c29 06bd 9326 443d fd35 a53d 0a95 b9bc
000002f0: aff3 963d 8999 733d e0a4 a03d effc f2bd
00000300: 4179 c4bd 65f7 47bd 188d f5bd 6971 09be
00000310: 5d9d dfbd 223c adbd f759 1d3d c377 5f3d
00000320: 94de a23d a065 a93d 6129 9bbc 647c 933d
00000330: 5f86 04be ba4a 913c 7648 f5bd 5099 a53b
00000340: 9001 c93d 91eb df3c e33d dc3d 13d6 a53d
00000350: 24ae d23d e8da a0bd ecc7 b83d f053 91bd
00000360: b8e5 a2bc a3cf d03c c3bb cbbd ab1c efbd
00000370: 01fb 1fbe c518 ee3d d167 223e 8221 98bd
00000380: 6d9e 273e 3b5a 913d 8a4e f0bc 2e61 f3bd
00000390: d7a9 163e 787f 79bc 105d 783d 6c16 ea3d
000003a0: 77a2 21be f3e3 093e fddc 73bd a5d4 13be
000003b0: 1450 f23d c147 0fbe 122c 5e3c 9b0d 10be
000003c0: 325a 4a3c 45ce 39be 6d8b 42be 623f a6be
000003d0: 758a f33d 3cc1 d53c 1ff5 393e 13e3 4a3e
000003e0: 0050 9c3d bf1d ee3d f051 563b f9e3 253e
000003f0: 791e abbb 718d 1abd 4c46 07be d380 023d

1.l0.bias f4 [251]
-0.697191 -2.9424808 0.06405814 -3.0422225 0.12919009 0.3412835 -0.10997608 0.027210666
-0.050816685 0.13965085 0.5694956 0.09179523 0.9543584 -0.26803988 0.23428358 -0.03159602
0.08452876 0.027800165 0.0916161 0.047224686 0.054891147 0.037234828 0.13972045 0.16401134
-0.046880957 -0.04338054 0.056071777 -0.033825144 0.55801845 0.048619732 -3.7020507 -4.5000815
-0.19336924 0.1979138 0.14865224 0.2952948 0.047778025 0.015002648 0.39969593 0.8410038
0.012817139 -0.14820117 0.06560138 0.20262475 0.29329944 0.3176628 -0.3094276 -0.15044402
-3.784579 0.02534223 -0.0233901 0.2550562 0.17025414 0.46648282 0.053983483 0.019933794
-3.1907997 0.22220968 0.13936667 -0.5130297 0.04467039 0.65178126 -1.901911 -3.2775247
-0.17574267 0.928874 -0.3566117 -0.011004042 0.38682333 0.018302944 0.114461675 0.537213
-0.1310411 0.8157344 -0.15542494 0.77979255 -1.3622946 -0.025901422 0.9395717 0.49715286
0.056345742 0.048582863 -0.029396012 0.7194355 -0.083523154 0.21284379 -0.016676197 0.045838512
-0.006486374 0.16626874 -0.07432392 0.01978462 -0.116217256 0.090764195 1.0641478 0.5268246
-0.5734293 0.338144 0.14811616 0.09371344 -0.075984456 0.6292962 0.19144675 0.16807899
0.36625832 0.01907569 0.12108051 0.1872863 0.6272944 0.132183 0.18865165 0.1011127
0.009921602 0.17142357 0.26752016 0.062300056 -0.46740305 0.92557925 -4.0023065 0.24558146
-0.014335865 0.31013837 0.23953076 -3.7752976 0.07914379 0.14337304 0.22497635 0.17315912
-4.11862 -6.6023065e-05 -3.7235782 0.02921641 -3.6135068 0.011450292 -0.02116189 -0.017876256
0.2518468 0.17509714 -0.056941174 0.27948272 0.16628352 0.05953313 1.3523381 0.58486694
-4.236972 0.13914531 0.41370142 0.218235 -0.048442237 -3.7408245 -0.05325435 0.022175653
-0.1560026 -0.0023134116 0.16169117 -2.3017254 0.089574896 -0.3886165 -0.18342622 0.0028519195
0.6278897 0.5600067 0.54143775 1.1976613 -0.042081915 -0.055117056 0.43897462 -1.0471554
0.17152463 -0.54942983 0.3882461 0.05944007 0.47358483 -0.28786957 -0.55417836 0.0668088
-0.014964289 0.9866957 -0.044123545 0.22518776 0.17254767 -0.42535263 0.027913675 0.08981867
0.0076398556 0.3378456 0.17438564 0.10669919 0.15270078 -0.35289064 -0.4652403 0.068748906
-0.12864198 0.10825219 0.26926565 -4.2516317 -4.160829 0.21365161 0.2316891 0.4212974
0.0057732654 0.55002147 -0.04849741 -0.3616698 0.11347463 0.8367169 0.14051257 0.31073666
0.058054235 0.098143205 0.2947304 0.1079387 0.20730856 0.2717009 -0.0644583 0.22065368
0.44217774 -0.0110903615 0.22842905 0.25758263 0.050220694 0.015437941 0.6611604 -0.09362935
0.2028742 0.39467072 0.37428954 0.6430685 0.24096067 -0.07489777 0.14988068 0.05938902
-0.02781082 0.10847258 0.09660177 0.019671613 0.13568287 0.035656422 0.48556665 0.20017692
0.08112609 0.42506754 -0.2493722 -0.028660046 0.054877087 0.65667164 -0.1265913 0.18589976
0.5060005 -0.014753937 0.3653239
00000000: 1c7b 32bf 9b51 3cc0 ea30 833d c6b3 42c0
00000010: 684a 043e b6bc ae3e 243b e1bd e7e8 de3c
00000020: 2825 50bd a200 0f3e 77ca 113f 23ff bb3d
00000030: d550 743f 863c 89be 09e8 6f3e d46a 01bd
00000040: 6a1d ad3d 2cbd e33c 39a1 bb3d ac6e 413d
00000050: 8ad5 603d 8c83 183d e112 0f3e 97f2 273e
00000060: 3f06 40bd cbaf 31bd 85ab 653d 3c8c 0abd
00000070: 4cda 0e3f 7c25 473d 66ee 6cc0 ab00 90c0
00000080: 9602 46be eaa9 4a3e 4b38 183e e130 973e
00000090: e4b2 433d abcd 753c f2a4 cc3e 064c 573f
000000a0: fafe 513c 0cc2 17be 045a 863d dd7c 4f3e
000000b0: 582b 963e b3a4 a23e 4b6d 9ebe ff0d 1abe
000000c0: 8b36 72c0 829a cf3c 989c bfbc ba96 823e
000000d0: 1a57 2e3e d6d6 ee3e c91d 5d3d 324c a33c
000000e0: 1036 4cc0 ef8a 633e 23b6 0e3e ea55 03bf
000000f0: 4df8 363d 23db 263f d271 f3bf f7c2 51c0
00000100: e3f5 33be b0ca 6d3f cf95 b6be 4c4a 34bc
00000110: b50d c63e 0ef0 953c e26a ea3d cb86 093f
00000120: a32f 06be f8d3 503f b727 1fbe 7ca0 473f
00000130: ab5f aebf 382f d4bc c587 703f d28a fe3e
00000140: cbca 663d d3fe 463d e8cf f0bc ed2c 383f
00000150: 300e abbd b9f3 593e 859c 88bc 2ac1 3b3d
00000160: a68b d4bb 5a42 2a3e 2437 98bd 5b13 a23c
00000170: 5003 eebd 94e2 b93d ff35 883f fadd 063f
00000180: 43cc 12bf 3621 ad3e c3ab 173e d5ec bf3d
00000190: bd9d 9bbd 8e19 213f 9e0a 443e e61c 2c3e
000001a0: 3686 bb3e 9f44 9c3c 0ff9 f73d fbc7 3f3e
000001b0: 5e96 203f fb5a 073e e62d 413e 2d14 cf3d
000001c0: 378e 223c a989 2f3e 67f8 883e 582e 7f3d
000001d0: 744f efbe c3f2 6c3f e512 80c0 b579 7b3e
000001e0: fae0 6abc 75ca 9e3e 8d47 753e 7a9e 71c0
000001f0: 2416 a23d 62d0 123e 3360 663e a050 313e
00000200: bccb 83c0 dd75 8ab8 1b4f 6ec0 4157 ef3c
00000210: b243 67c0 019a 3b3c b35b adbc 3a71 92bc
00000220: 10f2 803e aa4c 333e 263b 69bd 5c18 8f3e
00000230: 3a46 2a3e 03d9 733d 6a19 ad3f d7b9 153f
00000240: 4695 87c0 1c7c 0e3e acd0 d33e ff78 5f3e
00000250: 5e6b 46bd ab69 6fc0 3c21 5abd b7a9 b53c
00000260: 25bf 1fbe 9b9c 17bb 5f92 253e 784f 13c0
00000270: 0b73 b73d bef8 c6be 15d4 3bbe 45e7 3a3b
00000280: 61bd 203f 995c 0f3f aa9b 0a3f f74c 993f
00000290: 165e 2cbd 6cc2 61bd 48c1 e03e 3009 86bf
000002a0: 27a4 2f3e 6fa7 0cbf 31c8 c63e 6e77 733d
000002b0: b679 f23e a463 93be a2de 0dbf 0dd3 883d
000002c0: c72c 75bc 1798 7c3f e4ba 34bd 9f97 663e
000002d0: 56b0 303e d2c7 d9be 38ab e43c daf2 b73d
000002e0: c157 fa3b 19fa ac3e 2692 323e 1b85 da3d
000002f0: 985d 1c3e 15ae b4be fa33 eebe 3acc 8c3d
00000300: b9ba 03be 53b3 dd3d 30dd 893e 5e0d 88c0
00000310: 8325 85c0 7dc7 5a3e e83f 6d3e 4bb4 d73e
00000320: a92d bd3b 35ce 0c3f 38a5 46bd c92c b9be
00000330: 6365 e83d 1433 563f 87e2 0f3e e018 9f3e
00000340: 47ca 6d3d 4eff c83d e7e6 963e f70e dd3d
00000350: b248 543e 611c 8b3e b702 84bd 0af3 613e
00000360: 1f65 e23e 59b4 35bc 4ee9 693e dfe1 833e
00000370: 37b4 4d3d 6bef 7c3c cf41 293f bfc0 bfbd
00000380: 41be 4f3e 4812 ca3e e1a2 bf3e 23a0 243f
00000390: 65be 763e 0164 99bd 527a 193e e741 733d
000003a0: 84d3 e3bc df26 de3d 26d7 c53d 5d26 a13c
000003b0: 73f0 0a3e 780c 123d 319c f83e 2efb 4c3e
000003c0: 6f25 a63d 74a2 d93e 6d5b 7fbe 79c8 eabc
000003d0: ccc6 603d a21b 283f 26a1 01be 825c 3e3e
000003e0: 4089 013f 7fba 71bc bc0b bb3e

1.l1.weight f4 [215, 251]
-0.48144376 -0.42391595 0.02565908 -0.09649235 0.0023862768 -0.45954654 0.24552123 -0.113436885
0.070619926 -0.010761242 -0.2577174 -0.051217034 0.0074328245 -0.6872063 -0.09307007 0.80679303
0.087169014 0.12925732 -0.0057576727 -0.035637736 -0.021325318 -0.3219298 -0.14927699 -0.035694666
0.21679567 0.72073746 0.0066313418 -0.26338616 -0.053339984 -0.0466086 -0.42861256 -0.19474667
-0.22012462 -0.06419648 -0.06240249 0.022854986 0.04157864 0.59569734 0.16485785 -0.052991223
-0.4350186 -0.15311 -0.050304864 -0.040183727 0.030111171 0.030537147 -0.36166626 -0.11040088
-0.010052926 -0.3914239 0.1770057 -0.022997055 -0.013497591 0.025505612 -0.73456806 0.0765514
0.13976714 -1.1682998 -0.056689423 -0.1799943 -1.5248638 0.027220083 -0.09582691 -0.23042321
-0.5891684 0.02534165 0.072128154 0.40571657 0.014389323 0.021654189 0.046657406 0.006604632
0.07258867 0.053657673 -0.07143815 0.043929975 0.00013665442 0.7914954 0.048786964 0.011975461
-0.07068732 -0.97104895 0.15344173 0.034577094 0.053159717 0.13801166 1.5315614 -0.05524484
0.39929727 -0.030907666 0.083161704 -0.028228687 4.8132005 -0.09782852 0.025360517 -0.03114381
-0.17981347 -0.07687967 0.071098864 0.48177877 0.03990851 -0.148149 -0.2420401 -0.1635154
-0.008200734 0.25969118 -0.019478187 0.09383399 -0.24504708 0.018980289 0.028751934 0.57323
-0.16803786 -0.6012176 0.016261285 -0.32005048 0.034743022 0.05030455 -0.7114094 0.26892787
-0.9432705 -0.049269404 0.0038684055 0.27245164 -1.1265669 -0.2192016 -0.10168105 -1.3855363
-0.5712012 -1.5229903 -0.41573352 -0.15918647 -1.7650424 0.026118034 0.29330766 -0.37466344
-0.23098944 -0.10762318 -0.098198265 -0.5688726 -0.48215157 0.12393876 0.050009295 -0.05031066
-0.994744 -0.11081131 -0.24962261 0.13516307 -0.87087494 -0.57634914 -0.09096418 -0.24295874
-2.1118197 -0.099809915 -0.010702837 -0.04365193 0.0057871523 -0.13861787 0.01126772 -0.11373246
0.021404399 -0.01533273 0.07073032 0.037059043 -0.45431405 -0.23392178 0.17193899 -0.88927037
0.012315766 -0.5513832 -0.057765376 0.18067479 -0.06909035 -0.047464523 -0.83169496 -0.006998745
0.16123123 0.018774986 -0.060738154 0.0084748445 0.049456194 -0.11139029 -0.10479959 0.12084554
-0.054551132 -0.6397417 0.1640442 -0.58261794 0.028788578 -0.33228296 0.045236938 -0.027188813
-0.26203468 -0.15897508 -0.05468848 -0.3956531 -0.8110315 -0.105200596 0.24681908 0.08854001
-0.054185692 -0.25147644 -0.097040474 0.010299657 0.0053894045 0.07985116 -0.01664241 -0.012075247
0.0042317114 -0.098336026 0.004744336 -0.008866945 -0.020758163 0.08280658 -0.054069765 -0.077233195
0.07081523 -0.013700176 0.0071773 -0.008128982 0.1452176 -0.19518661 0.04715285 0.9266798
0.0352448 -0.140632 0.10765725 0.102390155 -0.0077196616 -0.4845057 -1.2733303 -0.01298622
0.074566714 0.49959365 0.115419626 -0.3008409 -0.07818285 -0.65759885 0.010501525 -1.553404
-0.018485267 -0.047156923 -0.63757837 -0.5819359 -0.037664533 0.08843103 0.23550543 0.0043552667
-0.0074735186 -0.5701221 0.007990077 0.054934092 -0.5478421 -4.0814357 -0.06190809 0.016552025
00000000: cc7f f6be 830b d9be fe32 d23c c89d c5bd
00000010: 1563 1c3b af49 ebbe eb69 7b3e 9951 e8bd
00000020: 2ea1 903d ec4f 30bc 89f3 83be f4c8 51bd
00000030: 0d8f f33b c1ec 2fbf 859b bebd fd89 4e3f
00000040: ab85 b23d 085c 043e dcaa bcbb e0f8 11bd
00000050: 6fb2 aebc fcd3 a4be 11dc 18be 9234 12bd
00000060: afff 5d3e 4082 383f ba4b d93b 8dda 86be
00000070: 077b 5abd a9e8 3ebd 1b73 dbbe ac6b 47be
00000080: 5968 61be 7279 83bd c199 7fbd 613a bb3c
00000090: 5d4e 2a3d 9f7f 183f 7fd0 283e 530d 59bd
000000a0: c2ba debe dec8 1cbe 790c 4ebd b197 24bd
000000b0: b4ab f63c 0a29 fa3c 522c b9be db19 e2bd
000000c0: 07b5 24bc b768 c8be fb40 353e 5264 bcbc
000000d0: 0025 5dbc 25f1 d03c a70c 3cbf fbc6 9c3d
000000e0: 1e1f 0f3e d98a 95bf 2b33 68bd 6d50 38be
000000f0: bd2e c3bf a7fc de3c e640 c4bd 10f4 6bbe
00000100: bed3 16bf 4b99 cf3c edb7 933d 15ba cf3e
00000110: 32c1 6b3c 2064 b13c d61b 3f3d ab6b d83b
00000120: 5ea9 943d 26c8 5b3d 2a4e 92bd ebef 333d
00000130: e44a 0f39 719f 4a3f d7d4 473d b934 443c
00000140: 83c4 90bd aa96 78bf d41f 1d3e b6a0 0d3d
00000150: 01be 593d ee52 0d3e 340a c43f 6a48 62bd
00000160: b170 cc3e 1332 fdbc af50 aa3d d93f e7bc
00000170: bd05 9a40 525a c8bd dcc0 cf3c 4e21 ffbc
00000180: 0621 38be 1773 9dbd 489c 913d b5ab f63e
00000190: 1b77 233d 5fb4 17be 5cd9 77be 9570 27be
000001a0: 5f5c 06bc 3ef6 843e b890 9fbc 092c c03d
000001b0: 9fed 7abe 8d7c 9b3c 2d89 eb3c 34bf 123f
000001c0: 1e12 2cbe 66e9 19bf 6336 853c a8dd a3be
000001d0: b34e 0e3d 250c 4e3d ed1e 36bf eab0 893e
000001e0: 2d7a 71bf b7ce 49bd 1385 7d3b c87e 8b3e
000001f0: 5833 90bf 6276 60be 283e d0bd 4159 b1bf
00000200: 3e3a 12bf 59f1 c2bf 06db d4be c701 23be
00000210: e9ec e1bf 7df5 d53c 6c2c 963e e3d3 bfbe
00000220: 7f88 6cbe 8b69 dcbd 2c1c c9bd a2a1 11bf
00000230: 92dc f6be 9bd3 fd3d 8cd6 4c3d 8d12 4ebd
00000240: 8ba7 7ebf 0af1 e2bd 129d 7fbe 3068 0a3e
00000250: a9f1 5ebf 9e8b 13bf 6e4b babd 2dca 78be
00000260: 0e28 07c0 2469 ccbd f45a 2fbc 5ecc 32bd
00000270: 27a2 bd3b d8f1 0dbe 3e9c 383c 90ec e8bd
00000280: 4758 af3c 2136 7bbc 0fdb 903d 39cb 173d
00000290: da9b e8be 3189 6fbe c610 303e 39a7 63bf
000002a0: 11c8 493c 7327 0dbf 639b 6cbd d002 393e
000002b0: 3e7f 8dbd 296a 42bd f6e9 54bf ba55 e5bb
000002c0: cd19 253e 00ce 993c 92c8 78bd 13da 0a3c
000002d0: 9492 4a3d 9820 e4bd 2ba1 d6bd de7d f73d
000002e0: 0271 5fbd 1dc6 23bf 34fb 273e 7326 15bf
000002f0: 06d6 eb3c fe20 aabe 5e4a 393d 13bb debc
00000300: 6929 86be 5dca 22be 0701 60bd 0b93 cabe
00000310: c39f 4fbf 6973 d7bd 24be 7c3e 7754 b53d
00000320: d1f1 5dbd 85c1 80be 28bd c6bd e4bf 283c
00000330: 9a99 b03b 0189 a33d aa55 88bc 42d7 45bc
00000340: 2baa 8a3b 6664 c9bd 6076 9b3b aa46 11bc
00000350: 060d aabc 7f96 a93d 4278 5dbd 702c 9ebd
00000360: 9307 913d b476 60bc 8e2f eb3b 6c2f 05bc
00000370: ecb3 143e 00df 47be 5923 413d e33a 6d3f
00000380: da5c 103d d601 10be 677b dc3d eeb1 d13d
00000390: 37f5 fcbb 2211 f8be 7dfc a2bf 28c4 54bc
000003a0: 6fb6 983d bdca ff3e 2061 ec3d d207 9abe
000003b0: 541e a0bd 6658 28bf 970e 2c3c f1d5 c6bf
000003c0: 6a6e 97bc 9e27 41bd 5638 23bf c0f9 14bf
000003d0: 2046 1abd 541b b53d 5628 713e a0b6 8e3b
000003e0: 6be4 f4bb 86f3 11bf d0e8 023c 9202 613d
000003f0: 613f 0cbf 1f9b 82c0 5693 7dbd 1d98 873c

1.l1.bias f4 [215]
-0.35342795 1.7365751 1.5818138 1.6814889 1.6091664 3.1481853 -0.41808015 1.313675
2.820748 -2.470097 2.7995958 -0.6875657 1.6727698 1.4532847 3.007058 -0.4412789
2.7743356 -0.60804695 2.9936154 -0.45478487 -0.19650126 2.787852 -0.19167086 1.0872241
2.75973 -0.19596282 2.6974835 1.7465696 2.7972283 0.002775589 2.3864841 1.5523398
3.173366 1.6927675 2.8319101 1.5818092 -5.260062 0.08286929 1.3730056 1.6014483
1.2567266 -0.3699927 2.900512 -4.090494 1.6086658 2.6053636 -0.061502397 1.5458984
1.7391036 0.8141109 2.7214246 0.9777685 -3.1122448 -0.34295434 2.6254723 1.391978
1.4705205 -0.040280726 0.5178778 1.529751 2.0758586 1.5093873 1.2114334 1.3020841
-2.507404 1.6676643 0.29828686 0.60121 1.6508343 0.076133266 -0.34294304 -0.2706958
1.2420743 1.320539 2.6884665 2.120641 1.6184934 2.6672575 -2.1219592 -2.2188325
-0.2727853 1.6167358 1.5915154 2.4905398 1.6299073 0.93170977 0.81352603 0.60842997
1.6088743 -4.3819075 2.6508665 2.869494 2.817582 3.040228 -0.17531662 -2.309008
2.652646 1.1683223 1.5067431 1.2660445 1.8436427 1.5547222 1.0526811 1.8914869
1.2429537 -0.041325465 1.197885 2.9822578 3.0231662 -0.16888969 1.9699287 1.2334256
3.2597957 0.091297515 1.629981 -0.31257817 2.7212756 -1.259625 2.9069085 0.99645984
2.8465502 -0.18350522 -1.5841285 2.9690294 1.732228 3.0584476 0.4084119 -0.21726736
0.15982966 1.5288022 1.589024 1.6205449 1.1224979 1.5728164 1.497976 -1.7827662
2.5601664 0.65012693 -1.8448683 -2.0174642 1.3524874 2.6861176 2.8127832 1.067654
-0.23527229 1.2741883 0.2951328 2.8867633 -0.13663001 -2.433352 -0.29835656 0.10876619
1.4155352 2.5575376 0.73576444 1.5055994 2.9074216 -0.2196234 -1.4714285 0.6962696
1.7409694 1.5669825 -1.4331341 2.2910926 2.7755163 -2.5684958 -1.4894551 0.30325314
2.9195356 0.60184264 1.5081 -2.149713 1.5539838 1.9569119 -2.9543316 1.0673448
2.2529578 2.238804 -2.2368987 -0.056457393 2.7502325 2.2491717 1.4120387 0.7177722
0.6551071 1.5417099 2.7903981 1.4472597 1.3321478 0.38665876 1.0348816 2.152372
1.6547712 2.0543094 0.58842784 2.807477 1.9963901 1.6818982 1.4066925 2.8844955
1.0981698 -2.9433346 1.0649135 1.0990368 2.9112153 2.855596 -1.3297285 1.4534186
1.5975107 2.8637836 0.8702619 2.1900861 -1.9275256 2.0733933 1.3981282
00000000: 82f4 b4be 1848 de3f e078 ca3f 073b d73f
00000010: 2af9 cd3f de7b 4940 9a0e d6be 8126 a83f
00000020: 2387 3440 1216 1ec0 942c 3340 4e04 30bf
00000030: 521d d63f 3c05 ba3f a373 4040 4fef e1be
00000040: b78e 3140 f7a8 1bbf 6597 3f40 90d9 e8be
00000050: a037 49be 2b6c 3240 5e45 44be 292a 8b3f
00000060: 6b9f 3040 7aaa 48be 92a3 2c40 988f df3f
00000070: ca05 3340 a8e6 353b 28bc 1840 12b3 c63f
00000080: 6e18 4b40 9bac d83f 043e 3540 b978 ca3f
00000090: 6e52 a8c0 60b7 a93d a6be af3f 42fc cc3f
000000a0: 6bdc a03f af6f bdbe fda1 3940 54e5 82c0
000000b0: c3e8 cd3f 47be 2640 f0e9 7bbd 00e0 c53f
000000c0: f29a de3f 9269 503f d22b 2e40 094f 7a3f
000000d0: 052f 47c0 b697 afbe bd07 2840 562c b23f
000000e0: 043a bc3f 67fd 24bd a493 043f e1ce c33f
000000f0: deda 0440 9a33 c13f 4010 9b3f b1aa a63f
00000100: 4f79 20c0 0676 d53f 0eb9 983e e6e8 193f
00000110: 8a4e d33f c2eb 9b3d 3b96 afbe a498 8abe
00000120: 4afc 9e3f 6c07 a93f d60f 2c40 95b8 0740
00000130: cb2a cf3f 59b4 2a40 2ece 07c0 5a01 0ec0
00000140: 84aa 8bbe 33f1 ce3f c7b6 cb3f 0165 1f40
00000150: cda0 d03f 8884 6e3f 3e43 503f 11c2 1b3f
00000160: 98ef cd3f 9638 8cc0 cca7 2940 caa5 3740
00000170: 4353 3440 1893 4240 3386 33be c9c6 13c0
00000180: f4c4 2940 968b 953f f5dc c03f bf0d a23f
00000190: 7cfc eb3f 2301 c73f 41be 863f 3e1c f23f
000001a0: 1b19 9f3f e444 29bd 4c54 993f 50dd 3e40
000001b0: 8e7b 4140 6bf1 2cbe a026 fc3f e4e0 9d3f
000001c0: 7ea0 5040 31fa ba3d 38a3 d03f 3f0a a0be
000001d0: 6129 2e40 643b a1bf ca0a 3a40 fe17 7f3f
000001e0: e12d 3640 cbe8 3bbe b9c4 cabf 9404 3e40
000001f0: a6b9 dd3f 9bbd 4340 5d1b d13e 567b 5ebe
00000200: 63aa 233e caaf c33f 2365 cb3f 046e cf3f
00000210: 03ae 8f3f 0c52 c93f adbd bf3f af31 e4bf
00000220: c4d9 2340 b86e 263f a524 ecbf 221e 01c0
00000230: 4f1e ad3f 5ae9 2b40 a404 3440 e3a8 883f
00000240: 38eb 70be 9a18 a33f a51b 973e bbc0 3840
00000250: bde8 0bbe 0abc 1bc0 31c2 98be cfc0 de3d
00000260: 4230 b53f b2ae 2340 0f5b 3c3f 7bb7 c03f
00000270: 3213 3a40 f5e4 60be c557 bcbf b93e 323f
00000280: 16d8 de3f e292 c83f f070 b7bf 43a1 1240
00000290: 0fa2 3140 3c62 24c0 77a6 bebf ff43 9b3e
000002a0: acd9 3a40 5c12 1a3f 6c09 c13f e694 09c0
000002b0: f1e8 c63f 177c fa3f c513 3dc0 c19e 883f
000002c0: 7630 1040 9148 0f40 5929 0fc0 de3f 67bd
000002d0: cf03 3040 6ef2 0f40 afbd b43f ebbf 373f
000002e0: 19b5 273f c056 c53f e295 3240 ce3f b93f
000002f0: d283 aa3f 23f8 c53e 0077 843f 76c0 0940
00000300: 8bcf d33f ce79 0340 35a3 163f b4ad 3340
00000310: b689 ff3f 7148 d73f 800e b43f 939b 3840
00000320: d490 8c3f 985f 3cc0 164f 883f 3dad 8c3f
00000330: 5a51 3a40 16c2 3640 8b34 aabf 9f09 ba3f
00000340: 3b7b cc3f 3b48 3740 7cc9 5e3f 5f2a 0c40
00000350: 29b9 f6bf 7ab2 0440 ddf5 b23f

1.l3.weight f4 [1, 215]
-1.1699789 -1.0916388 0.08429146 0.12714693 0.117229626 -0.03259642 0.00087063294 0.019699588
-0.29194912 -0.35092914 -0.03694141 0.008216907 0.10872162 0.08574853 -0.031144202 0.19969425
-0.03164222 -0.1493672 -0.03173792 -0.811272 0.037041694 -0.026552575 -0.008915002 0.044097885
-0.028873963 0.03277016 -0.022124581 -0.020632004 -0.03430879 0.82743603 -0.8149619 0.113895126
-0.04835065 0.071414106 -0.26112434 0.108872995 0.19114707 0.55264884 0.55233103 -1.1676595
0.06310854 -0.0073911576 -0.051863182 0.08652296 -0.6853869 -0.06968993 -0.03395102 0.105899766
0.12627934 0.14734307 -0.02819352 0.041451648 0.072834454 0.0036058319 -0.107236035 0.059956178
0.0395052 -0.0075046024 0.0907276 0.12450699 0.31845364 0.044359017 0.07091965 0.17477551
-0.40127537 -0.38722992 -0.54277986 0.330765 0.108819224 -2.6001744 0.029755365 -0.006515706
0.6096878 0.06281766 -0.043399133 0.009229041 0.09272285 -0.03868775 -0.23547308 -0.75539935
0.056975137 0.09567305 0.099913426 -0.10064274 0.038683996 0.04577091 0.7866305 0.5363502
0.11357621 0.060251765 -0.010700777 -0.0409361 -0.031430766 -0.053042434 0.02821151 -0.31460655
-0.019872565 0.30890423 0.43663922 0.050926838 -0.066570744 0.056108605 0.904491 0.1837104
0.071664855 0.88718814 0.5299473 -0.1295223 -0.053159323 1.2708104 -0.11504511 0.083053805
-0.13180722 0.6669588 0.10186309 0.04889149 -0.034242 -0.20717011 -0.027994923 0.037585776
-0.040435817 -0.004330422 -0.0469224 -0.031059792 0.10184606 -0.036389504 -1.3748049 -0.0015940095
1.2090349 0.08640367 0.1260449 0.12434101 0.22691931 0.14750865 0.10525973 0.28220683
-0.13936466 0.30928963 -0.31223783 -0.38445872 0.051800232 -0.03960568 -0.02859934 -0.005617667
0.019881068 0.032302234 -0.40252167 -0.05542025 -2.5791783 -0.35124847 0.025120605 -0.29254726
0.1509542 -0.10546412 0.16436088 0.3547234 -0.029314684 0.036248773 -0.35098508 0.008048658
-0.1922552 0.117409706 -0.4692803 -0.030532869 -0.03587153 -0.41593504 0.2471001 0.29371914
-0.044560928 0.88829994 0.037226368 -0.20127158 0.15299436 0.06823981 -0.13883953 0.039341517
-0.0005014756 -0.0103939 0.0967032 0.0028519204 -0.03961183 0.43919638 0.05785664 0.27409795
0.5770471 0.13411725 -0.024943506 -0.19244577 0.36328387 -2.2434146 -0.0115593495 -0.015689382
0.08471937 -0.10579576 0.11827195 -0.027970053 0.14410228 0.15060957 0.058511503 -0.040185932
0.04095231 -0.6508724 0.039543595 -0.020704594 -0.020665614 -0.024423014 -0.35337093 0.042697802
0.050880693 -0.02931846 0.035206933 -0.013605955 -0.38393742 -0.012867417 0.028662484
00000000: dec1 95bf d2ba 8bbf 00a1 ac3d ce32 023e
00000010: 1616 f03d d383 05bd 303b 643a 0861 a13c
00000020: 5b7a 95be fcac b3be e04f 17bd 35a0 063c
00000030: 71a9 de3d ed9c af3d 2022 ffbc a67c 4c3e
00000040: 469b 01bd b7f3 18be 9fff 01bd 86af 4fbf
00000050: 08b9 173d c984 d9bc 3b10 12bc fc9f 343d
00000060: 1789 ecbc 013a 063d 9c3e b5bc 7304 a9bc
00000070: 6087 0cbd d9d2 533f 58a1 50bf d941 e93d
00000080: 550b 46bd 8f41 923d 17b2 85be cef8 de3d
00000090: 0fbc 433e 657a 0d3f 9165 0d3f de75 95bf
000000a0: 0d3f 813d 8631 f2bb 7d6e 54bd f332 b13d
000000b0: 8475 2fbf 98b9 8ebd 3a10 0bbd fae1 d83d
000000c0: 5f4f 013e 1ae1 163e 19f6 e6bc 34c9 293d
000000d0: 3b2a 953d d24f 6c3b 919e dbbd 9c94 753d
000000e0: 34d0 213d 2be9 f5bb 64cf b93d 85fd fe3d
000000f0: 5b0c a33e cdb1 353d 523e 913d 5af8 323e
00000100: f773 cdbe 0043 c6be 9ff3 0abf 085a a93e
00000110: 9ddc de3d 4269 26c0 86c1 f33c b481 d5bb
00000120: 8014 1c3f 8ca6 803d 4ac3 31bd 6735 173c
00000130: 7ae5 bd3d 0c77 1ebd db1f 71be da61 41bf
00000140: c35e 693d 3bf0 c33d 699f cc3d c81d cebd
00000150: 1c73 1e3d 477a 3b3d 9e60 493f 3f4e 093f
00000160: a59a e83d 8eca 763d 5052 2fbc 9dac 27bd
00000170: 8cbd 00bd 0643 59bd d31b e73c 1c14 a1be
00000180: cacb a2bc b228 9e3e 2d8f df3e a998 503d
00000190: 3e56 88bd 23d2 653d b98c 673f 941e 3c3e
000001a0: 06c5 923d c31e 633f a0aa 073f 7ea1 04be
000001b0: 97bd 59bd eaa9 a23f c59c ebbd 1d18 aa3d
000001c0: 79f8 06be d0bd 2a3f 999d d03d 7142 483d
000001d0: 5741 0cbd 6724 54be 9c55 e5bc 8bf3 193d
000001e0: 07a0 25bd 36e6 8dbb b431 40bd 1b71 febc
000001f0: ab94 d03d 290d 15bd 9bf9 afbf 15ee d0ba
00000200: a8c1 9a3f 68f4 b03d ea11 013e 80a6 fe3d
00000210: 895d 683e 820c 173e 6a92 d73d 6a7d 903e
00000220: 9cb5 0ebe 365b 9e3e a3dd 9fbe c6d7 c4be
00000230: 7b2c 543d 9139 22bd 2a49 eabc 6814 b8bb
00000240: 9fdd a23c 594f 043d 5217 cebe 5800 63bd
00000250: 4211 25c0 d7d6 b3be bac9 cd3c c1c8 95be
00000260: bd93 1a3e 93fd d7bd 384e 283e 4e9e b53e
00000270: 5925 f0bc 9879 143d 51b4 b3be 85de 033c
00000280: 8cde 44be 8074 f03d 8245 f0be 1120 fabc
00000290: 07ee 12bd 70f5 d4be cf07 7d3e 5b62 963e
000002a0: 8585 36bd a067 633f ad7a 183d 231a 4ebe
000002b0: 8eaa 1c3e 50c1 8b3d f32b 0ebe 9224 213d
000002c0: 7575 03ba 2d4b 2abc 540c c63d 49e7 3a3b
000002d0: 0440 22bd 59de e03e 16fb 6c3d 9156 8c3e
000002e0: 5cb9 133f 0856 093e 5356 ccbc 8110 45be
000002f0: 5800 ba3e 1b94 0fc0 6d63 3dbc 0587 80bc
00000300: 5981 ad3d 73ab d8bd 9038 f23d 7421 e5bc
00000310: 8c8f 133e 6539 1a3e c2a9 6f3d 019a 24bd
00000320: 9cbd 273d 939f 26bf 77f8 213d ae9c a9bc
00000330: ef4a a9bc c612 c8bc 09ed b4be e4e3 2e3d
00000340: 4668 503d 442d f0bc 2535 103d 83eb 5ebc
00000350: 7293 c4be dcd1 52bc 96cd ea3c
