ergoCubSN001/friction_pinn/2_rar_b3942_h22.onnx (onnx, 263857 bytes, 7 tensors)

0.weight f4 [44, 44]
0.11980111 0.0 0.0 0.0 0.0 0.0 0.0 0.0
0.0 0.0 0.0 0.0 0.0 0.0 0.0 0.0
0.0 0.0 0.0 0.0 0.0 0.0 0.0 0.0
0.0 0.0 0.0 0.0 0.0 0.0 0.0 0.0
0.0 0.0 0.0 0.0 0.0 0.0 0.0 0.0
0.0 0.0 0.0 0.0 0.0 0.11898654 0.0 0.0
0.0 0.0 0.0 0.0 0.0 0.0 0.0 0.0
0.0 0.0 0.0 0.0 0.0 0.0 0.0 0.0
0.0 0.0 0.0 0.0 0.0 0.0 0.0 0.0
0.0 0.0 0.0 0.0 0.0 0.0 0.0 0.0
0.0 0.0 0.0 0.0 0.0 0.0 0.0 0.0
0.0 0.0 0.11853659 0.0 0.0 0.0 0.0 0.0
0.0 0.0 0.0 0.0 0.0 0.0 0.0 0.0
0.0 0.0 0.0 0.0 0.0 0.0 0.0 0.0
0.0 0.0 0.0 0.0 0.0 0.0 0.0 0.0
0.0 0.0 0.0 0.0 0.0 0.0 0.0 0.0
0.0 0.0 0.0 0.0 0.0 0.0 0.0 0.11825733
0.0 0.0 0.0 0.0 0.0 0.0 0.0 0.0
0.0 0.0 0.0 0.0 0.0 0.0 0.0 0.0
0.0 0.0 0.0 0.0 0.0 0.0 0.0 0.0
0.0 0.0 0.0 0.0 0.0 0.0 0.0 0.0
0.0 0.0 0.0 0.0 0.0 0.0 0.0 0.0
0.0 0.0 0.0 0.0 0.11720458 0.0 0.0 0.0
0.0 0.0 0.0 0.0 0.0 0.0 0.0 0.0
0.0 0.0 0.0 0.0 0.0 0.0 0.0 0.0
0.0 0.0 0.0 0.0 0.0 0.0 0.0 0.0
0.0 0.0 0.0 0.0 0.0 0.0 0.0 0.0
0.0 0.0 0.0 0.0 0.0 0.0 0.0 0.0
0.0 0.116209246 0.0 0.0 0.0 0.0 0.0 0.0
0.0 0.0 0.0 0.0 0.0 0.0 0.0 0.0
0.0 0.0 0.0 0.0 0.0 0.0 0.0 0.0
0.0 0.0 0.0 0.0 0.0 0.0 0.0 0.0
00000000: 495a f53d 0000 0000 0000 0000 0000 0000
00000010: 0000 0000 0000 0000 0000 0000 0000 0000
00000020: 0000 0000 0000 0000 0000 0000 0000 0000
00000030: 0000 0000 0000 0000 0000 0000 0000 0000
00000040: 0000 0000 0000 0000 0000 0000 0000 0000
00000050: 0000 0000 0000 0000 0000 0000 0000 0000
00000060: 0000 0000 0000 0000 0000 0000 0000 0000
00000070: 0000 0000 0000 0000 0000 0000 0000 0000
00000080: 0000 0000 0000 0000 0000 0000 0000 0000
00000090: 0000 0000 0000 0000 0000 0000 0000 0000
000000a0: 0000 0000 0000 0000 0000 0000 0000 0000
000000b0: 0000 0000 37af f33d 0000 0000 0000 0000
000000c0: 0000 0000 0000 0000 0000 0000 0000 0000
000000d0: 0000 0000 0000 0000 0000 0000 0000 0000
000000e0: 0000 0000 0000 0000 0000 0000 0000 0000
000000f0: 0000 0000 0000 0000 0000 0000 0000 0000
00000100: 0000 0000 0000 0000 0000 0000 0000 0000
00000110: 0000 0000 0000 0000 0000 0000 0000 0000
00000120: 0000 0000 0000 0000 0000 0000 0000 0000
00000130: 0000 0000 0000 0000 0000 0000 0000 0000
00000140: 0000 0000 0000 0000 0000 0000 0000 0000
00000150: 0000 0000 0000 0000 0000 0000 0000 0000
00000160: 0000 0000 0000 0000 50c3 f23d 0000 0000
00000170: 0000 0000 0000 0000 0000 0000 0000 0000
00000180: 0000 0000 0000 0000 0000 0000 0000 0000
00000190: 0000 0000 0000 0000 0000 0000 0000 0000
000001a0: 0000 0000 0000 0000 0000 0000 0000 0000
000001b0: 0000 0000 0000 0000 0000 0000 0000 0000
000001c0: 0000 0000 0000 0000 0000 0000 0000 0000
000001d0: 0000 0000 0000 0000 0000 0000 0000 0000
000001e0: 0000 0000 0000 0000 0000 0000 0000 0000
000001f0: 0000 0000 0000 0000 0000 0000 0000 0000
00000200: 0000 0000 0000 0000 0000 0000 0000 0000
00000210: 0000 0000 0000 0000 0000 0000 e630 f23d
00000220: 0000 0000 0000 0000 0000 0000 0000 0000
00000230: 0000 0000 0000 0000 0000 0000 0000 0000
00000240: 0000 0000 0000 0000 0000 0000 0000 0000
00000250: 0000 0000 0000 0000 0000 0000 0000 0000
00000260: 0000 0000 0000 0000 0000 0000 0000 0000
00000270: 0000 0000 0000 0000 0000 0000 0000 0000
00000280: 0000 0000 0000 0000 0000 0000 0000 0000
00000290: 0000 0000 0000 0000 0000 0000 0000 0000
000002a0: 0000 0000 0000 0000 0000 0000 0000 0000
000002b0: 0000 0000 0000 0000 0000 0000 0000 0000
000002c0: 0000 0000 0000 0000 0000 0000 0000 0000
000002d0: f408 f03d 0000 0000 0000 0000 0000 0000
000002e0: 0000 0000 0000 0000 0000 0000 0000 0000
000002f0: 0000 0000 0000 0000 0000 0000 0000 0000
00000300: 0000 0000 0000 0000 0000 0000 0000 0000
00000310: 0000 0000 0000 0000 0000 0000 0000 0000
00000320: 0000 0000 0000 0000 0000 0000 0000 0000
00000330: 0000 0000 0000 0000 0000 0000 0000 0000
00000340: 0000 0000 0000 0000 0000 0000 0000 0000
00000350: 0000 0000 0000 0000 0000 0000 0000 0000
00000360: 0000 0000 0000 0000 0000 0000 0000 0000
00000370: 0000 0000 0000 0000 0000 0000 0000 0000
00000380: 0000 0000 1dff ed3d 0000 0000 0000 0000
00000390: 0000 0000 0000 0000 0000 0000 0000 0000
000003a0: 0000 0000 0000 0000 0000 0000 0000 0000
000003b0: 0000 0000 0000 0000 0000 0000 0000 0000
000003c0: 0000 0000 0000 0000 0000 0000 0000 0000
000003d0: 0000 0000 0000 0000 0000 0000 0000 0000
000003e0: 0000 0000 0000 0000 0000 0000 0000 0000
000003f0: 0000 0000 0000 0000 0000 0000 0000 0000

0.bias f4 [44]
-0.11920793 -0.11840247 -0.11795987 -0.117695905 -0.11665824 -0.11568272 -0.11536884 -0.11475092
-0.1138997 -0.1134754 -0.11269329 -0.1120687 -0.11134999 -0.11092706 -0.11034657 -0.1097738
-0.109356426 -0.108910106 -0.108246036 -0.10764818 -0.107178695 -0.106959194 -0.1082234 -0.10769128
-0.10714511 -0.1065887 -0.10597397 -0.10533463 -0.10476262 -0.10419494 -0.10363227 -0.10301355
-0.1024394 -0.10186886 -0.10125044 -0.10075951 -0.100285806 -0.09988625 -0.0992993 -0.098781705
-0.098281585 -0.0978562 -0.09726375 -0.09678168
00000000: 4a23 f4bd ff7c f2bd f294 f1bd 8d0a f1bd
00000010: 84ea eebd 10eb ecbd 8046 ecbd 8802 ebbd
00000020: 3f44 e9bd ca65 e8bd bdcb e6bd 4684 e5bd
00000030: 770b e4bd ba2d e3bd 62fd e1bd 16d1 e0bd
00000040: 43f6 dfbd 430c dfbd 19b0 ddbd a676 dcbd
00000050: 8180 dbbd 6c0d dbbd 3ba4 ddbd 3f8d dcbd
00000060: e56e dbbd 2d4b dabd e108 d9bd afb9 d7bd
00000070: c98d d6bd 2864 d5bd 283d d4bd c5f8 d2bd
00000080: c0cb d1bd 9fa0 d0bd 645c cfbd 015b cebd
00000090: a562 cdbd 2a91 ccbd 6e5d cbbd 104e cabd
000000a0: db47 c9bd d568 c8bd 3832 c7bd 7935 c6bd

1.l0.weight f4 [208, 44]
-0.10626433 0.091104746 -0.17173494 -0.10341208 -0.0991447 0.07605441 -0.044585217 -0.09654619
0.015443162 -0.039016392 -0.06027555 -0.12010406 0.025782924 -0.11182461 -0.020421242 -0.025246428
0.030046396 0.11660282 -0.0074044336 0.040049396 0.13744941 0.11673725 0.07831858 0.031176783
0.077359915 -0.10260531 0.11995273 0.13666537 -0.04869064 0.14651552 0.016692642 -0.055348393
-0.051286906 -0.13976434 0.00096545817 -0.052768808 -0.10452105 0.09403531 -0.038343806 -0.043106183
0.0118348645 -0.12434337 0.12321392 0.14469127 0.04719071 -0.027311241 0.026710358 0.13424571
0.109575324 0.035994455 -0.038628697 0.0081728855 -0.124563485 0.084647 -0.03678578 -0.09895297
0.016968893 -0.07105894 -0.05077501 0.06774937 -0.07852221 0.08005969 0.0015855634 0.05844734
-0.12927002 0.1084146 0.2124937 0.08820267 0.05079153 -0.042331453 -0.024756886 -0.05525472
-0.06207929 0.024078278 -0.16853823 0.03675057 -0.24299498 -0.25936922 -0.20257255 0.028425984
0.018755186 0.05168843 0.11356028 0.12089297 -0.002686424 0.14915757 0.09830412 0.18654957
-0.21677184 0.001981156 -0.15945798 -0.17473464 -0.10578146 -0.13390142 -0.1610092 -0.061320286
-0.00729599 0.0070669292 -0.056334805 -0.15708709 0.035770558 0.061565876 -0.04065868 -0.05323044
-0.1741348 -0.06184663 -0.14837824 -0.040620524 -0.050784774 -0.18118086 0.08812007 -0.16117097
-0.03715205 -0.021610396 0.16331036 0.05665676 0.10179632 -0.118781395 -0.1245487 -0.12272598
-0.08917507 0.11020995 -0.012264682 0.102686085 -0.0046544853 0.002170944 0.016614584 0.06306401
0.0342497 -0.07905675 -0.09201869 -0.004172977 0.18228662 0.19890204 -0.016680356 0.11187622
0.03295513 0.10105744 -0.1294051 -0.1398576 -0.08463722 -0.01188024 -0.056938853 -0.03303308
-0.027159492 -0.06409255 -0.043563515 0.04003674 0.100074 -0.119494975 -0.01258753 0.04191268
-0.08448058 0.24719724 0.15972583 -0.038373556 0.044419516 0.15946539 -0.08599189 0.015454118
-0.059277408 -0.16662805 -0.059968885 -0.109550424 -0.10456777 -0.22256479 -0.14971244 -0.03259766
0.013831534 -0.03352433 0.007719227 -0.051946558 0.035856757 0.13173194 0.28405082 0.49987882
0.24799868 0.13126588 0.040679097 0.13300607 0.20149472 0.040055227 -0.10634918 -0.10950006
-0.0052385516 0.12801945 0.08439653 0.0973481 -0.107248776 0.105248556 -0.06431917 0.11763629
-0.1071386 -0.018780317 -0.025978627 0.041972093 0.06032277 0.073045485 -0.12603986 -0.027109908
-0.16146141 -0.026323557 -0.11909813 -0.13950291 -0.15673804 -0.03894249 -0.0980104 -0.074743636
0.05541348 0.00387974 -0.048586108 -0.049156055 -0.083930895 0.038671035 -0.0692033 0.08192802
-0.07328772 0.032503083 -0.117936045 -0.0088407 0.08954768 0.14460987 0.09227187 -0.072346136
0.027090406 0.03812883 -0.10363657 -0.040923998 -0.12352211 0.07968404 -0.12637123 -0.13313541
-0.17938429 0.062672384 0.07824471 -0.09658542 0.04607294 0.032422494 0.105545826 0.15952092
0.21986194 0.24212754 -0.19920668 -0.004911861 0.110024646 0.032630265 -0.043501016 0.063031204
-0.123804 0.06327892 -0.07485349 0.081942745 -0.03820266 0.067862034 -0.031891625 0.1148483
00000000: 1da1 d9bd 2095 ba3d 49db 2fbe b6c9 d3bd
00000010: 600c cbbd 6ac2 9b3d fd9e 36bd 02ba c5bd
00000020: 5105 7d3c a7cf 1fbd 7fe3 76bd 1ef9 f5bd
00000030: b636 d33c 4d04 e5bd 734a a7bc 99d1 cebc
00000040: dc23 f63c 76cd ee3d e4a0 f2bb d60a 243d
00000050: 8abf 0c3e f013 ef3d 7e65 a03d 7466 ff3c
00000060: e06e 9e3d bc22 d2bd c7a9 f53d 02f2 0b3e
00000070: d66f 47bd 2a08 163e 02bf 883c ffb4 62bd
00000080: 3812 52bd 621e 0fbe cd16 7d3a 1b24 58bd
00000090: 220f d6bd 9695 c03d 650e 1dbd 1c90 30bd
000000a0: 05e7 413c bda7 febd 9457 fc3d f329 143e
000000b0: 0c4b 413d d3bb dfbc aecf da3c b577 093e
000000c0: 0769 e03d ec6e 133d 2039 1ebd 91e7 053c
000000d0: 241b ffbd 685b ad3d b0ac 16bd dba7 cabd
000000e0: 5902 8b3c 5987 91bd 75f9 4fbd 2fc0 8a3d
000000f0: 41d0 a0bd 56f6 a33d aed2 cf3a 7a66 6f3d
00000100: 5c5f 04be 7908 de3d f397 593e 9aa3 b43d
00000110: c80a 503d bf63 2dbd f4ce cabc c652 62bd
00000120: db46 7ebd cf3f c53c 4995 2cbe c487 163d
00000130: add3 78be 0bcc 84be 2e6f 4fbe 9cdd e83c
00000140: 7aa4 993c 3fb7 533d 4b92 e83d bc96 f73d
00000150: b70e 30bb c3bc 183e ac53 c93d da06 3f3e
00000160: 70f9 5dbe 48d6 013b f448 23be a3ed 32be
00000170: f3a3 d8bd 741d 09be 99df 24be fb2a 7bbd
00000180: 3313 efbb b391 e73b 53bf 66bd 70db 20be
00000190: 2684 123d 802c 7c3d b789 26bd 2908 5abd
000001a0: 6550 32be e452 7dbd 77f0 17be b561 26bd
000001b0: b203 50bd 7a87 39be 4c78 b43d 010a 25be
000001c0: bf2c 18bd 4908 b1bc d53a 273e eb10 683d
000001d0: 977a d03d a943 f3bd 6413 ffbd c257 fbbd
000001e0: 6ba1 b6bd c1b5 e13d cef1 48bc 154d d23d
000001f0: a784 98bb 6546 0e3b 4f1b 883c b427 813d
00000200: 6a49 0c3d 81e8 a1bd 4c74 bcbd 78bd 88bb
00000210: 58a9 3a3e faac 4b3e 3ea5 88bc 5c1f e53d
00000220: f5fb 063d 34f7 ce3d c582 04be d536 0fbe
00000230: 4756 adbd 57a5 42bc b738 69bd b24d 07bd
00000240: 957d debc f442 83bd a86f 32bd 91fd 233d
00000250: 99f3 cc3d c8b9 f4bd ed3b 4ebc a1ac 2b3d
00000260: 2804 adbd 4621 7d3e 2b8f 233e 972d 1dbd
00000270: 3df1 353d e54a 233e 841c b0bd 4533 7d3c
00000280: decc 72bd 8ba0 2abe efa1 75bd f95b e0bd
00000290: a127 d6bd 06e8 63be 384e 19be 2085 05bd
000002a0: a99d 623c cf50 09bd 92f1 fc3b eac5 54bd
000002b0: 89de 123d bde4 063e 1c6f 913e 1ef0 ff3e
000002c0: 5ef3 7d3e 906a 063e 209f 263d be32 083e
000002d0: a254 4e3e f310 243d 99cd d9bd 9141 e0bd
000002e0: 28a8 abbb 8817 033e 17d8 ac3d 715e c73d
000002f0: 3fa5 dbbd 8e8c d73d c5b9 83bd 4ceb f03d
00000300: 7b6b dbbd 2ed9 99bc 21d1 d4bc eeea 2b3d
00000310: 0215 773d df98 953d 9810 01be 9915 debc
00000320: 2456 25be 80a4 d7bc b8e9 f3bd dad9 0ebe
00000330: f07f 20be 2982 1fbd adb9 c8bd 3113 99bd
00000340: 3ff9 623d 3c43 7e3b 3a02 47bd dc57 49bd
00000350: f6e3 abbd 8565 1e3d 76ba 8dbd e1c9 a73d
00000360: df17 96bd f421 053d 7488 f1bd 95d8 10bc
00000370: c664 b73d 9c14 143e 09f9 bc3d 362a 94bd
00000380: b3ec dd3c fa2c 1c3d 693f d4bd ec9f 27bd
00000390: 29f9 fcbd 6331 a33d 7667 01be a654 08be
000003a0: 84b0 37be 615a 803d c33e a03d 94ce c5bd
000003b0: fbb6 3c3d 73cd 043d 6928 d83d 7459 233e
000003c0: 7d23 613e 48f0 773e d6fc 4bbe adf3 a0bb
000003d0: 9a54 e13d 50a7 053d 1f2e 32bd 8116 813d
000003e0: f48c fdbd 6198 813d c94c 99bd 99d1 a73d
000003f0: 647a 1cbd 40fb 8a3d cba0 02bd 9635 eb3d

1.l0.bias f4 [208]
-0.60284144 0.054175723 -0.20223811 0.010805629 -0.06636292 0.002514129 -0.4911944 0.1779611
-0.21045902 -0.19323306 0.08860353 0.069917485 0.020774165 0.04551958 -0.16902909 0.27737707
0.022418335 0.0011499512 0.051170714 -0.005101808 0.028674766 0.0017055569 0.0030048408 -0.71738154
0.14500237 0.003421216 -0.10343922 0.09675821 -0.032452676 -0.002961571 0.091469996 0.00010410003
0.03460283 0.00052273343 0.06531213 -0.007148421 0.120857306 -0.9136326 0.007608028 -0.03656122
0.065472096 -0.008679156 -0.152557 -0.14160563 -0.0526153 -0.23988095 0.07419197 0.08215702
0.0043150475 -0.013332578 0.062071383 -0.002119492 -0.17587027 0.020610118 0.06437614 -0.5464784
-0.6386651 -0.80671877 0.024428949 -0.8537388 0.08583907 -0.11455789 0.027140956 -0.13545538
0.009733964 0.09805683 -0.19851421 0.0076391483 -0.016319616 -0.050779775 -0.14206077 0.014040577
-0.6643231 0.15031911 0.07184217 0.045707125 -0.061395653 -0.008336682 0.10622409 -0.74068
0.05853556 0.13677384 0.102094464 -0.17481197 0.01170399 -0.5335876 -0.0057639033 -0.3671545
-0.073863134 0.022131871 0.0070574405 -0.006538729 -0.22572222 0.00093531876 -0.08290696 0.013551225
0.0072412407 -0.07544434 0.0045690797 -0.054495905 -0.11392657 -0.12417422 0.16637367 -0.17394851
-0.061533827 -0.017560005 -0.5096265 0.017169598 -0.10924978 -0.08145442 0.086508855 0.006325163
0.088932715 -0.9026705 0.013610316 -0.049663223 0.043184925 0.009697084 -0.123055935 0.15801537
-0.32769865 -0.20499429 -0.016698495 0.012611346 -0.8790956 -0.065494694 -0.458378 0.13920431
-0.72918725 0.003238098 0.0014129629 -0.5965835 0.0994454 -0.15088971 -0.009176003 -0.32279885
-1.0178113 -0.90466166 0.012274389 0.067196146 -0.0064927326 -0.11902688 0.038398214 -0.5743821
0.015274313 -0.6637546 0.0018766408 -0.05530747 -0.49576792 -0.5725102 0.14305283 -0.010152182
-0.024622234 -0.55673516 0.054211155 -0.02109619 0.14096968 0.0052241706 0.056059573 0.0048314477
-0.6419894 -0.030670205 0.14718574 0.08238771 0.056192633 -0.14777932 -0.087509476 0.00070207653
0.08510539 -0.35294995 -1.0797961 -0.006465653 -0.08285678 -0.011255284 -0.031500213 -0.04534709
-0.058976986 -0.010233244 0.101610236 0.0063896133 0.015373953 0.005376688 -0.6770905 -0.11614115
-0.24106403 -0.5349329 0.00716389 0.19621398 -0.085472725 0.14579923 -0.12894809 -0.3089721
-0.20565763 -0.19168217 -0.051711217 -0.04632086 0.13981465 -0.20856018 -0.0950573 0.053914137
-0.17252687 0.014098077 0.017737301 -0.57842827 0.012379604 0.015103754 -0.513633 -0.42890298
00000000: d153 1abf 5de7 5d3d 8217 4fbe 180a 313c
00000010: 48e9 87bd 16c4 243b d57d fbbe 6f3b 363e
00000020: 9282 57be e3de 45be c475 b53d e630 8f3d
00000030: 952e aa3c bd72 3a3d f615 2dbe 5e04 8e3e
00000040: a8a6 b73c f6b9 963a 6298 513d 112d a7bb
00000050: 58e7 ea3c fe8c df3a ddec 443b 51a6 37bf
00000060: 807b 143e 7b36 603b f1d7 d3bd 2b29 c63d
00000070: 19ed 04bd eb16 42bb 9f54 bb3d 4750 da38
00000080: b2bb 0d3d 0c08 093a 5ec2 853d 4d3d eabb
00000090: 0984 f73d d3e3 69bf c44c f93b 38c1 15bd
000000a0: 3c16 863d 0533 0ebc e737 1cbe 1101 11be
000000b0: 2483 57bd 5aa3 75be f6f1 973d f141 a83d
000000c0: 3e65 8d3b e370 5abc 903e 7e3d 2de7 0abb
000000d0: 5617 34be 8dd6 a83c a3d7 833d 02e6 0bbf
000000e0: 8e7f 23bf 1f85 4ebf 381f c83c a08e 5abf
000000f0: 65cc af3d 549d eabd b656 de3c d1b4 0abe
00000100: 347b 1f3c 05d2 c83d 4f47 4bbe d251 fa3b
00000110: b7b0 85bc 74fe 4fbd 6178 11be 730a 663c
00000120: 1411 2abf 41ed 193e fd21 933d 6537 3b3d
00000130: 027a 7bbd 9496 08bc 048c d93d 349d 3dbf
00000140: fcc2 6f3d 710e 0c3e e716 d13d e901 33be
00000150: 18c2 3f3c 3299 08bf 20df bcbb adfb bbbe
00000160: 8e45 97bd e64d b53c 1a42 e73b d642 d6bb
00000170: ba23 67be 2e30 753a 20cb a9bd f505 5e3c
00000180: ee47 ed3b 9082 9abd 38b8 953b 1937 5fbd
00000190: 5552 e9bd 0e4f febd dc5d 2a3e 8f1f 32be
000001a0: e50a 7cbd 00da 8fbc e276 02bf 42a7 8c3c
000001b0: 59be dfbd 93d1 a6bd 8e2b b13d 5043 cf3b
000001c0: 5b22 b63d 6a15 67bf cefd 5e3c aa6b 4bbd
000001d0: ade2 303d 85e0 1e3c c004 fcbd c8ce 213e
000001e0: 1ec8 a7be 06ea 51be 48cb 88bc d29f 4e3c
000001f0: 690c 61bf 1522 86bd 85b0 eabe 938b 0e3e
00000200: 04ac 3abf 4536 543b 2b33 b93a b2b9 18bf
00000210: 08aa cb3d d582 1abe f256 16bc e445 a5be
00000220: a447 82bf e897 67bf 851a 493c 229e 893d
00000230: fdc0 d4bb 5dc4 f3bd 7247 1d3d b50a 13bf
00000240: 1d41 7a3c d2eb 29bf 9ef9 f53a 168a 62bd
00000250: 4bd5 fdbe 0790 12bf 717c 123e 5655 26bc
00000260: 91b4 c9bc 3286 0ebf 840c 5e3d ebd1 acbc
00000270: 5b5a 103e 852f ab3b b99e 653d 1f51 9e3b
00000280: 6b59 24bf 1540 fbbc dcb7 163e e3ba a83d
00000290: 3f2a 663d 7653 17be 2b38 b3bd 8f0b 383a
000002a0: bc4b ae3d dbb5 b4be c236 8abf d4dd d3bb
000002b0: d1b0 a9bd 1568 38bc 5e06 01bd dfbd 39bd
000002c0: da91 71bd 56a9 27bc 0719 d03d f65f d13b
000002d0: 08e3 7b3c ee2e b03b ce55 2dbf 69db edbd
000002e0: 7dd9 76be 5df1 08bf 11bf ea3b 51ec 483e
000002f0: 530c afbd 654c 153e f80a 04be 9731 9ebe
00000300: ea97 52be 5548 44be 24cf 53bd f1ba 3dbd
00000310: 922b 0f3e cd90 55be 67ad c2bd 12d5 5c3d
00000320: e2aa 30be 9ffb 663c d14d 913c e013 14bf
00000330: d3d3 4a3c bc75 773c 747d 03bf 2c99 dbbe

1.l1.weight f4 [259, 208]
0.021594731 0.048715062 -0.41168064 0.0798376 0.13426489 0.030754918 -0.14520928 -0.019235462
-0.17861518 0.12513746 0.0047380337 0.014825357 0.09018335 0.025102077 -0.49542958 -0.107767336
-0.1680889 -0.2049765 0.0034520363 -0.059533082 0.0637496 0.14573476 0.00938641 0.018622855
0.0038229723 0.16672291 -0.018841356 -0.01583675 -0.94230014 -0.3849307 0.0054562422 0.061342917
0.09012702 -0.019441085 0.047693606 0.023608817 0.03906248 -0.2058091 0.019567369 -0.51853496
-0.045171726 0.16534829 0.062023044 -0.67049754 -0.06388903 -0.2658541 -0.023299113 0.009896461
0.32114953 -0.07137541 0.14861497 0.7231918 -0.48567632 -0.19989116 0.11387051 -0.029340915
-0.09194546 -0.17999569 0.05703377 0.0032041266 0.017397102 -1.4394208 0.16813974 0.11820723
0.0824323 0.0034876138 -0.40507388 0.022649024 -0.0018716822 -0.47348315 -0.6049306 -7.853623e-05
-0.3229465 -0.030983824 0.11403661 -0.039385475 -0.83916247 -0.025624648 0.01703424 -0.15654476
0.016105706 0.0048990003 0.08260651 -0.6459006 0.06734037 -0.16312729 0.09906672 -0.08774921
-0.35635215 0.15646219 -0.015503247 0.09979968 -0.52386475 0.15257281 -0.9280627 -0.078796424
-1.5126949e-05 -1.4433047 -0.42428055 0.14590587 -0.026625905 -0.5988424 0.033507694 -0.56545544
-2.7492163 -0.036225554 -0.099812225 -0.019506583 -0.007207601 0.016279096 0.01354036 0.012281283
-0.0137412045 -0.28457958 -0.027902206 -1.1504947 -0.026263759 0.17026916 -1.5103145 -0.013105126
-0.11476359 -0.47435704 -0.42847776 0.38421908 0.02841695 -1.0026574 -0.08957141 0.017199973
-0.029612785 -0.076598875 -0.085464254 -0.048265114 -0.027362866 -0.7098025 -0.27005094 -0.05419102
-0.034874357 0.013156796 -0.18503283 0.035979815 -0.005893395 -1.3758858 0.0724096 0.011142286
-0.010497581 -0.09442989 -0.0063690804 0.110602036 -0.055480994 0.017139278 0.004128512 0.006836009
0.3300743 -0.2207982 0.12022643 -1.1151214 0.015877984 -0.18034145 0.07523326 0.21942745
-0.12008712 -0.5049298 0.036518525 -0.024224544 0.009041478 -0.73542386 -0.04424051 0.05984223
-0.005227911 0.017778546 -0.025735294 0.366482 -0.022122968 -0.5051282 -0.01703777 -0.076627806
-0.5802839 -0.024575394 0.0023430132 0.10756178 0.017179595 0.09800431 0.014906628 0.06262888
0.021898417 -0.0136820385 0.05618122 -0.09894802 -0.8384506 0.022393145 -0.4347579 -0.09376416
-0.08437728 0.08357415 -0.44731534 0.022322135 0.024622595 -0.050768435 -1.2336391 0.0354685
-0.0060650446 -0.2857361 0.0379631 -0.14630029 0.15626472 0.17517686 -0.051183615 -0.10241558
-0.01176892 0.0530214 -0.08400974 0.03317302 -0.30220786 0.048561793 0.035178173 -0.018202316
-0.060606565 0.21691293 -0.00065776 -0.048298724 -0.013592297 0.060562138 -0.49426308 -0.017094264
0.07038682 -0.03532627 -0.08981438 0.055778414 0.012746293 0.0650955 -0.024803173 -0.0153858615
0.021369247 -0.03953755 0.010215749 -0.00319312 0.43171528 0.31665382 0.047259986 -0.03696861
0.010663172 -0.011996226 0.030100618 0.028888524 -0.016987331 -0.17867248 0.04820969 -1.0815126
0.023852171 0.11775944 -0.023485012 -0.2965201 0.20612222 -0.031588424 -0.022827579 0.020845057
00000000: 6fe7 b03c 7289 473d cec7 d2be e581 a33d
00000010: bc7c 093e bdf1 fb3c beb1 14be b093 9dbc
00000020: e6e6 36be 0924 003e 8241 9b3b 0ee6 723c
00000030: 0cb2 b83d dfa2 cd3c f2a8 fdbe 1fb5 dcbd
00000040: 7f1f 2cbe 5ce5 51be 8f3b 623b f6d8 73bd
00000050: 268f 823d 7e3b 153e 75c9 193c f58e 983c
00000060: d58a 7a3b 69b9 2a3e 3059 9abc 12bc 81bc
00000070: 953a 71bf a315 c5be 47ca b23b b642 7b3d
00000080: 8494 b83d e942 9fbc 5f5a 433d 4767 c13c
00000090: fbff 1f3d 9fbf 52be bf4b a03c b5be 04bf
000000a0: fd05 39bd 1051 293e e00b 7e3d baa5 2bbf
000000b0: 40d8 82bd 071e 88be c8dd bebc c424 223c
000000c0: b66d a43e 452d 92bd 862e 183e 1923 393f
000000d0: 91aa f8be 45b0 4cbe f134 e93d 5c5c f0bc
000000e0: e74d bcbd ca50 38be 3e9c 693d 53fc 513b
000000f0: 5e84 8e3c f13e b8bf d32c 2c3e a216 f23d
00000100: 44d2 a83d 7390 643b d865 cfbe 728a b93c
00000110: 3c53 f5ba 626c f2be bbdc 1abf d1b3 a4b8
00000120: 3e59 a5be cad1 fdbc 078c e93d aa52 21bd
00000130: 5ad3 56bf c8ea d1bc 648b 8b3c 454d 20be
00000140: 1df0 833c cb87 a03b 9a2d a93d be59 25bf
00000150: bfe9 893d d70a 27be 7ee3 ca3d dcb5 b3bd
00000160: ca73 b6be a037 203e 5501 7ebc c663 cc3d
00000170: 001c 06bf 0c3c 1c3e 8495 6dbf 0560 a1bd
00000180: c0c9 7db7 35be b8bf 4d3b d9be 5968 153e
00000190: 921e dabc bc4d 19bf 5d3f 093d b0c1 10bf
000001a0: 29f3 2fc0 3f61 14bd 5a6a ccbd 45cc 9fbc
000001b0: bd2d ecbb bd5b 853c 63d8 5d3c 6f37 493c
000001c0: ca22 61bc 6ab4 91be 2b93 e4bc 6943 93bf
000001d0: 1827 d7bc 0a5b 2e3e fc51 c1bf e2b6 56bc
000001e0: 2c09 ebbd edde f2be 7061 dbbe 5db8 c43e
000001f0: aaca e83c 1457 80bf 3771 b7bd f5e6 8c3c
00000200: 8396 f2bc dfdf 9cbd e207 afbd a4b1 45bd
00000210: 1728 e0bc 9eb5 35bf 1e44 8abe 67f7 5dbd
00000220: 6ad8 0ebd 9a8f 573c 3f79 3dbe 925f 133d
00000230: 611d c1bb 071d b0bf 7c4b 943d 228e 363c
00000240: 0cfe 2bbc 7564 c1bd b8b3 d0bb 5283 e23d
00000250: 0a40 63bd ac67 8c3c 7848 873b 9a00 e03b
00000260: 80ff a83e ec18 62be 4639 f63d 4cbc 8ebf
00000270: 8c12 823c 6eab 38be e513 9a3d 97b1 603e
00000280: 3cf0 f5bd 1443 01bf 7394 153d 8d72 c6bc
00000290: b522 143c bd44 3cbf 8935 35bd 201d 753d
000002a0: e54e abbb 50a4 913c d3d2 d2bc 87a3 bb3e
000002b0: 3a3b b5bc 1550 01bf cb92 8bbc 0aef 9cbd
000002c0: 7c8d 14bf 5652 c9bc 3d8d 193b 5a49 dc3d
000002d0: 39bc 8c3c 7cb6 c83d ee3a 743c 9243 803d
000002e0: 4f64 b33c a12a 60bc 471e 663d 42a5 cabd
000002f0: b3a4 56bf d471 b73c 9698 debe 6d07 c0bd
00000300: ffcd acbd ed28 ab3d 8406 e5be e9dc b63c
00000310: 53b5 c93c 90f2 4fbd e3e7 9dbf 6b47 113d
00000320: 48bd c6bb 014c 92be 327f 1b3d becf 15be
00000330: dc03 203e 9061 333e e9a5 51bd 42bf d1bd
00000340: 6ed2 40bc f82c 593d 4c0d acbd 6fe0 073d
00000350: fdba 9abe bbe8 463d fd16 103d 061d 95bc
00000360: 973e 78bd 6c1e 5e3e 876d 2cba e2d4 45bd
00000370: 3ab2 5ebc 0110 783d 0d10 fdbe 4509 8cbc
00000380: f726 903d 47b2 10bd 9af0 b7bd e877 643d
00000390: d4d5 503c ca50 853d 0630 cbbc fb14 7cbc
000003a0: 8f0e af3c 20f2 21bd f55f 273c aa43 51bb
000003b0: c909 dd3e 7320 a23e b093 413d 666c 17bd
000003c0: 96b4 2e3c d28b 44bc 9295 f63c a0a7 ec3c
000003d0: 0429 8bbc ebf5 36be 8677 453d 016f 8abf
000003e0: a165 c33c dc2b f13d a463 c0bc 7cd1 97be
000003f0: b411 533e dd62 01bd e700 bbbc 41c3 aa3c

1.l1.bias f4 [259]
0.18742827 0.3797476 0.28938007 0.33448994 -0.08071263 0.29038742 0.40600348 0.27230746
0.36835214 0.3688434 0.16196445 0.34173524 0.36259392 0.32511023 0.23470539 0.15956773
0.034768645 0.32443675 0.35438946 0.34109563 0.32561415 0.2896026 0.449942 0.17399351
0.33390924 0.326479 0.33615646 0.34604523 0.3090492 0.37437525 0.22760437 0.3573954
0.37682927 0.31122592 0.4696032 0.18463206 0.35252762 0.26887125 0.40730646 0.43918332
0.40824366 0.08276859 0.43287647 0.18894185 0.077612914 0.10597303 0.38627735 -0.004332379
0.25317445 0.3834297 0.27251217 0.28289092 0.31655326 0.2731283 0.42635244 0.3025871
0.19728158 0.30756947 0.36372137 -0.1670033 0.3134373 0.24679531 0.013671929 0.27855653
0.39905417 0.20216683 0.100220375 -0.0025362924 0.39722264 0.39645362 0.26060337 0.45766956
0.2550885 0.29895744 -0.07219318 0.330015 0.38923708 -0.013068321 0.09096893 0.35406205
0.11330906 0.28882533 0.30148634 0.40313107 0.40690997 0.2993212 0.39867502 0.35349372
0.28645602 0.3785394 0.3861099 0.27339685 0.27453628 -0.1545516 0.31178463 -0.1796044
0.20157345 0.07234314 0.26891994 0.29172823 0.3806874 0.05420282 0.378137 0.35243413
0.058726534 -0.0709378 0.04761557 -0.00568038 0.05755687 0.020758873 0.095253676 0.34832606
0.3123724 0.35730088 0.4359958 0.38644895 0.2535565 0.38221234 0.3957128 0.10213883
0.279515 0.16563155 0.24691147 0.27824855 0.2573116 0.26958767 0.06194668 0.06738717
0.32022896 -0.9654934 0.32099345 0.27120903 -0.14289434 0.36959946 0.28332987 0.26909348
-0.023414329 0.44540706 0.35426658 0.33961037 0.3242453 -0.13606991 0.20355861 -0.13440499
0.05568595 0.32357544 0.39236218 -0.12148666 0.41954386 -0.15099432 0.083894245 0.3423612
0.09476972 0.29339892 0.31127298 0.37034318 0.24560884 0.38743478 0.3948137 0.25789315
0.43766853 -0.12251958 0.21674938 0.39795327 0.41612944 -0.027647836 0.0021010218 0.23226307
0.08827842 0.15628046 0.305911 -0.040922344 0.15511201 0.2583519 0.36725143 0.2611791
0.44220608 0.16633809 0.3271378 -0.02106848 0.099934526 0.3075004 0.10127235 0.1514704
0.11300545 0.28230765 0.046283048 0.24497315 0.037496842 0.25178328 0.40963975 0.38329178
0.06844365 0.080219924 0.13596746 0.28140536 0.15867397 0.3069803 0.23952127 0.20357727
0.18898909 -0.07301415 0.18290217 0.28889462 0.40198523 0.2935075 0.10935107 0.34875152
0.28341886 -0.04461519 0.33156842 0.2899951 0.12057148 0.31335446 0.27616927 0.07258299
0.31870514 0.2978599 0.34599257 0.31731737 0.050610993 -0.5547693 0.3576869 0.3898598
0.3195314 0.28875345 0.33431175 0.4240226 0.27849615 0.4331999 0.32936472 0.22547406
0.19966687 0.44809693 0.3977408 0.21593639 0.1317224 0.26252484 -0.09286155 0.1866149
0.3312676 0.29918578 0.4005706 0.43950903 0.015720153 0.077351436 0.03865217 0.3727194
0.3004998 0.14221726 0.38902557 0.42551804 0.39871126 0.0039456626 0.2489655 0.045521732
00000000: 32ed 3f3e 476e c23e a029 943e 4442 ab3e
00000010: aa4c a5bd a9ad 943e b0df cf3e e26b 8b3e
00000020: a798 bc3e 0bd9 bc3e 02da 253e ecf7 ae3e
00000030: e9a5 b93e d974 a63e 9c56 703e b965 233e
00000040: 9169 0e3d 931c a63e 8972 b53e 16a4 ae3e
00000050: e6b6 a63e cb46 943e cc5e e63e 5b2b 323e
00000060: 27f6 aa3e 4128 a73e b31c ac3e d72c b13e
00000070: b23b 9e3e 1dae bf3e 1f11 693e 88fc b63e
00000080: c4ef c03e 0159 9f3e d56f f03e 3010 3d3e
00000090: 807e b43e 7ea9 893e 798a d03e a3dc e03e
000000a0: 5005 d13e 9482 a93d fca1 dd3e f979 413e
000000b0: 85f3 9e3d 6308 d93d 25c6 c53e a1f6 8dbb
000000c0: 15a0 813e e650 c43e b786 8b3e 14d7 903e
000000d0: 4513 a23e 79d7 8b3e de4a da3e b2ec 9a3e
000000e0: 2f04 4a3e bf79 9d3e b039 ba3e ea02 2bbe
000000f0: db7a a03e e9b7 7c3e 3a00 603c f69e 8e3e
00000100: d450 cc3e d204 4f3e 5740 cd3d ed37 26bb
00000110: c460 cb3e f8fb ca3e ce6d 853e aa53 ea3e
00000120: f69a 823e f310 993e 05da 93bd baf7 a83e
00000130: 154a c73e 831c 56bc eb4d ba3d 9f47 b53e
00000140: 950e e83d eae0 933e 6b5c 9a3e 3267 ce3e
00000150: 8156 d03e a140 993e 221f cc3e 21fd b43e
00000160: 5daa 923e ebcf c13e 32b0 c53e acfa 8b3e
00000170: 0590 8c3e c642 1ebe 3ca2 9f3e 37ea 37be
00000180: 4569 4e3e a428 943d e0af 893e 675d 953e
00000190: 75e9 c23e c703 5e3d 2c9b c13e 3f72 b43e
000001a0: 3c8b 703d d647 91bd 8b08 433d 7b22 babb
000001b0: c1c0 6b3d 830e aa3c 5c14 c33d cb57 b23e
000001c0: 46ef 9f3e 24f0 b63e d73a df3e a3dc c53e
000001d0: 28d2 813e 56b1 c33e de9a ca3e 2a2e d13d
000001e0: 971c 8f3e 519b 293e 5cd6 7c3e 9876 8e3e
000001f0: 59be 833e 6507 8a3e cdbb 7d3d 4902 8a3d
00000200: 0df5 a33e 932a 77bf 4159 a43e e9db 8a3e
00000210: e552 12be 243c bd3e 9d10 913e 9fc6 893e
00000220: 68cf bfbc 650c e43e 6e62 b53e 69e1 ad3e
00000230: 7b03 a63e e955 0bbe ab71 503e 76a1 09be
00000240: f316 643d aeab a53e b2e3 c83e ffcd f8bd
00000250: 74ce d63e 419e 1abe bfd0 ab3d f849 af3e
00000260: a116 c23d 6238 963e 2c5f 9f3e 9f9d bd3e
00000270: e280 7b3e da5d c63e 0525 ca3e 920a 843e
00000280: 1716 e03e 8ceb fabd 8df3 5d3e 88c0 cb3e
00000290: eb0e d53e b77d e2bc 4cb1 093b 5fd6 6d3e
000002a0: 51cb b43d fc07 203e 5ea0 9c3e 309e 27bd
000002b0: afd5 1e3e b346 843e 6108 bc3e 44b9 853e
000002c0: d668 e23e 8854 2a3e 9b7e a73e ce97 acbc
000002d0: 79aa cc3d b170 9d3e e167 cf3d 0e1b 1b3e
000002e0: 676f e73d a18a 903e 4b93 3d3d 3eda 7a3e
000002f0: 4a96 193d bde9 803e 4dbc d13e d23e c43e
00000300: 2f2c 8c3d 584a a43d 0e3b 0b3e 5d14 903e
00000310: 6e7b 223e 862c 9d3e 1045 753e 8f76 503e
00000320: 5b86 413e 7188 95bd b54a 3b3e ffe9 933e
00000330: 02d1 cd3e 9d46 963e 74f3 df3d 8f8f b23e
00000340: 471c 913e 6bbe 36bd 56c3 a93e 3d7a 943e
00000350: 2eee f63d ff6f a03e 0f66 8d3e 64a6 943d
00000360: 522d a33e 1881 983e f025 b13e 6c77 a23e
00000370: 794d 4f3d 5c05 0ebf bd22 b73e b49b c73e
00000380: 9f99 a33e 7ed7 933e e92a ab3e 7d19 d93e
00000390: 0c97 8e3e 61cc dd3e 7ea2 a83e ace2 663e
000003a0: 7975 4c3e f66c e53e afa4 cb3e 6e1e 5d3e
000003b0: 3de2 063e a869 863e 322e bebd fa17 3f3e
000003c0: e89b a93e e12e 993e 9717 cd3e 5407 e13e
000003d0: 8dc7 803c 6e6a 9e3d bd51 1e3d 14d5 be3e
000003e0: 1cdb 993e 67a1 113e 5c2e c73e 80dd d93e
000003f0: e223 cc3e 9e4a 813b d0f0 7e3e ff74 3a3d

1.l3.weight f4 [1, 259]
0.06250266 0.02978755 -0.025182305 0.047336932 -0.015456225 -0.033865396 0.030921249 -0.033389207
0.05012952 0.026253203 -0.32465547 0.04388224 0.025572646 -0.031382903 0.1761816 -0.042269506
-1.3220118 -0.02817003 0.02938876 0.074496 0.04727409 -0.034460474 0.048341516 -0.3627283
0.07496233 -0.024188915 -0.026672745 -0.026782079 -0.03646505 0.037256546 -0.019325329 0.06460365
0.046538692 -0.02726991 0.025219116 -0.1551613 0.022828639 -0.025513507 0.025319591 0.05241695
0.03122951 0.8593621 0.026828043 -0.21032944 -0.90968966 -0.833496 0.04244216 -1.7501959
0.20561564 0.03154166 -0.026526107 0.07006685 -0.023901338 0.05889903 0.027531026 -0.026235519
-0.27782223 -0.034085438 0.05290963 -0.009441855 0.059190955 -0.02472413 0.49932906 -0.025163352
0.032031685 -0.019883381 -0.49192193 -3.2643654 0.027254514 0.031426746 -0.03325889 0.023189072
-0.027133679 -0.020002732 0.018097442 -0.024449501 0.032861453 -1.8903254 0.4727403 0.049956482
-0.4297941 -0.040560883 -0.028077535 0.026674682 0.045476597 -0.032200865 0.056006458 0.028704938
-0.027588228 0.029224131 0.029190363 -0.032380305 -0.022766374 -0.03444197 -0.04101505 0.013947525
-0.023884507 -0.9641485 -0.02252055 -0.025624307 0.04759318 -0.702881 0.026407812 -0.024911221
-1.5436823 0.029735493 -1.016845 0.047697943 -0.86896366 -0.04847514 0.7078321 0.044397764
-0.022970181 0.032259837 0.044515993 0.046720907 0.14661811 0.04740858 0.02434694 -0.4309662
-0.02450291 0.08782289 0.14757231 -0.03595311 -0.020248663 -0.04411054 0.60449266 1.1331257
0.06655645 0.38842863 0.054432478 -0.022670249 -0.011136774 0.050410923 -0.036244713 0.09389829
-2.2540622 0.029550748 -0.027841916 0.05094271 0.059352215 0.044972148 -0.26876044 -0.04449517
1.6534511 -0.027046027 0.03287937 0.037700593 0.028886203 0.005819482 -0.9081738 0.041433416
0.41480416 -0.027496267 0.025151493 0.03322408 -0.02079681 0.022196677 0.042678986 -0.03174809
0.024453605 -0.019865416 -0.028490474 0.027513452 0.03986979 -0.03120971 -0.027354345 -0.098071516
0.42930183 -0.021948857 0.045275643 -0.019795261 -0.5357167 -0.029525578 0.026546175 -0.023629904
0.024961052 -0.35423747 -0.03588585 -0.041814465 -0.019217605 -0.025992451 -0.8535758 -0.15198372
0.38734642 0.15518701 -0.014345649 -0.17577167 -0.010896901 -0.027490115 0.039347813 0.027535474
-0.049918454 0.41792497 -0.42746612 -0.02441021 -0.28138638 -0.027153634 -0.021484084 -0.02302537
-0.36038995 0.0088710515 -0.18118076 -0.029548042 0.03656009 -0.024947166 -0.036077943 0.059242994
0.034310427 -0.0019415144 -0.027190315 -0.022022482 0.4680944 -0.030478152 -0.023842571 -0.9135155
0.041778807 -0.02746249 -0.028954938 -0.027931865 -1.4479942 -0.026321124 0.044802975 0.02305575
0.022319661 -0.029906074 0.056421544 0.0283089 -0.023845462 0.023558475 0.07024808 -0.34115088
-0.09700237 0.034728628 0.026136277 0.13111232 0.6039723 -0.021038933 -0.030980157 0.22684191
-0.024319664 -0.026840458 0.02750884 0.0496214 -2.1858664 1.8142585 -1.387344 0.047100734
-0.038850937 -0.31224653 0.02536188 0.028806947 0.029674832 -1.7928607 -0.024315218 -1.35738
00000000: 6501 803d 0505 f43c 1f4b cebc 5fe4 413d
00000010: 1b3c 7dbc 71b6 0abd 8f4e fd3c 1fc3 08bd
00000020: 9d54 4d3d f510 d73c 3e39 a6be ddbd 333d
00000030: ba7d d13c 5c8b 00bd f368 343e ca22 2dbd
00000040: af37 a9bf d6c4 e6bc b2c0 f03c 5c91 983d
00000050: 7aa2 413d 6d26 0dbd c101 463d 86b7 b9be
00000060: da85 993d d527 c6bc cd80 dabc 1766 dbbc
00000070: 605c 15bd 529a 183d 2750 9ebc eb4e 843d
00000080: 5b9f 3e3d 2565 dfbc 5298 ce3c 9be2 1ebe
00000090: 2003 bb3c b401 d1bc 086b cf3c 28b3 563d
000000a0: 08d5 ff3c 28ff 5b3f 7cc6 db3c 9a60 57be
000000b0: 6ce1 68bf fe5f 55bf d5d7 2d3d 6b06 e0bf
000000c0: e88c 523e d431 013d 474d d9bc 357f 8f3d
000000d0: bdcc c3bc 1c40 713d bf88 e13c dfeb d6bc
000000e0: b73e 8ebe 2c9d 0bbd c5b7 583d 03b2 1abc
000000f0: 3772 723d 428a cabc 0fa8 ff3e 6023 cebc
00000100: a833 033d 79e2 a2bc 31dd fbbe 5deb 50c0
00000110: dc44 df3c 55b9 003d 793a 08bd 02f7 bd3c
00000120: 7347 debc c5dc a3bc 1641 943c 524a c8bc
00000130: bb99 063d 2ff6 f1bf 040b f23e 2b9f 4c3d
00000140: f90d dcbe 2b23 26bd dc02 e6bc dd84 da3c
00000150: ab45 3a3d 0ee5 03bd 0767 653d 9e26 eb3c
00000160: b500 e2bc 7267 ef3c a120 ef3c 36a1 04bd
00000170: 8c80 babc 0613 0dbd 66ff 27bd 2984 643c
00000180: 71a9 c3bc 70d2 76bf 047d b8bc 11ea d1bc
00000190: 11f1 423d 02f0 33bf 3255 d83c 9e12 ccbc
000001a0: 6297 c5bf d997 f33c fa27 82bf eb5e 433d
000001b0: 6774 5ebf de8d 46bd 7c34 353f 6eda 353d
000001c0: f62b bcbc e422 043d 6756 363d 6c5e 3f3d
000001d0: 0f23 163e 802f 423d 3c73 c73c 9aa7 dcbe
000001e0: 54ba c8bc 7ddc b33d 321d 173e 9143 13bd
000001f0: 86e0 a5bc 41ad 34bd 08c0 1a3f 430a 913f
00000200: c04e 883d 1ee0 c63e 97f4 5e3d f5b6 b9bc
00000210: 0477 36bc af7b 4e3d 5675 14bd bf4d c03d
00000220: 8e42 10c0 6914 f23c bb14 e4bc 4ea9 503d
00000230: 4f1b 733d b734 383d f89a 89be 9140 36bd
00000240: 49a4 d33f a18f ddbc 85ac 063d f06b 1a3d
00000250: c2a2 ec3c 5ab1 be3b 147e 68bf 16b6 293d
00000260: 3661 d43e da3f e1bc 810a ce3c f915 083d
00000270: 125e aabc ced5 b53c 29d0 2e3d 490a 02bd
00000280: ed52 c83c ccbc a2bc db64 e9bc e463 e13c
00000290: 814e 233d 81ab ffbc 3816 e0bc b8d9 c8bd
000002a0: 73cd db3e 17ce b3bc f472 393d ac29 a2bc
000002b0: bb24 09bf a0df f1bc 5d77 d93c 8093 c1bc
000002c0: 1f7b cc3c 9d5e b5be 0bfd 12bd a545 2bbd
000002d0: 3d6e 9dbc 1fee d4bc f283 5abf 9fa1 1bbe
000002e0: 4552 c63e 58e9 1e3e 030a 6bbc 7dfd 33be
000002f0: ea88 32bc f332 e1bc 2c2b 213d 1392 e13c
00000300: 4b77 4cbd 43fa d53e d7dc dabe ecf7 c7bc
00000310: e011 90be 4c71 debc 64ff afbc b39f bcbc
00000320: 0885 b8be e357 113c 7387 39be bc0e f2bc
00000330: 08c0 153d 005e ccbc 77c6 13bd c8a8 723d
00000340: 1789 0c3d 6a7a feba 39be debc 7e68 b4bc
00000350: 12aa ef3e 51ad f9bc 7f51 c3bc 27dc 69bf
00000360: 4120 2b3d 04f9 e0bc e832 edbc 5ed1 e4bc
00000370: e057 b9bf 669f d7bc 5383 373d 6adf bc3c
00000380: b9d7 b63c 95fd f4bc 471a 673d 11e8 e73c
00000390: 8f57 c3bc b4fd c03c 3ade 8f3d 54ab aebe
000003a0: 2ea9 c6bd 9b3f 0e3d bf1b d63c 4f42 063e
000003b0: ee9d 1a3f d759 acbc 19ca fdbc 3f49 683e
000003c0: 083a c7bc 85e0 dbbc 385a e13c cf3f 4b3d
000003d0: 3ce5 0bc0 9f39 e83f 7d94 b1bf b3ec 403d
000003e0: 2922 1fbd c7de 9fbe b8c3 cf3c 8cfc eb3c
000003f0: a218 f33c 767c e5bf b530 c7bc a1be adbf
