ergoCubSN001/friction_pinn/2_rap_b4979_h10.onnx (onnx, 113217 bytes, 7 tensors)

0.weight f4 [20, 20]
00000000: 4d68 5840 0000 0000 0000 0000 0000 0000
00000010: 0000 0000 0000 0000 0000 0000 0000 0000
00000020: 0000 0000 0000 0000 0000 0000 0000 0000
00000030: 0000 0000 0000 0000 0000 0000 0000 0000
00000040: 0000 0000 0000 0000 0000 0000 0000 0000
00000050: 0000 0000 f673 5840 0000 0000 0000 0000
00000060: 0000 0000 0000 0000 0000 0000 0000 0000
00000070: 0000 0000 0000 0000 0000 0000 0000 0000
00000080: 0000 0000 0000 0000 0000 0000 0000 0000
00000090: 0000 0000 0000 0000 0000 0000 0000 0000
000000a0: 0000 0000 0000 0000 4353 5840 0000 0000
000000b0: 0000 0000 0000 0000 0000 0000 0000 0000
000000c0: 0000 0000 0000 0000 0000 0000 0000 0000
000000d0: 0000 0000 0000 0000 0000 0000 0000 0000
000000e0: 0000 0000 0000 0000 0000 0000 0000 0000
000000f0: 0000 0000 0000 0000 0000 0000 f67a 5840
00000100: 0000 0000 0000 0000 0000 0000 0000 0000
00000110: 0000 0000 0000 0000 0000 0000 0000 0000
00000120: 0000 0000 0000 0000 0000 0000 0000 0000
00000130: 0000 0000 0000 0000 0000 0000 0000 0000
00000140: 0000 0000 0000 0000 0000 0000 0000 0000
00000150: 9d76 5840 0000 0000 0000 0000 0000 0000
00000160: 0000 0000 0000 0000 0000 0000 0000 0000
00000170: 0000 0000 0000 0000 0000 0000 0000 0000
00000180: 0000 0000 0000 0000 0000 0000 0000 0000
00000190: 0000 0000 0000 0000 0000 0000 0000 0000
000001a0: 0000 0000 c087 5840 0000 0000 0000 0000
000001b0: 0000 0000 0000 0000 0000 0000 0000 0000
000001c0: 0000 0000 0000 0000 0000 0000 0000 0000
000001d0: 0000 0000 0000 0000 0000 0000 0000 0000
000001e0: 0000 0000 0000 0000 0000 0000 0000 0000
000001f0: 0000 0000 0000 0000 4055 5840 0000 0000
00000200: 0000 0000 0000 0000 0000 0000 0000 0000
00000210: 0000 0000 0000 0000 0000 0000 0000 0000
00000220: 0000 0000 0000 0000 0000 0000 0000 0000
00000230: 0000 0000 0000 0000 0000 0000 0000 0000
00000240: 0000 0000 0000 0000 0000 0000 1f33 5840
00000250: 0000 0000 0000 0000 0000 0000 0000 0000
00000260: 0000 0000 0000 0000 0000 0000 0000 0000
00000270: 0000 0000 0000 0000 0000 0000 0000 0000
00000280: 0000 0000 0000 0000 0000 0000 0000 0000
00000290: 0000 0000 0000 0000 0000 0000 0000 0000
000002a0: 0f4a 5840 0000 0000 0000 0000 0000 0000
000002b0: 0000 0000 0000 0000 0000 0000 0000 0000
000002c0: 0000 0000 0000 0000 0000 0000 0000 0000
000002d0: 0000 0000 0000 0000 0000 0000 0000 0000
000002e0: 0000 0000 0000 0000 0000 0000 0000 0000
000002f0: 0000 0000 d74f 5840 0000 0000 0000 0000
00000300: 0000 0000 0000 0000 0000 0000 0000 0000
00000310: 0000 0000 0000 0000 0000 0000 0000 0000
00000320: 0000 0000 0000 0000 0000 0000 0000 0000
00000330: 0000 0000 0000 0000 0000 0000 0000 0000
00000340: 0000 0000 0000 0000 dea3 aa43 0000 0000
00000350: 0000 0000 0000 0000 0000 0000 0000 0000
00000360: 0000 0000 0000 0000 0000 0000 0000 0000
00000370: 0000 0000 0000 0000 0000 0000 0000 0000
00000380: 0000 0000 0000 0000 0000 0000 0000 0000
00000390: 0000 0000 0000 0000 0000 0000 1794 aa43
000003a0: 0000 0000 0000 0000 0000 0000 0000 0000
000003b0: 0000 0000 0000 0000 0000 0000 0000 0000
000003c0: 0000 0000 0000 0000 0000 0000 0000 0000
000003d0: 0000 0000 0000 0000 0000 0000 0000 0000
000003e0: 0000 0000 0000 0000 0000 0000 0000 0000
000003f0: 2b88 aa43 0000 0000 0000 0000 0000 0000
3.381366 0.0 0.0 0.0 0.0 0.0 0.0 0.0
0.0 0.0 0.0 0.0 0.0 0.0 0.0 0.0
0.0 0.0 0.0 0.0 0.0 3.3820777 0.0 0.0
0.0 0.0 0.0 0.0 0.0 0.0 0.0 0.0
0.0 0.0 0.0 0.0 0.0 0.0 0.0 0.0
0.0 0.0 3.380082 0.0 0.0 0.0 0.0 0.0
0.0 0.0 0.0 0.0 0.0 0.0 0.0 0.0
0.0 0.0 0.0 0.0 0.0 0.0 0.0 3.382505
0.0 0.0 0.0 0.0 0.0 0.0 0.0 0.0
0.0 0.0 0.0 0.0 0.0 0.0 0.0 0.0
0.0 0.0 0.0 0.0 3.3822396 0.0 0.0 0.0
0.0 0.0 0.0 0.0 0.0 0.0 0.0 0.0
0.0 0.0 0.0 0.0 0.0 0.0 0.0 0.0
0.0 3.3832855 0.0 0.0 0.0 0.0 0.0 0.0
0.0 0.0 0.0 0.0 0.0 0.0 0.0 0.0
0.0 0.0 0.0 0.0 0.0 0.0 3.3802032 0.0
0.0 0.0 0.0 0.0 0.0 0.0 0.0 0.0
0.0 0.0 0.0 0.0 0.0 0.0 0.0 0.0
0.0 0.0 0.0 3.3781202 0.0 0.0 0.0 0.0
0.0 0.0 0.0 0.0 0.0 0.0 0.0 0.0
0.0 0.0 0.0 0.0 0.0 0.0 0.0 0.0
3.3795202 0.0 0.0 0.0 0.0 0.0 0.0 0.0
0.0 0.0 0.0 0.0 0.0 0.0 0.0 0.0
0.0 0.0 0.0 0.0 0.0 3.379873 0.0 0.0
0.0 0.0 0.0 0.0 0.0 0.0 0.0 0.0
0.0 0.0 0.0 0.0 0.0 0.0 0.0 0.0
0.0 0.0 341.2802 0.0 0.0 0.0 0.0 0.0
0.0 0.0 0.0 0.0 0.0 0.0 0.0 0.0
0.0 0.0 0.0 0.0 0.0 0.0 0.0 341.15695
0.0 0.0 0.0 0.0 0.0 0.0 0.0 0.0
0.0 0.0 0.0 0.0 0.0 0.0 0.0 0.0
0.0 0.0 0.0 0.0 341.0638 0.0 0.0 0.0

0.bias f4 [20]
00000000: 7e4c a6bf 885e a6bf 274d a6bf aa75 a6bf
00000010: 0e88 a6bf 969d a6bf a080 a6bf e06b a6bf
00000020: 8a92 a6bf 3e9e a6bf 3770 87bf e96f 87bf
00000030: 2f73 87bf 0079 87bf 6969 87bf eb64 87bf
00000040: 1369 87bf ec5f 87bf 684f 87bf bc44 87bf
-1.2992094 -1.2997599 -1.2992295 -1.3004658 -1.301027 -1.3016841 -1.3008003 -1.3001671
-1.301347 -1.3017042 -1.058112 -1.0581027 -1.0582026 -1.0583801 -1.0579044 -1.0577673
-1.0578941 -1.0576148 -1.0571108 -1.0567851

1.l0.weight f4 [151, 20]
00000000: 9e2c 243e 9350 da3d 454a 10bd 1af9 973d
00000010: 25c2 0cbc d201 813c 39b0 1ebd c7b1 1dbe
00000020: 5fd2 c73d 7ae8 37be ab83 fcbe a3ce 85be
00000030: b04b 33bd d01c 7b3c 4ade 7abd d95d 20bc
00000040: 6ef1 ce3d 3778 213e 87d5 8c3e 3297 a53e
00000050: ef35 ee3d e69d 103e 0cd7 e5bc f77b 3ebe
00000060: a003 113e 2605 88bc afa2 53be cc67 3e3d
00000070: 4f33 85be 65c5 b4bd b43f 8c3c e64b 5b3d
00000080: 183b a1bc 4993 543e 4d61 ae3a 08b1 8e3c
00000090: 90e5 5d3c 7322 b3ba 732f 513d e89d 80bd
000000a0: 80c4 933d 0756 7c3d 4a33 e6bd a2f6 013d
000000b0: 6a56 e23d 3fa4 973c da42 ddbd 9438 083d
000000c0: 0297 83bd 0b42 cc3d 94ea 823e 5570 d53d
000000d0: 4b84 10be 14a3 98be 9ae7 9cbe ecfc 3fbc
000000e0: 4e90 6bbd 51f6 3fbe ae61 483e 6321 b13e
000000f0: d30a b5bb 720b 383b 8826 c8bb c46f b53a
00000100: 9398 16bb 385d c73a 49f7 1ebb 1e2b 883b
00000110: 0086 fbba 457a 8c3b 46a9 12be 63e4 bfbd
00000120: 0d58 8a3e 6dd8 013e cd3a dcbc 3c60 243e
00000130: d77b f4bd d52d 39be 4827 febe cd1c c3be
00000140: ba54 96be 82c6 c33d c069 76bd 6f9c 663d
00000150: e82b 3ebd ea15 de3c 926f 5ebd 47a3 893d
00000160: 9c41 c0bd e323 353c ae9b fe3e 0935 773e
00000170: 2d1b 773e 67eb 0cbe 960d 9bbe 915e 0bbd
00000180: 1018 c6bd 8293 8ebd 8d1a e1bd e809 58bd
00000190: 55dd d1bc 308a ed3c 3556 d03c 9147 08bb
000001a0: 8d1a e33c aeaf 4cbc 942a ea3c a7e4 c03a
000001b0: a251 ca3c 7266 953c 8398 22be 4ed6 753d
000001c0: ad03 b63d 305d cdbd 869b 33be c3ed 3f3e
000001d0: f90b e9bd 0c80 1f3e e9ac 6dbe dc7d 48be
000001e0: f268 f5bd e76d 823d 96e6 903d e729 973d
000001f0: a11d e2bd 8714 e5bd b099 a13d 921a 8dbc
00000200: 6172 9b3d d3f7 78bb f211 8a3e 4d2b 8e3e
00000210: f510 c83d 06fe 02be 53ee efbd 6fed aebe
00000220: fca2 0ebe e846 9d3d 8fbf 8cbd 5ff8 243e
00000230: af02 033d 5256 d43c 381f be3d 40f4 ca3d
00000240: d1af 85be 10fb 88be 5ddd 89be de61 273d
00000250: 7ed5 043e 81b8 64be 15fc c8bd 5826 133e
00000260: 7cfb 1cbd c047 c0bd 787d 243e 32c8 ad3d
00000270: ea92 3a3e 655f 02bd 6021 ad3d 1b93 2b3e
00000280: 968a eb3d 0670 32be 2e02 b9bc bd49 0d3e
00000290: eec8 0dbd 1eb5 2a3c f943 83bd 1145 2cba
000002a0: 3946 c2bd 3bda 2e3e 96c3 ed3e 4516 1a3e
000002b0: ffb4 59be 2ecd 363d 2a77 f4bd d28b 91be
000002c0: 9134 aabe e12e fd3c 2716 613e 9183 843d
000002d0: bea0 093e c6c5 f33d 43fa e23c f4c9 693e
000002e0: 6863 3a3e e272 4a3e a69e 363e 6bb3 7dbd
000002f0: 0358 5c3c 3750 05be 7e21 5abe 1857 40be
00000300: ac06 2fbe 5ce0 813d 4555 2bbe 5764 f0bd
00000310: eb25 1bbe aff1 c7bc 030a 99bd 694a d73d
00000320: 8a0e 3e3c ce91 c13c 79e3 1dbd 72dc 783d
00000330: 5c3a a23c 9686 863c 8539 0cbe 64e8 fb3d
00000340: 4829 f6bd f305 67ba 4536 a83e 6081 a13d
00000350: d499 2ebe 2dcf 92bd 5687 adbe 7d72 5bbd
00000360: 06f5 08be ee7e 0c3e af94 99bd aa20 d63e
00000370: 6ccb d23d b96a 2dbe 6ee3 fabd a9e3 59be
00000380: 1dd8 c0bd be25 fa3d adf8 50bc 2b8c 633e
00000390: dc94 61bd d54a e6bd eeae b33e 3bb9 313e
000003a0: 7964 03be 6c2e 3bbb d036 2c3d 0b18 c7bb
000003b0: 0e98 f7bd da7c f2bd 06af 973a 32ec c03d
000003c0: 82c6 723e 9159 243e bc96 20be 9bd3 d73c
000003d0: 7962 34be 1c95 2dbe 0f77 fabd 4c0d 423e
000003e0: c0b6 dfbd a008 713e 850d 7cbe 0236 f0bd
000003f0: 5ae8 653d 7d91 2a3e e6b2 f8bd 8f8d 763e
0.16032645 0.106598996 -0.03522708 0.07420559 -0.00859121 0.015747938 -0.038742278 -0.15399848
0.09756922 -0.17959777 -0.49319205 -0.26134214 -0.043773353 0.015326694 -0.061247148 -0.009788
0.10104643 0.15768515 0.27506658 0.32341915 0.11631381 0.14122733 -0.028056644 -0.18601976
0.14161539 -0.016604017 -0.20667528 0.046485707 -0.26015708 -0.088267125 0.01712022 0.05353918
-0.019681498 0.2075931 0.0013304144 0.0174184 0.0135435015 -0.0013666883 0.05107064 -0.06280118
0.07215214 0.06160548 -0.11240251 0.031729348 0.110516384 0.018510936 -0.108037665 0.033257082
-0.06425287 0.09973534 0.25569594 0.10421816 -0.14112966 -0.2981192 -0.30645448 -0.011718016
-0.057510667 -0.18746306 0.19568512 0.34595785 -0.005524972 0.0028082994 -0.006108109 0.0013842513
-0.0022979125 0.0015210276 -0.002425628 0.0041555306 -0.0019189715 0.0042870366 -0.14322385 -0.09369733
0.27020302 0.12680216 -0.026883507 0.16052336 -0.11937683 -0.1808389 -0.49639344 -0.3810791
-0.29361516 0.09559347 -0.060159445 0.05630153 -0.04642859 0.027110059 -0.05430562 0.06720596
-0.09387514 0.011055919 0.4972815 0.24141325 0.2413146 -0.13761674 -0.30283803 -0.034025732
-0.09672558 -0.06961729 -0.10991392 -0.052743822 -0.025618235 0.028996557 0.025431732 -0.002079461
0.027722621 -0.012493057 0.028584756 0.0014716581 0.024697129 0.018237326 -0.15878491 0.06001883
0.0888742 -0.1002754 -0.17539796 0.18743043 -0.11379237 0.1557619 -0.23210491 -0.19579262
-0.11982907 0.063686185 0.07075231 0.07381039 -0.110408075 -0.11185556 0.07890642 -0.017224584
0.075901754 -0.0037989512 0.26966816 0.2776741 0.09768859 -0.12792215 -0.117153786 -0.34165522
-0.13929361 0.0767954 -0.068724744 0.16110371 0.03198498 0.025920067 0.09283298 0.09909868
-0.261107 -0.26754045 -0.269267 0.040864818 0.12972066 -0.22336008 -0.09813706 0.14370096
-0.03832577 -0.09388685 0.16063488 0.0848545 0.18220106 -0.031829257 0.084536314 0.16755335
0.115010425 -0.17425546 -0.022584047 0.1379766 -0.03461545 0.010419158 -0.06409449 -0.0006571571
-0.0948605 0.17075436 0.46438283 0.15047558 -0.21260451 0.04462927 -0.11936791 -0.28426987
-0.3324323 0.030906143 0.21981107 0.06470407 0.13440225 0.11902957 0.027707225 0.22830945
0.18201983 0.19770387 0.17833957 -0.061938684 0.013448718 -0.13018881 -0.21301839 -0.18783224
-0.17092389 0.06341621 -0.16731746 -0.11737888 -0.15151183 -0.024407236 -0.07472613 0.105122395
0.011600146 0.023629095 -0.038547013 0.060757108 0.019803219 0.016421597 -0.13693817 0.12300184
-0.120195925 -0.0008812837 0.32853904 0.078860044 -0.17050868 -0.07168422 -0.33892316 -0.05357598
-0.13374719 0.13720295 -0.07499062 0.41821796 0.10292706 -0.16935243 -0.1225041 -0.21278252
-0.0941622 0.1221423 -0.012754601 0.22221439 -0.055073604 -0.11244742 0.35094398 0.17355816
-0.12831296 -0.0028561605 0.04204446 -0.006075864 -0.12089549 -0.1184022 0.0011572547 0.09420051
0.23708537 0.16049792 -0.156825 0.026346019 -0.1761569 -0.16951412 -0.1222974 0.18950385
-0.10923529 0.23538446 -0.24614532 -0.11729051 0.05612979 0.16657062 -0.12143497 0.24077438

1.l0.bias f4 [151]
00000000: 7b0e b0be 7346 1bc0 12c8 4e3e b201 70bf
00000010: d369 d3bd 72cb 643d 6e0f 253f 594f 5bbf
00000020: 7d09 083f 2e67 17be 62f4 0a3f a24f d83d
00000030: 40f4 793e 1837 e4be e2f0 113d 284e 17be
00000040: 90bc 81bd b2e0 e7be f072 b8bc 9060 87bb
00000050: a7aa da3f 5340 973f dec9 88be 6587 2ac0
00000060: 0a2c d33c c7cf 5abf a160 52bf 10b2 153f
00000070: 6f46 3f3e d8ff 0740 651d d0bd c3ec d43e
00000080: 4ab0 d8bc 5be5 65bf 1738 14bf dd7f 113c
00000090: a034 edbe f976 c0be a7cf c43f faee 873a
000000a0: 5a11 0abe 7094 2fc0 fee4 863c 71ec 953e
000000b0: 9292 9ebe a172 5cc0 0e53 d8bd b849 16bf
000000c0: ea33 18bf 7113 323d 4b33 973f 5712 163f
000000d0: 6e5f 593e 9162 6d3d 5738 9a3d a119 e0be
000000e0: 537d e53e 5ea6 4fc0 b4ce be3f 9bb1 8f3c
000000f0: 0f35 4a3d 28c2 91bf d203 1fbe 7ccb 5abe
00000100: 8780 1cbc 870a ecbe 6313 983f 7cfe 49bf
00000110: 9847 10be 5f32 50bf 3e90 ebbe 061f 40bf
00000120: 14c3 31c0 9ae0 f43d 5542 45bf 6e67 bc3f
00000130: 8383 36c0 380e 28c0 fa73 133e 4d0e 9f3d
00000140: 3ba3 aa3e 2fc6 e33f 02da 543f af46 b03e
00000150: c420 2c3e 0f24 40c0 59d3 71bd 0ba9 8bbd
00000160: 8f8c e4be 9053 733d cbfa 253d 45a0 46bc
00000170: f5f6 073d 3647 2f3e 47d2 8fbe 7467 18c0
00000180: f8b9 46bf db6e 4bc0 a7e0 90bf 4e81 35be
00000190: ad0f ccbe 7b32 c43f 43f5 a4be c003 7d3e
000001a0: 9be9 02be df79 9abe 33b8 f13d fffa 1a3e
000001b0: 84d2 f7bf 4323 823f 0f5e 97be fff9 edbe
000001c0: 2394 433d 2438 893c 983d b73d 5620 01bf
000001d0: 8bde 053e b4fb 883e b704 32bd 3358 993e
000001e0: 9274 87bd 9ae5 943d ee2e a63e 3d67 8b3e
000001f0: 7fb6 e53d 06dc 4bc0 4077 223e b358 133d
00000200: 530a 803f b037 20c0 e9d9 65bf 9f61 a63d
00000210: 9284 debe c4ab 27c0 889b 21be 04ec 0d3e
00000220: 25c5 d53f 354f ffbe 4d64 40bd e888 063f
00000230: c1c0 803b cdbe ddbd 25da 4f3f 494a ef3f
00000240: 9179 d63c 392b d2be dc26 993d 441f 08bf
00000250: a1b5 34be 700a 333f f82d 98bc
-0.34386048 -2.4261749 0.20193508 -0.93752587 -0.10322919 0.055858083 0.6447667 -0.8566795
0.5313948 -0.14785454 0.5427915 0.10562064 0.2440958 -0.44573283 0.035630114 -0.14775908
-0.063347936 -0.45288616 -0.022515744 -0.004131384 1.7083329 1.1816505 -0.26716512 -2.6645138
0.025777835 -0.85473293 -0.82178694 0.58474827 0.18679212 2.1249905 -0.101618566 0.41586885
-0.026451249 -0.89803094 -0.57898086 0.008880583 -0.46329212 -0.3759077 1.537587 0.0010370903
-0.13483182 -2.743435 0.016466614 0.29281953 -0.309712 -3.4444964 -0.105627164 -0.58706236
-0.59454215 0.043475572 1.1812528 0.58621734 0.2122781 0.05795533 0.07530277 -0.43769553
0.44822177 -3.2445292 1.4906831 0.017540744 0.049367007 -1.1387377 -0.15528801 -0.21366686
-0.009552128 -0.46101782 1.1880916 -0.7890394 -0.14089811 -0.8132686 -0.46008486 -0.7504734
-2.7775316 0.11956902 -0.7705434 1.4719064 -2.8517768 -2.6258678 0.1439971 0.077663995
0.3332766 1.7794856 0.83145154 0.34428927 0.16809374 -3.0022008 -0.059039447 -0.06819352
-0.44638488 0.059405863 0.040522378 -0.012123172 0.0331945 0.17117009 -0.28090116 -2.3813143
-0.77627516 -3.178641 -1.1318558 -0.17725107 -0.3985571 1.5327905 -0.3221837 0.24708462
-0.12784426 -0.30171105 0.11802711 0.1513481 -1.9361119 1.0167011 -0.2956395 -0.46479794
0.047748696 0.016750403 0.08947295 -0.50439966 0.13073175 0.26754534 -0.043461528 0.29950103
-0.06614031 0.072703555 0.3245768 0.27227202 0.11216449 -3.1853042 0.15865803 0.035973262
1.0003151 -2.503399 -0.8978563 0.081240885 -0.43460518 -2.6198587 -0.15781987 0.13859564
1.6700789 -0.49865118 -0.046970654 0.5255265 0.003929228 -0.10827408 0.8119224 1.8694545
0.026181014 -0.410486 0.07478115 -0.5317271 -0.17647411 0.699378 -0.018576607

1.l1.weight f4 [160, 151]
00000000: 730f 3cbe 06f4 abbc f1cc 45bf 627c 123c
00000010: a298 36be 8806 84bc 1368 30bf 3345 c63d
00000020: ec38 22bf fba0 083c 6b3b 43bf 635f bbbc
00000030: d981 57bc 89df 39bc 14aa b73d 21ad f5bb
00000040: dfed 953b 5da4 ab3c 29aa d1bc fdec 1b3d
00000050: 0dea 273d c330 bc3d 3b52 1bbd 430a 30bd
00000060: d3c3 053d b3a8 3ebc 273d 71bc a55c 8dbd
00000070: 850e dbbe 9565 24bc 50b7 58bc 3e49 ffbe
00000080: 1f60 8abc 3a5a e33b 319f 833d 31a7 e8bb
00000090: d857 523e 8c27 943c f08d 343e f8eb 06bd
000000a0: 7551 5e3b 077a d33d 99ca 95bc 0314 22be
000000b0: 62e0 1c3e fb94 88bd 3aeb 5ebf ed09 71bc
000000c0: 2051 533b dbd3 29bd b34a 0abe f524 be3d
000000d0: a17a c03c dd15 8e3c 51da 39be 0613 063c
000000e0: c2ce f8bd 53c4 d3bd b939 623e ff71 7f3e
000000f0: c2fe d7bc ee4b 3d3e 010c 0d3f adde abbd
00000100: de79 b0bc b38b 2f3c 64a9 ad3e 6722 81ba
00000110: c28e dc3c 2e28 d1bc f661 cfbc 8139 fc3e
00000120: a34e 90bb 666f 8cbf 47e7 fd3c 80b5 713e
00000130: a4c6 9ebd 1de9 b7bd 7300 943d 3ad8 c13e
00000140: 244a 5fbf 181e 94bb bf91 e8bb 4df1 e5bd
00000150: 3bc7 40ba 72e1 9e3e 88e5 5f3c a212 9abd
00000160: 71d2 40bc 46f5 533c 3a5a 39be 617a 9fc0
00000170: 9b14 45bb 82f4 ddbd e0c4 39bb 2eb0 8bbd
00000180: 2a7c 85bc 00ca 23bd 00fd 333d 5b4a f3bc
00000190: a5f2 acbb f865 2e3d 7fcd 493c 7630 afbd
000001a0: 2f16 133c 4c22 06bb a922 523e 2703 893e
000001b0: fd82 ab3b c4a5 d43d af67 613c 2774 3dbc
000001c0: 4eab 5d3c 8049 5fb9 2c9c cfbe 5e0f 70bb
000001d0: 4509 10bd fda3 01bf 17d4 b53e 8573 b7be
000001e0: 7743 a8bf 1e30 c3bd ea3e 85bc 9906 e83d
000001f0: a600 243d 2208 6dbc 2d5a 55bd db27 3bbe
00000200: 2c59 aa3e 0aea 91bd 5903 0d3d 763a 093b
00000210: ba09 883c a7b5 783d a0e3 0f3c 5d00 16bc
00000220: 15bd d1bd 2b4e 56bc 9a6f 46bb a1a1 4abf
00000230: bae7 513c 6bb9 05bd 70a5 df3d e7f4 89bd
00000240: a339 003d 55c6 ccbf e09b eebc 2eea 7a3c
00000250: a63f 02bb 83b1 14bf d906 2abd 3f21 313f
00000260: 94a4 06be 0d39 06bf 9212 023c 7de9 283d
00000270: 52d2 19bd e60c 22bf b18e 693d 9f3a aebe
00000280: a5da f83c 84fe 37bf 1629 a4bb d4e0 a9bd
00000290: b147 d03b 3835 48bd 7a67 273d 8ad9 083d
000002a0: 0a63 153b 3071 e1bc b711 633c 0caa 4e3e
000002b0: 6df1 b1bc 2794 9a3b 542a a8bd 5571 0f3d
000002c0: 5ea8 2aba 2690 523c 78ac 883e 6942 94be
000002d0: b8f1 5c3e a4fe 24bc fa44 80bf fece a8bc
000002e0: b208 8f3a 02fe 9b3d a607 ec3c 3446 343f
000002f0: c516 09bc cf78 6cbd 5464 1ebd 2458 5d3d
00000300: b878 fabb abae 7fbd 7de0 5a3d 7a6e b0bd
00000310: d711 53bd f866 2dbf 16df af37 b2e8 1d3b
00000320: 78a1 183d fcea 503e c2af b7bd d28f 15bd
00000330: 3fde 91bd c0de 76bd b2cf 823c a342 983d
00000340: 330b 80be d3e2 c4bd 5ba7 ca3c 5a15 6bbd
00000350: d8ea cf3d 1505 f13e 92a6 833e e737 37ba
00000360: 09b0 d13c 3924 b4bd 44c1 ebbc 30e6 103d
00000370: c73a 463c 1e01 1c3d 2028 1e3f ba2d e73d
00000380: 45a5 8cbf 59b7 1fbc 988f 5f3c 30a0 90bd
00000390: 72b9 7bbd f16c ac3d e26f 1ebe b0ab a2be
000003a0: 32ae 603e 6cc4 68bd dd90 a53d 6b14 943d
000003b0: 0006 27be c07e 71bb 1fac 2bbf 10e2 2f3c
000003c0: 51cf 4dbd cb6f 0fbf 7b09 d3c0 5828 17bd
000003d0: 4b3a 41bf 524b d03d 5d6c d8bc 3785 f33b
000003e0: 82ec bfbd b78e 603d 79e5 95bb 8035 d33c
000003f0: d398 843e 25c1 a4ba 4c85 6dbd 8a65 e53c
-0.18365268 -0.020990383 -0.7726584 0.008940788 -0.17831662 -0.016116396 -0.68908805 0.096811675
-0.63368106 0.008339162 -0.7626254 -0.022872632 -0.013153517 -0.011344799 0.08967987 -0.007497445
0.0045754756 0.020952398 -0.025593834 0.038067807 0.040994693 0.09188988 -0.037920218 -0.042978536
0.032657456 -0.011636901 -0.0147240525 -0.06902436 -0.42784515 -0.010033985 -0.013227299 -0.49860567
-0.016891537 0.006938246 0.06426848 -0.007100009 0.20541322 0.018085264 0.1763227 -0.03293988
0.0033923064 0.10326009 -0.018285083 -0.15827946 0.1531997 -0.06669041 -0.8707768 -0.014711839
0.00322444 -0.041461807 -0.13505058 0.09284393 0.023495974 0.01734441 -0.18149687 0.0081832465
-0.12148811 -0.1034018 0.22092332 0.2494583 -0.026366595 0.18485996 0.5509644 -0.083920814
-0.021542486 0.010714459 0.33918297 -0.0009852172 0.026923541 -0.025531854 -0.025315266 0.49262622
-0.0044039055 -1.0971496 0.03099407 0.23604393 -0.077527314 -0.0898001 0.07226648 0.3786028
-0.87222505 -0.004520189 -0.0070974524 -0.11227665 -0.00073539064 0.31031376 0.013665564 -0.07523085
-0.011768923 0.012936896 -0.18100825 -4.983689 -0.0030072096 -0.10837652 -0.0028346106 -0.06820713
-0.016294558 -0.039987564 0.04394245 -0.029698541 -0.005277949 0.042577714 0.0123170605 -0.08554165
0.008977457 -0.002046722 0.20521034 0.26760218 0.005234121 0.1038318 0.01375763 -0.011563337
0.013529612 -0.00021294318 -0.40548837 -0.0036630253 -0.03516509 -0.5064085 0.35513374 -0.35830322
-1.3145589 -0.09530662 -0.016265351 0.113293834 0.04003968 -0.014467271 -0.05208795 -0.18276922
0.33271158 -0.071247175 0.03442702 0.0020939386 0.0166062 0.060720112 0.008782297 -0.00915536
-0.10241143 -0.01308016 -0.0030278922 -0.79152876 0.012811596 -0.03264753 0.109202266 -0.067361645
0.031304967 -1.5998026 -0.029127061 0.015314622 -0.0019874363 -0.5808336 -0.041510437 0.69191355
-0.13148719 -0.524308 0.007938998 0.041238297 -0.037554093 -0.6330093 0.057020847 -0.340291
0.030377695 -0.71872735 -0.0050097806 -0.08294836 0.0063562025 -0.04887888 0.040870167 0.033410586
0.0022794628 -0.027519792 0.013859204 0.20182055 -0.021721566 0.004717368 -0.082111984 0.03502019
-0.0006510074 0.0128517505 0.26694083 -0.28956917 0.21576583 -0.010070477 -1.002105 -0.020606514
0.0010912626 0.076168075 0.02881224 0.7041962 -0.008367245 -0.0577324 -0.0386699 0.054039136
-0.0076437853 -0.062422436 0.053436745 -0.08614822 -0.051530685 -0.6773524 2.0965508e-05 0.0024094996
0.037263364 0.2040214 -0.0896907 -0.03651411 -0.07122468 -0.060271025 0.015968177 0.07434585
-0.25008544 -0.09613576 0.024738004 -0.05739341 0.10152215 0.4707419 0.2571302 -0.0006989226
0.025596635 -0.087959714 -0.02877868 0.035375774 0.012098975 0.038087003 0.61779976 0.112880185
-1.0987936 -0.009748303 0.013645075 -0.07061803 -0.06145615 0.084192164 -0.15472367 -0.31771612
0.2194145 -0.056827947 0.08084271 0.07230457 -0.16310883 -0.003684923 -0.6705951 0.01073505
-0.05024654 -0.5602996 -6.5949073 -0.03690371 -0.75479573 0.10170616 -0.02641886 0.007431652
-0.09371282 0.054823603 -0.0045744744 0.025782347 0.25897846 -0.0012569769 -0.05798845 0.02800252

1.l1.bias f4 [160]
00000000: c2a5 0340 1464 f03f bfdf 2dbf 8b8f 0e40
00000010: ae6c 753f b9d6 853f fd8f 2240 bf4a 6f3f
00000020: 3563 0d40 0826 753f c8ed cebe 1b93 ee3f
00000030: 2c27 763f f7e8 e83f 67fb 693f a7e4 98bd
00000040: da47 ff3f cb44 953f ee28 873f 6119 debe
00000050: 8fab 713f 79ff 863f d0fd a9be 31c0 0a40
00000060: fac8 193f 25c8 8d3f f3fa f73e 7509 863f
00000070: 57c5 f13f 8143 a83e 2f79 723f 26cb 3e3f
00000080: 053a 86be 163c 173f 7163 833f 42a6 54bf
00000090: ae74 3bbe a109 98be 4c72 f03f 0efc 8d3f
000000a0: fe85 873f 8c1c 0940 449d 0540 44b1 0740
000000b0: e353 0740 46ef 373f 33be b53f 9216 513f
000000c0: 76f8 6b3f 7ea1 673f 70ff 453f a9d3 013f
000000d0: 7a94 733f 169e 693f 27f6 6c3f cf6e 6d3f
000000e0: 6791 0a40 14b3 a1bf 9839 603f 38cc 903f
000000f0: 553a fcbf 35e1 7cbe 4f52 fd3f 8611 813f
00000100: d679 923f 898d 4a3f 4a0c f6be 31ec 0240
00000110: 9725 95bf 829f 9e3f d72c 45bf 78b6 a8be
00000120: 95d6 9dbf 0cff 6e3f 84b0 803f 81b5 0040
00000130: 0e19 93bf 838c 7a3f 5bbd 713e b4de 07bf
00000140: 11f8 cd3e de90 f5bf 1f18 6b3f f433 0240
00000150: f761 d7bf 9cc6 38c0 3fa8 42be 5597 6c3c
00000160: 791c 12c0 2ed0 5e3f e268 853f 87ad 893f
00000170: 22a3 1140 03c3 753f 5b57 4dbe 66a1 b9bd
00000180: e56c 523f 9194 d53d 2ea3 fa3f 8c22 0840
00000190: 82d4 423e 7ccb 0640 320a 323f 546a 863f
000001a0: 290d 0540 f973 7f3f dc28 0440 9f85 0540
000001b0: ae44 853f 0fc5 11bb 38ec 6b3f fb42 0140
000001c0: cd69 0040 6d8d a63f 76d0 24bf 0063 793f
000001d0: 2934 18be 6aea 00bf 2195 b7bf 91b7 f93f
000001e0: f103 0d40 5ba7 683f 4cd1 893f cc06 9abd
000001f0: 32ac b0bf 8825 2c3f d5ab ad3e 9f72 b9be
00000200: 5770 e73f 5552 d6bd 442f 83be e6fe 233d
00000210: c2c8 0f40 2808 f2bf e742 75c0 ac46 893f
00000220: 5a78 c23e bf12 bfbe 8a7b 84be f45a f83f
00000230: a920 943f 2fba 0e40 52a3 0540 a88e 1440
00000240: c37b 43bf e782 f43f f37c 0040 41d2 0240
00000250: 9968 ae3c d79b 633f e6ba acbe 5aeb 6d3f
00000260: 2a40 1d3f 9c67 7ac0 e77b d4bf d2c4 e8bf
00000270: 67c7 803f 8138 02bf 0644 703f 25b5 6c3f
2.056992 1.8780541 -0.67919534 2.2275112 0.9586896 1.0456153 2.5400383 0.9347343
2.20918 0.95761156 -0.40415788 1.8638643 0.9615352 1.8196095 0.91399235 -0.07465487
1.9943802 1.1661619 1.0559366 -0.43378738 0.944024 1.0546714 -0.33201456 2.1679804
0.6007229 1.1076704 0.48433647 1.0471636 1.8888348 0.32864 0.9471616 0.7452873
-0.2621614 0.5907606 1.0264722 -0.8306619 -0.18306229 -0.29694846 1.8784881 1.1092546
1.0587766 2.1423674 2.0877237 2.1201944 2.114495 0.7184948 1.4198669 0.81675065
0.92175996 0.9048079 0.7734289 0.5071359 0.9514843 0.91256845 0.925631 0.92747205
2.1651247 -1.2632775 0.8758788 1.1312323 -1.9705302 -0.24695285 1.9790744 1.0083473
1.1443431 0.79122216 -0.4805625 2.045666 -1.1652097 1.2392428 -0.77021545 -0.32951713
-1.233111 0.9335792 1.0053868 2.0110781 -1.1492021 0.97870654 0.2360739 -0.53074193
0.40228322 -1.9184835 0.9183368 2.034421 -1.6826771 -2.8871222 -0.19009493 0.014440377
-2.2829878 0.87036407 1.0422633 1.0756081 2.2755818 0.9600069 -0.20052855 -0.090639874
0.8219741 0.104287274 1.9581048 2.1271086 0.19026378 2.1061697 0.69546807 1.0501199
2.0789282 0.99786335 2.0649939 2.0862806 1.0411584 -0.00222427 0.92157316 2.0197132
2.0064576 1.301191 -0.64380586 0.97416687 -0.14863648 -0.5035769 -1.4342386 1.9509145
2.2033656 0.90880364 1.0766997 -0.07520828 -1.380255 0.6724477 0.3392016 -0.3622026
1.8081158 -0.10464922 -0.25621998 0.040038012 2.2466283 -1.8908739 -3.8322084 1.0724692
0.37982446 -0.3731899 -0.25875503 1.9402757 1.1572467 2.2301137 2.0880933 2.321207
-0.7636072 1.9102448 2.0076263 2.0440829 0.02129011 0.8890967 -0.33736342 0.92937243
0.6142603 -3.9125738 -1.6600312 -1.8185065 1.0060853 -0.5086747 0.93853796 0.92463905

1.l3.weight f4 [1, 160]
00000000: b728 59bd 83b1 0fbd d0f1 0dbf d1e7 10be
00000010: 78c2 913d b364 453d d84c bcbe 4916 893d
00000020: 3108 19bd 107a 063e bd39 073d c062 adbc
00000030: 9d92 263f 9653 05bd dd00 b83d 50b8 0bbd
00000040: e7a0 93bd 3652 2f3e 0378 3b3e 6197 4cbd
00000050: d7aa 0f3f 402e cb3d 9a4b e53c 1d02 4cbd
00000060: 3d1d 763d fe72 e73d 9b81 0c3e e1b6 1e3e
00000070: 151c e7bc 3726 b03f 3dec 713e c9e0 9b3d
00000080: d470 143d 5281 623e e611 6b3d 8c98 33be
00000090: 0b3b 0c3b 4656 f4bf 62c8 1bbe 0ac8 a93e
000000a0: 62c0 7f3d 897b 41bd d2f7 45bd f17e 2abd
000000b0: fb00 09bd 87f6 6a3d af46 b0bc c15c cb3d
000000c0: 0fa6 363e a80a b53d f44e 07bd 64df 973d
000000d0: 34fc bc3d aa81 293f bfd1 b73d 4450 463f
000000e0: e2bb 17bd bb80 87be 1411 a53d a00a eb3e
000000f0: 919b 49be 8208 9d3c 0df8 07bd 6f2a 693d
00000100: 44af 143f 5ed8 8f3d 560b eabe 3689 50bd
00000110: 072c 2fbb b30b e23d caef 7bbf ed09 c13b
00000120: e0ff 1bbf 425a a03d 9977 833d 1dcc d2bc
00000130: 13f9 123e 8064 283f 4a30 11bd d2e8 60bf
00000140: bd1e 933f f3dd 8dbe 4c57 c83d 4ab2 35bd
00000150: c725 35bd 7020 583d b085 acbe abc0 6cbf
00000160: c9ff 6bbe dfaa 493e 0c9e a93d b608 193f
00000170: 545d 2dbd 4a6f 8e3d ca71 3bbf 72f6 ae3b
00000180: 940b 0d3e 3338 2fc0 64fe 63bd f35d 2cbd
00000190: 292b 61bf a3f7 15bd e073 673f 801a 133f
000001a0: ffc1 53bd 9292 493e 06a5 5cbd 58a7 62bd
000001b0: 2157 803d 04a4 40c0 1e15 c2bc 3498 32bd
000001c0: a2d7 45bd 3977 d63d f93d ae3b 829c a53d
000001d0: be06 78bf 2cda 083c 30ac 04be dec6 ebbc
000001e0: 35bb 16be ad34 b13d b407 2a3e 1ce5 363d
000001f0: b39f 87be 831f 9a3d 551b 213e 1537 b43d
00000200: 93ef 8ebc c6fd b9bb 3f79 72bc 4c97 1ebd
00000210: 4bee b4bc 48d0 eebe 0ed0 593d 856a f73d
00000220: a7e2 023f 8918 263d 5966 883d e4ff 2dbd
00000230: 6417 fa3d 89c1 2cbd 7f0b 6abd 8401 a0bd
00000240: 089f 1dbf 919b 12bd f803 1cbd 568c c9bc
00000250: aea0 6040 53f1 bc3d 7f07 e8bc 2d66 683d
00000260: 1641 61be 8e27 b53c 2d3f b3be aedb c8be
00000270: 35de b03d 7534 f13e cc1b 233e 6158 7f3e
-0.053017344 -0.035081398 -0.554471 -0.14150931 0.0711717 0.048191737 -0.36777377 0.06693704
-0.037361328 0.131325 0.033014048 -0.021165252 0.65067464 -0.032550417 0.0898454 -0.03411132
-0.07208424 0.17121205 0.183075 -0.049949054 0.56120056 0.09920931 0.027990151 -0.049806703
0.060086478 0.1130123 0.13721316 0.1549945 -0.028211633 1.3761662 0.23625274 0.07611234
0.036240414 0.22119644 0.057390116 -0.17538661 0.0021397497 -1.9088829 -0.15213159 0.3316043
0.06243933 -0.047236953 -0.048332043 -0.041624967 -0.0334482 0.057364013 -0.02151808 0.09929801
0.17836784 0.08839923 -0.03303428 0.07415655 0.092277914 0.66213477 0.08975553 0.77466226
-0.037044413 -0.264654 0.08059898 0.45906544 -0.1968825 0.019169096 -0.033195544 0.056925233
0.58079934 0.07023691 -0.45711774 -0.050912105 -0.0026729123 0.11037388 -0.98412764 0.005891076
-0.6093731 0.07829715 0.06419296 -0.025732094 0.14352827 0.6577835 -0.035446443 -0.87855256
1.1493756 -0.27708396 0.097822756 -0.044359483 -0.04422548 0.05276531 -0.33695745 -0.9248149
-0.23046793 0.19694088 0.08282098 0.59778917 -0.042325333 0.069548205 -0.73220503 0.005339437
0.13773948 -2.7378051 -0.055662528 -0.042081784 -0.8795648 -0.036613118 0.90411186 0.5746231
-0.05169868 0.19684818 -0.053868316 -0.055335373 0.062666185 -3.0100107 -0.02369171 -0.043602183
-0.048301347 0.10471959 0.0053174463 0.08086492 -0.9688529 0.0083527975 -0.1295631 -0.02878135
-0.14719851 0.08652625 0.16604501 0.04465209 -0.26489028 0.07525542 0.15733083 0.087995686
-0.017448222 -0.005676004 -0.014799415 -0.038718507 -0.022086283 -0.4664328 0.053176932 0.12080864
0.51127094 0.040550742 0.06660146 -0.042480364 0.12211493 -0.042176757 -0.05713987 -0.07812789
-0.6157079 -0.03579289 -0.038089722 -0.02460305 3.509807 0.092257164 -0.028323887 0.056738067
-0.21997485 0.022113588 -0.35009137 -0.39230102 0.08636133 0.47110334 0.15928572 0.24936058
