ergoCubSN001/friction_pinn/2_rap_b4907_h23.onnx (onnx, 170393 bytes, 7 tensors)

0.weight f4 [46, 46]
000000 ba e2 26 41 00 00 00 00 00 00 00 00 00 00 00 00
       10.430353 0.0 0.0 0.0
000010 00 00 00 00 00 00 00 00 00 00 00 00 00 00 00 00
       0.0 0.0 0.0 0.0
000020 00 00 00 00 00 00 00 00 00 00 00 00 00 00 00 00
       0.0 0.0 0.0 0.0
000030 00 00 00 00 00 00 00 00 00 00 00 00 00 00 00 00
       0.0 0.0 0.0 0.0
000040 00 00 00 00 00 00 00 00 00 00 00 00 00 00 00 00
       0.0 0.0 0.0 0.0
000050 00 00 00 00 00 00 00 00 00 00 00 00 00 00 00 00
       0.0 0.0 0.0 0.0
000060 00 00 00 00 00 00 00 00 00 00 00 00 00 00 00 00
       0.0 0.0 0.0 0.0
000070 00 00 00 00 00 00 00 00 00 00 00 00 00 00 00 00
       0.0 0.0 0.0 0.0
000080 00 00 00 00 00 00 00 00 00 00 00 00 00 00 00 00
       0.0 0.0 0.0 0.0
000090 00 00 00 00 00 00 00 00 00 00 00 00 00 00 00 00
       0.0 0.0 0.0 0.0
0000a0 00 00 00 00 00 00 00 00 00 00 00 00 00 00 00 00
       0.0 0.0 0.0 0.0
0000b0 00 00 00 00 00 00 00 00 00 00 00 00 ba e2 26 41
       0.0 0.0 0.0 10.430353
0000c0 00 00 00 00 00 00 00 00 00 00 00 00 00 00 00 00
       0.0 0.0 0.0 0.0
0000d0 00 00 00 00 00 00 00 00 00 00 00 00 00 00 00 00
       0.0 0.0 0.0 0.0
0000e0 00 00 00 00 00 00 00 00 00 00 00 00 00 00 00 00
       0.0 0.0 0.0 0.0
0000f0 00 00 00 00 00 00 00 00 00 00 00 00 00 00 00 00
       0.0 0.0 0.0 0.0
000100 00 00 00 00 00 00 00 00 00 00 00 00 00 00 00 00
       0.0 0.0 0.0 0.0
000110 00 00 00 00 00 00 00 00 00 00 00 00 00 00 00 00
       0.0 0.0 0.0 0.0
000120 00 00 00 00 00 00 00 00 00 00 00 00 00 00 00 00
       0.0 0.0 0.0 0.0
000130 00 00 00 00 00 00 00 00 00 00 00 00 00 00 00 00
       0.0 0.0 0.0 0.0
000140 00 00 00 00 00 00 00 00 00 00 00 00 00 00 00 00
       0.0 0.0 0.0 0.0
000150 00 00 00 00 00 00 00 00 00 00 00 00 00 00 00 00
       0.0 0.0 0.0 0.0
000160 00 00 00 00 00 00 00 00 00 00 00 00 00 00 00 00
       0.0 0.0 0.0 0.0
000170 00 00 00 00 00 00 00 00 ba e2 26 41 00 00 00 00
       0.0 0.0 10.430353 0.0
000180 00 00 00 00 00 00 00 00 00 00 00 00 00 00 00 00
       0.0 0.0 0.0 0.0
000190 00 00 00 00 00 00 00 00 00 00 00 00 00 00 00 00
       0.0 0.0 0.0 0.0
0001a0 00 00 00 00 00 00 00 00 00 00 00 00 00 00 00 00
       0.0 0.0 0.0 0.0
0001b0 00 00 00 00 00 00 00 00 00 00 00 00 00 00 00 00
       0.0 0.0 0.0 0.0
0001c0 00 00 00 00 00 00 00 00 00 00 00 00 00 00 00 00
       0.0 0.0 0.0 0.0
0001d0 00 00 00 00 00 00 00 00 00 00 00 00 00 00 00 00
       0.0 0.0 0.0 0.0
0001e0 00 00 00 00 00 00 00 00 00 00 00 00 00 00 00 00
       0.0 0.0 0.0 0.0
0001f0 00 00 00 00 00 00 00 00 00 00 00 00 00 00 00 00
       0.0 0.0 0.0 0.0
000200 00 00 00 00 00 00 00 00 00 00 00 00 00 00 00 00
       0.0 0.0 0.0 0.0
000210 00 00 00 00 00 00 00 00 00 00 00 00 00 00 00 00
       0.0 0.0 0.0 0.0
000220 00 00 00 00 00 00 00 00 00 00 00 00 00 00 00 00
       0.0 0.0 0.0 0.0
000230 00 00 00 00 ba e2 26 41 00 00 00 00 00 00 00 00
       0.0 10.430353 0.0 0.0
000240 00 00 00 00 00 00 00 00 00 00 00 00 00 00 00 00
       0.0 0.0 0.0 0.0
000250 00 00 00 00 00 00 00 00 00 00 00 00 00 00 00 00
       0.0 0.0 0.0 0.0
000260 00 00 00 00 00 00 00 00 00 00 00 00 00 00 00 00
       0.0 0.0 0.0 0.0
000270 00 00 00 00 00 00 00 00 00 00 00 00 00 00 00 00
       0.0 0.0 0.0 0.0
000280 00 00 00 00 00 00 00 00 00 00 00 00 00 00 00 00
       0.0 0.0 0.0 0.0
000290 00 00 00 00 00 00 00 00 00 00 00 00 00 00 00 00
       0.0 0.0 0.0 0.0
0002a0 00 00 00 00 00 00 00 00 00 00 00 00 00 00 00 00
       0.0 0.0 0.0 0.0
0002b0 00 00 00 00 00 00 00 00 00 00 00 00 00 00 00 00
       0.0 0.0 0.0 0.0
0002c0 00 00 00 00 00 00 00 00 00 00 00 00 00 00 00 00
       0.0 0.0 0.0 0.0
0002d0 00 00 00 00 00 00 00 00 00 00 00 00 00 00 00 00
       0.0 0.0 0.0 0.0
0002e0 00 00 00 00 00 00 00 00 00 00 00 00 00 00 00 00
       0.0 0.0 0.0 0.0
0002f0 ba e2 26 41 00 00 00 00 00 00 00 00 00 00 00 00
       10.430353 0.0 0.0 0.0
000300 00 00 00 00 00 00 00 00 00 00 00 00 00 00 00 00
       0.0 0.0 0.0 0.0
000310 00 00 00 00 00 00 00 00 00 00 00 00 00 00 00 00
       0.0 0.0 0.0 0.0
000320 00 00 00 00 00 00 00 00 00 00 00 00 00 00 00 00
       0.0 0.0 0.0 0.0
000330 00 00 00 00 00 00 00 00 00 00 00 00 00 00 00 00
       0.0 0.0 0.0 0.0
000340 00 00 00 00 00 00 00 00 00 00 00 00 00 00 00 00
       0.0 0.0 0.0 0.0
000350 00 00 00 00 00 00 00 00 00 00 00 00 00 00 00 00
       0.0 0.0 0.0 0.0
000360 00 00 00 00 00 00 00 00 00 00 00 00 00 00 00 00
       0.0 0.0 0.0 0.0
000370 00 00 00 00 00 00 00 00 00 00 00 00 00 00 00 00
       0.0 0.0 0.0 0.0
000380 00 00 00 00 00 00 00 00 00 00 00 00 00 00 00 00
       0.0 0.0 0.0 0.0
000390 00 00 00 00 00 00 00 00 00 00 00 00 00 00 00 00
       0.0 0.0 0.0 0.0
0003a0 00 00 00 00 00 00 00 00 00 00 00 00 ba e2 26 41
       0.0 0.0 0.0 10.430353
0003b0 00 00 00 00 00 00 00 00 00 00 00 00 00 00 00 00
       0.0 0.0 0.0 0.0
0003c0 00 00 00 00 00 00 00 00 00 00 00 00 00 00 00 00
       0.0 0.0 0.0 0.0
0003d0 00 00 00 00 00 00 00 00 00 00 00 00 00 00 00 00
       0.0 0.0 0.0 0.0
0003e0 00 00 00 00 00 00 00 00 00 00 00 00 00 00 00 00
       0.0 0.0 0.0 0.0
0003f0 00 00 00 00 00 00 00 00 00 00 00 00 00 00 00 00
       0.0 0.0 0.0 0.0

0.bias f4 [46]
000000 93 14 17 c0 5d fc 16 c0 3c f0 16 c0 f6 d2 16 c0
       -2.3606308 -2.359153 -2.3584127 -2.356626
000010 86 b9 16 c0 d1 ad 16 c0 0d 8b 16 c0 e3 83 16 c0
       -2.3550735 -2.354359 -2.352237 -2.3517997
000020 da 7b 16 c0 29 6a 16 c0 d6 58 16 c0 50 56 16 c0
       -2.3513093 -2.3502295 -2.349172 -2.349018
000030 8c 5d 16 c0 56 6c 16 c0 17 7a 16 c0 20 7c 16 c0
       -2.3494596 -2.3503623 -2.3512018 -2.351326
000040 ae 92 16 c0 01 98 16 c0 e6 b7 16 c0 d3 cd 16 c0
       -2.3527026 -2.3530276 -2.3549743 -2.3563125
000050 e2 db 16 c0 22 e4 16 c0 a7 ed 16 c0 fa cd ac bf
       -2.3571706 -2.3576741 -2.3582551 -1.3500359
000060 3c b5 ac bf 2a 9d ac bf 32 90 ac bf fc 7f ac bf
       -1.3492808 -1.3485463 -1.3481505 -1.3476558
000070 d0 72 ac bf 6b 4e ac bf 99 36 ac bf 93 10 ac bf
       -1.3472538 -1.3461431 -1.3454162 -1.3442558
000080 cc f5 ab bf 0f e3 ab bf c3 c6 ab bf 2a bf ab bf
       -1.3434386 -1.3428668 -1.3420032 -1.3417714
000090 6f ad ab bf a5 9b ab bf 07 93 ab bf ea 90 ab bf
       -1.3412303 -1.3406874 -1.3404244 -1.3403599
0000a0 e7 90 ab bf 57 86 ab bf 44 76 ab bf 35 70 ab bf
       -1.3403596 -1.3400372 -1.3395467 -1.3393618
0000b0 10 76 ab bf f4 66 ab bf
       -1.3395405 -1.3390794

1.l0.weight f4 [182, 46]
000000 02 27 23 3e 49 93 39 3e f6 49 85 bd ba 06 29 3d
       0.15932849 0.18122591 -0.065082476 0.04126618
000010 3e 46 08 bb 92 d2 1e 3d fd 57 c9 bd b3 cc c4 3d
       -0.002079382 0.038775034 -0.098312356 0.09609356
000020 43 67 c2 bc 43 94 a9 bd e3 a2 5c bd bc 3a 27 bd
       -0.02373088 -0.08280232 -0.05386628 -0.040827498
000030 8f 5e 80 3d da 88 c1 3d 8a 2e a5 bd de 45 98 3d
       0.062680356 0.094499305 -0.08065517 0.07435201
000040 31 f9 a4 bd 5f be aa 3b 9a e8 d3 3c da b8 a9 3d
       -0.08055342 0.0052106823 0.025867749 0.08287211
000050 d4 37 71 bd 9f 71 34 be 86 b6 d9 bc 23 6b 16 3d
       -0.058891132 -0.17621468 -0.026576292 0.036723267
000060 9c d3 57 3c e8 7f 8d 3d 47 72 b0 bd 14 05 85 3d
       0.01317301 0.06909162 -0.08615547 0.06495109
000070 d0 1f f9 3d e8 37 a9 bd 1b 81 94 bd ba f6 4d 3d
       0.12164271 -0.082626164 -0.072511874 0.050284125
000080 39 09 9e 3d 62 e5 9c bd 16 dd 15 bd 7c ef d0 3b
       0.07716603 -0.07660939 -0.036587797 0.006376205
000090 9d 9f ac 3d c9 3f 49 3d e9 f4 f2 3d 88 48 bf b9
       0.08428881 0.049133096 0.11863119 -0.000364844
0000a0 63 c6 f6 bd 0c a7 bc 3d ca 04 42 3d a7 49 40 be
       -0.12049558 0.09211549 0.04736785 -0.18778096
0000b0 67 a9 92 bd f7 a0 13 be ed 64 46 bd 76 af 90 3b
       -0.07161217 -0.14416872 -0.048436094 0.004415448
0000c0 61 01 6d bd a5 a3 d8 bc 30 f2 30 bd 64 f8 17 bd
       -0.057862643 -0.02644522 -0.043199718 -0.037102118
0000d0 67 04 41 bd d8 84 30 bd a3 43 25 bd 69 38 6f bd
       -0.04712334 -0.04309544 -0.040347707 -0.058403406
0000e0 70 77 42 bd 0e e2 31 bd c6 c8 20 bd 37 13 50 bd
       -0.047477186 -0.043428473 -0.039253972 -0.050799575
0000f0 fd 0a c2 bc eb ac 0e bd a4 20 0d bd c9 12 fe bc
       -0.02368688 -0.034832876 -0.034454957 -0.031014817
000100 dd 5f ed bc 4d 17 fe bc 11 af c8 bc 71 0a bf bc
       -0.028976375 -0.03101697 -0.02449754 -0.023320409
000110 ca ce 3e bd 54 91 35 be 7c e9 64 3d 95 44 80 bc
       -0.04658393 -0.1773122 0.05588673 -0.015657702
000120 76 c9 49 3d 49 8d 4e 3b e2 98 60 3e 1f 63 21 3d
       0.049264394 0.0031517318 0.2193332 0.03940117
000130 a9 5b b0 bd 18 4a be bd b4 a8 fe bc 2a 1f fc 3c
       -0.08611233 -0.09291476 -0.031086303 0.030776579
000140 d7 2b 61 3d 44 26 1a be 94 d7 1e bc 69 43 a6 3d
       0.05497345 -0.1505366 -0.0096949525 0.08118326
000150 10 a8 f8 bd 25 00 d3 3c 25 db 96 3d 2a af 97 3d
       -0.121414304 0.025756905 0.07366017 0.07406457
000160 cf 45 04 3e 83 6d c7 bd dd ab cf 3c d3 56 ee bd
       0.12917255 -0.097376846 0.025350505 -0.11637654
000170 9f 6e 26 3e 47 6a 0f 3e 5d 79 5c 3c 93 e0 e7 3d
       0.16253136 0.14005385 0.01345667 0.11322131
000180 21 c5 97 bc 00 3a 8a 3d 01 31 e0 3b 92 23 db 3d
       -0.018526616 0.06749344 0.006841779 0.10700144
000190 40 f9 e0 bc 11 16 d3 3d 1a 6b 0f 3d df fc 0f be
       -0.027462602 0.10306943 0.03501425 -0.14061306
0001a0 c6 6d 16 be 63 bd dc 3d 98 72 2b be 2d 1e 07 be
       -0.14690313 0.1077831 -0.16742933 -0.13195105
0001b0 c7 f0 19 bd 62 2a bb 3c 16 f2 65 3d ca 36 17 bd
       -0.03758314 0.022847358 0.056139074 -0.036917485
0001c0 a8 35 a6 bc 27 c8 52 bd ea 6f d0 bd 2c 7f 9e 3c
       -0.020289257 -0.05146041 -0.10177596 0.01934775
0001d0 57 63 2d bd 75 36 dc 3d be 12 2c bd 83 87 84 bd
       -0.042331066 0.10752574 -0.04201006 -0.06471159
0001e0 34 93 9c 3d 84 d1 e5 bd 84 ca 7b 3d e1 66 37 3d
       0.07645264 -0.112216026 0.06147243 0.044775847
0001f0 e1 9d 5d bd 07 67 ea bd 8d 4a bb bd 16 6c 88 bd
       -0.054105643 -0.11445432 -0.09145079 -0.06661241
000200 35 84 2c bd c2 d8 21 3e 28 a5 89 bd 9d e6 e0 3d
       -0.04211827 0.15805343 -0.06720954 0.10981486
000210 2c b9 b8 bc f1 11 19 3e fd 19 fa 3b e1 a9 c9 bc
       -0.022549234 0.1494825 0.0076324926 -0.024617137
000220 00 63 10 3e e0 9f 0e bd 4f ac 02 bd 59 83 98 3d
       0.14100266 -0.034820437 -0.031902608 0.074469276
000230 fa 68 7c bc a2 28 24 3d 92 45 b2 bd dc e2 fd bc
       -0.015405888 0.040077813 -0.08704676 -0.030991964
000240 81 fb 9c 3d 56 4b 32 bd c2 5a 56 3d ce 0d 79 3c
       0.07665158 -0.043528877 0.052332647 0.015201045
000250 18 63 82 bc 88 e4 9b bd c7 81 a1 3d 80 8b 86 3d
       -0.015916392 -0.07611948 0.07886081 0.06569576
000260 26 22 32 bd 67 cf f9 bc 21 ed 38 3d 16 03 bc bd
       -0.043489598 -0.030494405 0.04514802 -0.09180276
000270 2c cc 37 3d 72 3c 91 3d 8a 7b 27 bc d3 cd 28 bc
       0.044872448 0.07091607 -0.010222325 -0.010302979
000280 e0 28 ca 3c cd 5c 29 3e 4f 40 54 bd 59 50 84 3d
       0.024677694 0.16539307 -0.051819142 0.064606376
000290 16 96 6c bd a2 d7 8a 3d 82 40 e0 bd cd a0 69 bb
       -0.05776032 0.0677941 -0.10949804 -0.0035648823
0002a0 1f 5b 5a 3d d5 b7 39 3c 93 10 f8 3d c0 7a a1 bd
       0.053309556 0.011335333 0.12112536 -0.07884741
0002b0 ac 36 b2 3d 04 a4 92 bd ec 19 82 bd e2 ee 10 bd
       0.08701834 -0.0716019 -0.063526005 -0.035384066
0002c0 f9 23 0d 3d 21 fb be 3d 3f 03 e5 bc 3c 22 9d bd
       0.034458134 0.09325243 -0.02795565 -0.07672545
0002d0 ac 0e ad bd 27 b9 35 3c f6 48 65 3d 3d ff 9e bd
       -0.08450064 0.011091507 0.055977784 -0.077635266
0002e0 13 d0 d1 be d5 9a 05 3e e6 93 30 3e dc c6 ee 3d
       -0.4097906 0.13047345 0.17243919 0.11659023
0002f0 f1 50 a1 3d ed d3 cf 3c 72 06 2a 3d c7 9f fc 3c
       0.078767665 0.025369609 0.041510053 0.030837907
000300 0e 07 2f 3d 45 1f f9 bc f8 01 90 3c 2b 2a 23 bd
       0.042731337 -0.030410418 0.017579064 -0.039835136
000310 8d c3 a1 3c f0 9a 06 bc 76 81 16 bc 01 d1 28 bd
       0.019746566 -0.008215651 -0.009186139 -0.041214947
000320 6c 36 15 bd 44 37 22 bc b8 7b b3 3c 86 b3 11 3c
       -0.036428854 -0.009900872 0.02190958 0.008892899
000330 f6 50 82 bd 7e 77 c8 bc 24 7e 69 bd aa 63 be bd
       -0.06363098 -0.02447104 -0.057005063 -0.09296353
000340 1c 00 d8 3d c6 94 05 3e 20 74 19 bd ba db 5f 3c
       0.10546896 0.13045034 -0.03746426 0.013663227
000350 c6 db f3 3d 8c 22 13 3e 7a 95 11 bb 98 0e 12 be
       0.11907153 0.14368647 -0.002221434 -0.1426338
000360 e2 da fe bd bf 63 9e 3d 1d b9 04 bd 00 3d 71 3d
       -0.12444092 0.07733869 -0.0324031 0.058896065
000370 11 60 a5 bd 30 5f 2f 3d 01 ab 1b 3d e8 ee 07 3d
       -0.08074964 0.042815387 0.03800488 0.033186823
000380 aa 02 a3 3d e9 b7 a8 3d 43 9f 10 3e c0 8d c3 3d
       0.079594925 0.08238203 0.14123254 0.09548521
000390 c9 d5 e8 bd 9b 40 fc bd 83 93 0a 3d ec b1 84 bc
       -0.11368901 -0.1231701 0.033832084 -0.016198121
0003a0 27 b9 c1 3c 3c 71 88 bc c2 15 ea bd fb 1a 93 bd
       0.023647858 -0.016655557 -0.11429931 -0.071828805
0003b0 74 49 77 3c 55 7c e1 3b a2 04 16 bc 89 f3 db 3d
       0.015093196 0.0068812766 -0.009156378 0.1073981
0003c0 63 60 28 3c 6a 69 2e 3c 9e d4 6a 3d 20 5f 1a 3b
       0.010276887 0.01064525 0.057331674 0.0023555234
0003d0 a4 1f d7 3c cb 25 0c 3d 56 a5 2d 3d 28 64 67 3d
       0.026260205 0.03421573 0.042394005 0.056492
0003e0 fd f0 73 b9 c8 af 3e 3d 0a 8f 23 3d 84 8c 92 bc
       -0.00023264061 0.046554357 0.039931335 -0.017889269
0003f0 2e 42 a0 3d 37 aa fe 3d 88 11 25 bd 83 ed 23 3e
       0.07825123 0.1243481 -0.040299922 0.16008572

1.l0.bias f4 [182]
000000 81 a1 b1 bd 24 ed 91 bf a4 03 88 bd 91 08 06 40
       -0.086733826 -1.1400495 -0.066413194 2.0942729
000010 56 c2 3d 3c d2 78 a2 3e a6 ea f9 bc 66 2b cf 3e
       0.011581978 0.31732804 -0.030507397 0.40462798
000020 26 2b fc 40 4c d4 d8 c0 3d f6 59 40 02 36 b0 3f
       7.880267 -6.775915 3.4056542 1.3766482
000030 ee 20 b1 be 42 f5 ed be 3a 8c c5 c0 a3 9f ea c0
       -0.34595436 -0.4647618 -6.1733675 -7.331987
000040 50 ec 7d bf ca 52 1b 3e 48 70 8f 3d ab cf 10 3f
       -0.9918871 0.151683 0.07003838 0.56566876
000050 a4 e4 3d be 4d 72 a3 3e 97 25 b4 3f 8d 8a 55 c0
       -0.1854425 0.31923142 1.4073972 -3.3365815
000060 8a 15 a2 bf 54 1b 3d be a7 a5 28 3f f0 67 18 be
       -1.2662823 -0.18467456 0.65877765 -0.14883399
000070 d4 44 88 be 58 ef 95 3e 89 d2 0e be 2e 77 b5 3f
       -0.26615012 0.29284167 -0.139475 1.4176996
000080 f5 bf f1 40 24 af f1 3f e4 4a ca be 73 5d 0c 3e
       7.5546823 1.8881574 -0.39510262 0.13707523
000090 59 64 cf 3e c2 a0 8a 3e 14 1e 07 40 c3 f1 8f be
       0.40506247 0.27075773 2.1112108 -0.28114137
0000a0 a1 fd f1 3d b9 36 b1 be 56 f1 ff c0 eb b7 71 c0
       0.11815954 -0.34612063 -7.99821 -3.7768505
0000b0 77 ee 6c c0 60 b0 b1 3f 43 b7 2f 3f 27 be c3 bf
       -3.7020547 1.388195 0.6863901 -1.5292405
0000c0 be 97 cf bf 9c 88 27 c0 41 b9 b8 3e b8 75 ff 40
       -1.6218183 -2.617713 0.36078838 7.98312
0000d0 c6 6a ab 3f a6 0c aa 3f a1 99 d8 bf 3f 06 e1 3d
       1.339196 1.328511 -1.6921884 0.109875195
0000e0 6c 82 49 bf 7c 8f 3c bd 24 fe d1 be a6 f8 02 41
       -0.78714633 -0.046035275 -0.41014206 8.185705
0000f0 d9 86 3a be 89 09 37 c0 5d 77 0e bf 30 f7 96 40
       -0.18215503 -2.859957 -0.55650884 4.7176743
000100 70 17 b3 3f 77 16 61 bf a0 c9 00 41 2b bc af 3d
       1.3991528 -0.87924904 8.049225 0.08580812
000110 86 7d 8e be 2e 9e 6e 3d 24 12 24 c1 06 cb ad 3e
       -0.27830142 0.05825632 -10.254429 0.33943957
000120 3b 63 2f bd df 21 82 3f e1 fb 8d c0 64 ab 9d bf
       -0.042819243 1.0166587 -4.436997 -1.2317929
000130 94 3b b4 3f e8 c6 80 3f 73 7c 9f bd 62 50 9c be
       1.4080682 1.0060701 -0.07787409 -0.30530077
000140 e8 97 b5 be 8e 34 49 be 89 77 73 3f fe 89 eb 3c
       -0.35467458 -0.19648954 0.9510427 0.028752323
000150 c7 14 0c 40 7e 96 53 be e7 e4 10 be 9b a9 a9 3f
       2.1887681 -0.20662877 -0.1414982 1.3254884
000160 26 8b db bf d2 e0 8c bc b1 de 84 be 63 b7 00 41
       -1.715184 -0.017197046 -0.2595115 8.044772
000170 f2 09 c3 bf 5b 61 bd 3f c3 50 3d 3f 68 ee a4 3f
       -1.523741 1.4795336 0.7395136 1.2885256
000180 0d 5f 8b bf f8 85 db 3f 9b c9 1a bc 2b 21 27 c0
       -1.0888382 1.7150259 -0.009447481 -2.6113994
000190 17 0e 10 3d 76 d2 ea 40 f2 7b b2 bf c0 f0 be bf
       0.035169687 7.338191 -1.3944075 -1.4917221
0001a0 d2 bc 8d bf 4e aa 32 40 30 2e 84 3d 7d 52 b7 be
       -1.1073248 2.7916446 0.06454122 -0.3580512
0001b0 4c ad b9 bf 8d 10 e8 3e 08 97 b2 c0 ac e8 00 41
       -1.4506011 0.45325127 -5.5809364 8.056805
0001c0 f9 c2 ea be 9f 8a b1 bf f6 5f 82 bc 6a 69 0b 40
       -0.45851877 -1.3870429 -0.015914898 2.178309
0001d0 54 d0 82 bf 75 8d b3 3f af 76 27 c1 d2 1d 04 3e
       -1.0219827 1.4027544 -10.4664755 0.12902
0001e0 c1 4f 82 c0 1b af 2c be d1 66 b7 bf 10 e1 04 41
       -4.0722356 -0.16863672 -1.4328252 8.304947
0001f0 cf 3c f2 be 65 35 fe 40 b4 41 71 3d f1 bb 0e bf
       -0.47312018 7.944018 0.05890055 -0.55755526
000200 70 86 81 3f 1b d7 db c0 70 e7 6a be f2 12 c4 bf
       1.0119152 -6.870008 -0.22939849 -1.5318282
000210 83 42 45 bf 6e 66 de be 96 7e 52 c0 98 ab 11 bf
       -0.77054614 -0.43437523 -3.2889762 -0.56902456
000220 99 f7 d7 3f f1 c0 8e bf 90 48 fc c0 cc ba 49 bf
       1.6872436 -1.1152631 -7.8838577 -0.78800654
000230 bf d1 1c 3f 72 a2 b5 3f 67 e6 3b be 92 a2 5a be
       0.6125755 1.4190199 -0.1834961 -0.21351078
000240 04 1c f9 be 77 50 58 3f 06 a4 5e bf 02 3c 8e bf
       -0.48654187 0.8449778 -0.8696903 -1.1112063
000250 5c 73 f6 40 d1 29 89 3e 51 03 07 41 80 51 57 3f
       7.701582 0.26789716 8.43831 0.84108734
000260 70 aa 41 3e 55 ca 94 3f 45 6c 9d bf 5f bc 34 3f
       0.18912673 1.1624247 -1.2298666 0.7059993
000270 a8 83 1c be b6 69 bc 3f 79 a2 8f bf e3 2c 56 3d
       -0.15284598 1.471976 -1.1221458 0.0522889
000280 65 c0 0a 41 41 88 f4 40 df b0 03 3f fd cf b0 bb
       8.671971 7.6416326 0.5144176 -0.005395888
000290 1a d5 8c 3f c4 30 8a be 1e a3 e9 3e f2 47 13 bf
       1.1002533 -0.2699033 0.4563226 -0.57531655
0002a0 c3 cc 30 3e 1c 5f e7 40 d1 92 23 c0 3a 14 bc 3f
       0.1726561 7.23036 -2.555836 1.4693673
0002b0 2f 26 1c be 3f 9f b3 3d df 61 e8 bf ae 79 31 be
       -0.15248941 0.08770608 -1.8154868 -0.17331573
0002c0 83 15 33 3d 3e 09 53 3f 45 6c 5a bf 2f cf 66 bf
       0.043721687 0.8243598 -0.85321456 -0.9015989
0002d0 60 06 0a 3f e9 7a 0f be
       0.5391598 -0.1401173

1.l1.weight f4 [172, 182]
000000 51 5e 2b 3d 55 9b 9d be 31 96 5a 3c 1c 56 42 bc
       0.041837994 -0.3078257 0.0133414725 -0.01186135
000010 01 a7 96 bb 0b cb 5c bb 0c 80 ba 3c f2 c1 1f be
       -0.004597545 -0.003369036 0.022766136 -0.15601328
000020 17 55 10 be 96 01 38 3e df 56 0a 3e 99 da 55 bb
       -0.14094959 0.17969355 0.13509701 -0.0032631515
000030 09 85 8c 3e 3d af 0b 3d cc 40 c1 ba d1 3f 92 bd
       0.27445248 0.034102667 -0.0014744042 -0.07141078
000040 74 57 28 bb 3e 37 c8 bd 5e 4b 1a bc b9 f6 a7 bf
       -0.0025686892 -0.097761616 -0.009417383 -1.3122169
000050 dd 0d a8 b9 bd 22 92 bd fe ae 33 bc 1f 5e 4b be
       -0.00032053786 -0.07135532 -0.010967014 -0.19860123
000060 b5 5b 06 3e 09 9e 07 bc 49 cb 47 3d f2 34 50 3e
       0.13120921 -0.008277425 0.048777852 0.20332697
000070 d7 8a 10 bd a8 fa 12 c0 eb ad 66 3b 3e bd 9f 3b
       -0.035288658 -2.2965488 0.0035198878 0.0048748543
000080 ed 9f 0a 3e 2a d8 eb 3c 9c 33 9d bb d6 de c1 ba
       0.1353757 0.028789598 -0.004797412 -0.0014791142
000090 c7 d9 bc 3d ff b7 03 3e ea b5 21 ba 4e dc b1 bb
       0.09221225 0.12863158 -0.000616877 -0.0054278737
0000a0 81 e4 80 3e 58 ed 33 3b 1c d1 a3 bb 41 78 d2 bb
       0.25174335 0.00274547 -0.004999293 -0.006423027
0000b0 18 ea 4c 3e 9e 26 a2 bb c5 79 25 3c 2d 84 22 3e
       0.20011175 -0.004948451 0.010099833 0.15870734
0000c0 81 0b 53 3e 73 d3 98 3b d6 4e 25 bc 49 c9 a7 bc
       0.20609857 0.0046638786 -0.010089597 -0.020481722
0000d0 c7 8b 9a bb 8c bb 1b 3c da d1 21 3e 57 b2 9e ba
       -0.00471637 0.009505164 0.15802708 -0.0012107593
0000e0 41 5d db bf 08 29 39 3e 9f cb 4c 3b 1e e7 8a 3d
       -1.7137834 0.18082058 0.0031249297 0.06782363
0000f0 04 e3 75 3b 41 10 11 3f 95 e1 c5 be 64 82 92 3d
       0.0037519345 0.56665426 -0.38648668 0.07153776
000100 16 70 c9 3c 3a 06 86 be 14 83 03 3e 7f 99 7f bc
       0.02458958 -0.26176625 0.12842971 -0.015600561
000110 fe eb 66 3d 0c d5 a8 3d de e2 0c be 01 5e 8a bc
       0.056377403 0.082437605 -0.13758418 -0.016890528
000120 6e 87 b9 bf ca 09 d2 b9 db 5c 19 ba 89 0d d8 3d
       -1.4494455 -0.00040061615 -0.00058503234 0.105494566
000130 71 bd f6 ba ef fc 2a bb 7f 63 38 bb 24 63 27 be
       -0.0018824768 -0.0026090702 -0.0028135476 -0.16346413
000140 20 03 35 b9 83 99 f1 bb 7f f9 ef bc cd eb ad bc
       -0.0001726267 -0.0073730364 -0.029293774 -0.021230603
000150 c4 37 bc ba ae 2b 88 bc 44 a4 48 bc 93 ca 73 b9
       -0.0014359881 -0.01662239 -0.012246195 -0.0002324975
000160 fc c4 82 3d ab 1a 80 3b 23 88 9c 38 e0 2d 2d bd
       0.06385228 0.003909429 7.464017e-05 -0.042280078
000170 d8 8a f7 bf fc ae 3e bb 99 19 70 3c 04 bf 64 3c
       -1.9339247 -0.0029095998 0.01465454 0.013961557
000180 3a 09 99 bd c6 69 a9 be 0a 36 77 3d ff 6b c4 3d
       -0.07472463 -0.3308851 0.06035427 0.09590911
000190 59 c1 81 bd 25 17 c4 3d da 20 13 3f 8d 0c 62 3e
       -0.06335706 0.09574727 0.57472 0.220751
0001a0 74 c6 1e bb 8d e1 06 3d bc b3 b9 3b b3 0f 33 3b
       -0.0024227174 0.032929946 0.005667178 0.002732259
0001b0 78 f9 0e 3c 0c 38 e6 bf f4 2f 1f bd b1 cb 2b 3d
       0.00872647 -1.7985854 -0.03886409 0.041942302
0001c0 26 cd 3e bc 3a b5 69 c1 ea 88 21 bc b5 b9 70 3c
       -0.011645591 -14.606745 -0.009859303 0.0146927135
0001d0 03 f4 84 bf d7 7f d5 bc 6b 3e 54 be 6e 96 e0 bc
       -1.0386966 -0.026061935 -0.20726936 -0.02741548
0001e0 b4 15 24 bd 96 68 89 bf 6c 8b 7f c1 3a 96 20 3d
       -0.04005976 -1.0735042 -15.971539 0.039205767
0001f0 57 81 16 bc 83 08 5d 3b e2 ff 9f 3c f9 67 ae ba
       -0.00918611 0.0033726997 0.019531194 -0.0013306133
000200 c7 c3 87 be d6 e8 46 39 c8 4e 2d 3c f2 ea 7d c1
       -0.26516554 0.0001896949 0.010577865 -15.86986
000210 ee 79 37 c0 89 89 29 3c 4a d7 36 3e 98 1a 25 bc
       -2.866817 0.010347732 0.17855564 -0.010077141
000220 ec ea 17 3e 8d 3e ca bf 25 2d 1d bd 36 84 8c c0
       0.1483571 -1.5800339 -0.03837313 -4.391139
000230 eb 4a 88 3b ff e5 62 bb a8 3b 1a 3a c7 7b 09 c0
       0.0041593215 -0.0034621952 0.0005883523 -2.1481798
000240 9d 32 90 bc a6 15 77 3e fa f6 12 c0 e8 c7 97 bf
       -0.01760226 0.24129352 -2.2963243 -1.1857882
000250 a6 36 00 be a9 ab 97 bb 6b 7a 09 bd 98 5e 8a 39
       -0.12520847 -0.004628618 -0.033564012 0.0002639189
000260 f6 6f 62 3e 4d 87 40 bb f7 fa 8a 3a 53 db d2 3c
       0.22113022 -0.002937752 0.0010603358 0.025739348
000270 3d 8a 19 bc 44 09 93 ba 0f ad 47 c0 65 1c 2a b9
       -0.0093713375 -0.0011217971 -3.1199377 -0.00016223041
000280 c9 bf a3 bd 0a f1 09 3d b4 ae aa bf c2 fb d0 3d
       -0.079955645 0.03367714 -1.3334565 0.10204269
000290 a4 65 b1 bb 13 f2 ac 3c f3 62 b7 be 6c 2c 6f bf
       -0.005413728 0.021111524 -0.3581768 -0.9342716
0002a0 04 46 06 bb 95 2e 0a 3f ef 4e 6f bc 2c 98 d3 be
       -0.002048851 0.5397733 -0.014606222 -0.41327035
0002b0 17 d3 c9 bb b4 20 3b bf 12 82 2f 3d 0d 67 d1 bb
       -0.006159197 -0.73096776 0.042848654 -0.0063904584
0002c0 98 14 a8 bc c4 45 33 3b e0 87 5f 3d f1 3b 7e bc
       -0.020517632 0.0027354816 0.05457294 -0.015517221
0002d0 1b 59 c1 bf 83 c6 93 3e 96 b9 09 bb 8b 92 6a 3d
       -1.5105318 0.2886239 -0.002101516 0.05726866
0002e0 29 44 1f bd 11 d4 df 3b 71 6c 9c bd 69 35 78 3d
       -0.038883362 0.0068307 -0.07637871 0.06059781
0002f0 40 88 c5 ba 8e 46 89 3c 9f 7e d0 b8 29 e8 49 bb
       -0.0015070513 0.016757276 -9.941798e-05 -0.0030808544
000300 80 3a 69 ba 65 53 52 3c a8 f8 f0 bc 5d 13 ed bd
       -0.0008896962 0.012837266 -0.029415444 -0.11575959
000310 a7 75 7c bd fb 5c 2f bd 3c 9a 61 bd 9a b4 87 bc
       -0.06163564 -0.042813282 -0.05507873 -0.01656561
000320 71 fb 29 3d 74 b0 32 3d 0c bb 9e bc 1b 19 f2 3a
       0.04149956 0.04362531 -0.0193763 0.0018470617
000330 33 15 74 3c 95 64 e6 be c5 69 a9 bd 03 6c 62 bc
       0.014897632 -0.44998613 -0.08272127 -0.013819697
000340 64 d0 88 bb a7 a5 47 bd 1e 73 5b be 48 cd 83 3d
       -0.0041752327 -0.048741963 -0.21430632 0.06435639
000350 61 12 f2 3d ac 10 bf 3b 40 5f 3a 3b a8 22 8d 3b
       0.11819912 0.005830845 0.002843812 0.00430711
000360 47 b4 0e be 3c 5e a3 3d cc 97 13 bd 63 03 43 38
       -0.13935958 0.07976958 -0.036033437 4.6494777e-05
000370 09 56 a0 bc be f2 1f be 9d d8 5e bd c4 d4 5a bd
       -0.019572275 -0.15619943 -0.054405797 -0.053425565
000380 15 c7 a0 bd f1 2e d3 be 82 86 c9 be cb 0e c1 3c
       -0.07850472 -0.4124675 -0.39360434 0.023566624
000390 82 bb 2b 3c e0 43 ac be cc 8d d3 3e cc 4e 05 bf
       0.010481717 -0.33645535 0.4131912 -0.5207336
0003a0 23 3d 07 3d b6 14 8e b9 33 9f 3f 3c e1 65 ce 3b
       0.03301729 -0.0002709978 0.011695671 0.006298766
0003b0 28 eb 71 bf 3d 26 68 ba 20 1f 6a bd 84 31 b9 3b
       -0.94499445 -0.00088557956 -0.05715859 0.0056516547
0003c0 07 73 b5 bd 47 0f 6b b9 28 91 32 bd 19 12 a6 c0
       -0.0885983 -0.00022417038 -0.043595463 -5.189709
0003d0 ed 65 b4 bd 74 3e 47 bb 5f 8a bf 3b aa 6b ab be
       -0.08808503 -0.0030402215 0.0058453525 -0.3348058
0003e0 cb 47 b3 ba 9a 68 1c 3d 02 ab 52 3c 8d 20 34 3d
       -0.0013678012 0.038185693 0.012858154 0.043976355
0003f0 86 8d 36 be 04 67 b1 bc 9d 75 7e 3d bf d1 af 3b
       -0.17827424 -0.021655567 0.062123884 0.00536558

1.l1.bias f4 [172]
000000 5b 73 f3 40 d2 46 e5 3c 08 47 ee 3e 83 eb 84 40
       7.6078315 0.027987871 0.46538568 4.153749
000010 d4 f7 fa 40 d8 51 2d 3f 01 d2 e1 3e 26 83 c0 40
       7.8427525 0.6770301 0.44105533 6.0160093
000020 0d 3e 06 40 6f fd 75 3f 40 c1 22 3f 83 b6 36 bf
       2.0975373 0.96089834 0.63576126 -0.7137224
000030 9c 25 6e 40 e1 c8 e4 40 3a 6b c7 40 93 b5 4e 3f
       3.7210455 7.1495214 6.231839 0.8074581
000040 a1 3b 9f bf b9 24 8b 40 e0 63 cd 40 09 6a c0 40
       -1.2440072 4.3482327 6.418442 6.0129437
000050 dd 64 8a 40 27 0e f6 40 a7 64 1c 40 09 f3 4d bf
       4.3248124 7.6892276 2.4436433 -0.8044897
000060 fb 98 3e bd 7e 2d e0 40 88 8d 01 3f b9 41 d9 be
       -0.046532612 7.0055532 0.50606585 -0.42432955
000070 19 50 6a be 7f 8e b2 40 22 a1 56 bf f2 90 b2 40
       -0.22882117 5.5798945 -0.8383962 5.5801935
000080 7f e8 18 be 93 e5 95 be 80 33 c3 3e 48 9d bf 40
       -0.1493244 -0.29276714 0.3812523 5.9879494
000090 21 4a a5 40 52 aa ac bd c9 2e af c0 58 39 ef 40
       5.165299 -0.084309235 -5.474461 7.47575
0000a0 61 1e 9f 3f 94 ec 86 bf 58 b6 58 3f 6c c6 6f bc
       1.2431146 -1.0540948 0.84653234 -0.01463471
0000b0 c4 bb b5 40 78 dc d5 3d 29 99 44 bf 37 36 15 be
       5.6791706 0.10442442 -0.76796204 -0.14571463
0000c0 f1 a2 9c 40 3b c2 2f be 87 c3 e6 40 36 c9 0d 3f
       4.8948903 -0.17163937 7.211368 0.5538515
0000d0 ac 43 65 be 17 f0 d9 40 a5 ac 65 40 30 46 14 40
       -0.22389096 6.810558 3.5886624 2.316784
0000e0 bb 9e 95 40 24 80 89 3f 74 1d dd 3e a4 09 af 3e
       4.6756263 1.074223 0.43186533 0.34187043
0000f0 b4 4a b8 3f 5d 13 cb 3f bb 15 b4 be dd ff 54 40
       1.4397798 1.5865284 -0.3517283 3.3281167
000100 83 1c 95 40 a1 c7 ac bf d9 9b 50 40 13 fc c6 40
       4.6597304 -1.3498422 3.2595122 6.218271
000110 e3 57 f2 40 4a 8b d8 40 20 ac 00 41 fa e7 97 bf
       7.5732284 6.767003 8.042023 -1.1867669
000120 21 57 17 3d 9a 25 e2 3c d1 56 15 3e 12 77 0b 40
       0.036948327 0.02760582 0.14583899 2.1791425
000130 3c 38 d1 bf cb 53 28 bf 59 ff d6 40 42 fd de 40
       -1.6345286 -0.6575286 6.7186704 6.9684153
000140 b2 b6 89 40 da 19 de 40 1e 12 b8 3e bc a9 e0 40
       4.3035517 6.9406557 0.35951322 7.0207195
000150 09 39 1c bd 0d 71 e5 40 b0 fa 1a 3e f6 24 af bd
       -0.03814033 7.17005 0.15134692 -0.085519716
000160 29 87 63 40 1d c9 9b 3e d1 65 f5 bd 4b ab b3 3e
       3.5551245 0.30426875 -0.119823106 0.35091624
000170 59 88 89 40 03 b1 b6 3d 4a 63 83 3e ad a9 c0 bf
       4.297894 0.08920481 0.2566169 -1.5051781
000180 fa 5c 94 40 6d 84 ac 3e dd 4b 42 3c ea c8 6d bd
       4.6363497 0.33694783 0.0118589075 -0.058052935
000190 b3 06 8b 40 a3 64 b7 40 01 98 e2 40 65 71 11 3e
       4.344568 5.7310348 7.081055 0.14203413
0001a0 33 e1 9c 40 56 1e ef 40 92 29 80 c0 e5 b8 80 bf
       4.90249 7.472453 -4.0050745 -1.0056425
0001b0 a7 32 29 3f 8c 61 d7 be ab e1 cb 40 b2 be cc 40
       0.66092914 -0.4206661 6.3712974 6.398278
0001c0 f4 a5 dd 40 49 31 34 3f 85 65 f2 40 43 b0 b3 3e
       6.926508 0.70387703 7.5748925 0.35095415
0001d0 1c bc ba 3a cb 2a b4 3f 41 4a b8 40 c0 80 01 3d
       0.0014246735 1.4075559 5.759064 0.031616926
0001e0 60 6a 40 c0 2e 46 14 c0 45 12 cf 40 69 46 ab 40
       -3.0064926 -2.3167834 6.47098 5.352345
0001f0 dd 56 c9 40 8c 90 25 c0 1b 48 a0 40 97 3c e3 40
       6.2918534 -2.5869474 5.008802 7.101146
000200 cc ad e7 3d 3f 45 48 3e de fc 93 40 28 b5 2e 3f
       0.11312446 0.19557665 4.6246176 0.6824517
000210 51 11 55 3f 2a c0 96 40 09 32 c9 40 75 a9 45 40
       0.8322955 4.7109575 6.287358 3.0884678
000220 52 19 52 3f 9d 18 ee be 51 15 2b 3f a1 c6 a0 40
       0.82069886 -0.46503153 0.668294 5.0242467
000230 ea 95 27 be 4c ea 48 40 7c 14 bb 3e 17 1a 57 be
       -0.16365781 3.1393003 0.36539066 -0.21006046
000240 34 3f b4 40 cf 14 d7 40 1e 3d 94 be 61 47 6c 40
       5.632715 6.72129 -0.2895288 3.6918566
000250 cf 51 91 bf ca db a5 40 88 40 74 40 05 02 61 40
       -1.1353091 5.1830797 3.8164387 3.5157483
000260 1d 16 0e 40 a9 f9 73 be 49 65 65 bc 48 f7 ad be
       2.2200997 -0.23825707 -0.014001199 -0.33977723
000270 f8 33 ef bd a0 68 49 be a8 fb 1e 3f e5 76 03 bf
       -0.11679834 -0.19668818 0.62102747 -0.51353294
000280 2e c9 1e 3d 3e fd 9c 3e 80 a9 ad 3e 81 a2 41 3e
       0.03876608 0.30661958 0.3391838 0.18909647
000290 c4 96 05 be 41 c4 b0 40 9b dc e0 bf 93 1d d0 3f
       -0.13045794 5.523957 -1.7567323 1.6259025
0002a0 3c 05 79 be d5 d7 f0 bd 67 1c fc 40 91 d1 07 3f
       -0.24318403 -0.11759917 7.878467 0.5305415

1.l3.weight f4 [1, 172]
000000 30 c4 02 3d dc 17 6d 3f 75 a8 ab 3f 6e de 24 3e
       0.03192538 0.9261453 1.3410784 0.16100475
000010 4b a1 1b 3e 6d 42 68 be 48 ff a0 be d3 cc f9 bc
       0.15198247 -0.2268159 -0.31444764 -0.030493176
000020 73 3b 03 3e d5 68 ce bd 8f 6f 88 3d 1a 34 96 3d
       0.12815647 -0.10078589 0.06661903 0.07334156
000030 ff ee 3c bc 03 bd d7 3c ec 6b af 3d ff bd 5a be
       -0.0115315905 0.026335245 0.08565506 -0.2136154
000040 e7 5a a5 bc 44 d2 20 3c 85 0b 0b bd f8 e5 97 3c
       -0.020184947 0.009815756 -0.033946533 0.018542275
000050 48 de 95 3d 72 47 69 3d 9a f4 11 be 7a 24 b3 bb
       0.073177874 0.0569529 -0.14253464 -0.005466995
000060 9a 5f e1 bc 1d 07 ce 3d 59 4a 16 be 9a c9 82 3c
       -0.027511407 0.100599505 -0.14676799 0.015965272
000070 7d dc 5f 3b fa 91 89 bd cd 42 92 3c 5c 14 b8 bc
       0.003415852 -0.06717296 0.017854119 -0.022470646
000080 5b e9 21 bd d0 20 18 3f 2b 0d c2 3f bc af 60 3e
       -0.039529186 0.5942507 1.5160269 0.21942037
000090 75 55 88 bd 40 98 08 bd 07 60 1e 3c 7a 67 59 3d
       -0.06656925 -0.033348322 0.009666449 0.0530772
0000a0 4a d5 81 bd 55 ec 95 3b 57 d5 d9 be e2 67 17 3f
       -0.0633951 0.004575292 -0.42545578 0.5914289
0000b0 97 1e bc 3c 59 52 94 3f 25 b2 f7 bc 0e 6f 0a 3d
       0.022963805 1.158763 -0.030236313 0.033797316
0000c0 b7 67 76 bc b6 fe 51 3d bd e8 ec be 37 81 ae be
       -0.015039376 0.051268302 -0.46271315 -0.34082958
0000d0 f7 ca 80 3c 4b cc 06 bf 38 3e 82 bd 56 93 d4 3e
       0.015721781 -0.52655476 -0.063595235 0.41518658
0000e0 5d a1 09 3f a7 0b e3 3e 25 17 d8 3f dd 3a b2 be
       0.53761846 0.44344828 1.6882063 -0.34810534
0000f0 ee 8d 0a bc c9 f4 81 be ec ef 30 bc 07 22 0a be
       -0.00845669 -0.2538207 -0.010799389 -0.13489543
000100 75 d3 96 be 6f 4d 05 bc 77 d1 2d bd df 85 dc 3c
       -0.29458204 -0.008136137 -0.04243609 0.026919303
000110 61 e7 76 3d c7 e7 e9 be b4 eb 1e 3e 25 25 f2 3d
       0.060279254 -0.45684645 0.15519601 0.11823491
000120 71 bc 25 3d a7 51 83 bc ed 83 30 3f f0 d9 3a be
       0.040462915 -0.016030146 0.689513 -0.18247199
000130 09 f4 aa 3c a6 28 3d bc 6c 59 95 3d 00 72 a8 be
       0.020868318 -0.011545336 0.072924465 -0.32899475
000140 3a 3f 3b bc 97 72 62 3d 33 d0 a7 3f fd 5a 99 3c
       -0.011428649 0.055285063 1.3110412 0.018720144
000150 4d 3a 35 bb 56 89 e7 be 41 0d 10 bf b2 aa 55 bd
       -0.0027653158 -0.45221967 -0.56270224 -0.05216474
000160 48 b5 ea bd 0d b6 f6 be 0b 76 6b 3c d0 00 22 bf
       -0.11460358 -0.4818577 0.014371405 -0.6328249
000170 b4 da 45 3d 05 e9 d6 3c a5 b4 53 be c6 ac 8d bc
       0.048304275 0.02623416 -0.20674379 -0.017294299
000180 71 1c bf 3e 26 b4 81 3f b7 57 d4 bb a5 24 85 3c
       0.37326387 1.0133102 -0.006480183 0.016252825
000190 78 78 39 bf 57 7e b1 be 85 bb 69 3d 4a 17 fe 3e
       -0.72449446 -0.34666702 0.0570636 0.49627143
0001a0 0d ba 42 3e 7a 1e c8 3c fe 12 eb bc 65 d1 10 3b
       0.19016285 0.024428595 -0.02869558 0.0022097465
0001b0 1e 70 82 be 90 d1 ef 3c 6b de 6c 3c 07 90 e8 3c
       -0.25476164 0.029274732 0.014457325 0.02838899
0001c0 41 48 48 bd 08 61 3b be 76 c3 c8 3d d5 ab 5d bd
       -0.04889703 -0.18298733 0.09802906 -0.05411895
0001d0 a5 48 19 bd 36 93 8d be 62 28 70 be c6 29 6c 3c
       -0.037422795 -0.27651376 -0.23452905 0.014414256
0001e0 0a 77 93 3c c6 e3 6d bc b1 1e c2 bc 44 1b 07 bd
       0.018001098 -0.014519637 -0.023696275 -0.032984987
0001f0 fd 23 0c be 65 9e 2d 3d f9 28 66 3c a7 47 32 3d
       -0.13685603 0.042387385 0.014047855 0.043525364
000200 97 68 28 bb 03 03 79 bd ea c3 93 bd d2 f8 53 bd
       -0.0025697106 -0.060793888 -0.07215102 -0.051750965
000210 f1 cd 0e 40 2b d4 02 bd 26 93 a3 bd 88 8a 05 3d
       2.2313197 -0.03194062 -0.07987051 0.032602817
000220 fd e3 23 be 8f 62 91 bb 02 0d b7 3f b9 3d 8a bd
       -0.1600494 -0.004436798 1.4300845 -0.06750054
000230 07 e7 13 bd 9f 8b 92 bd dd 4d 6a 40 93 cd 36 3c
       -0.036108997 -0.07155537 3.6610024 0.011157411
000240 a7 61 eb bc c9 3a af bc b6 9b 97 bc 7a 4d e1 3d
       -0.028733088 -0.021390336 -0.018506866 0.110011056
000250 3b ff 0e 3c 12 82 9e bd 7c 7e 86 3e c0 28 72 bc
       0.008727844 -0.07739653 0.26268375 -0.014780223
000260 b7 48 40 3e c8 a5 19 3d 86 8b cc 3c 61 3b 40 3b
       0.18777739 0.037511617 0.024968874 0.0029332268
000270 76 6d 10 bd ab 78 9b bc d3 88 68 3f 19 5e 70 bc
       -0.03526064 -0.018978437 0.9083378 -0.014670872
000280 f4 ff b4 3e 06 7b 65 3f e1 e4 86 be 7f 0f 6f 3f
       0.35351527 0.89640844 -0.26346496 0.9338302
000290 8e ee f0 bc ae d9 11 bd 6b b7 85 bc 82 81 2f 3e
       -0.029410627 -0.035607986 -0.016322812 0.17139247
0002a0 f2 9b d7 3c 88 f3 ed 3e bc d8 df 3d 15 49 68 be
       0.026319478 0.46474862 0.10930011 -0.22684129
