ergoCubSN001/friction_pinn/2_rhy_b4789_h25.onnx (onnx, 185569 bytes, 7 tensors)

0.weight f4 [50, 50]
00000000: 9bef e43e 0000 0000 0000 0000 0000 0000
00000010: 0000 0000 0000 0000 0000 0000 0000 0000
00000020: 0000 0000 0000 0000 0000 0000 0000 0000
00000030: 0000 0000 0000 0000 0000 0000 0000 0000
00000040: 0000 0000 0000 0000 0000 0000 0000 0000
00000050: 0000 0000 0000 0000 0000 0000 0000 0000
00000060: 0000 0000 0000 0000 0000 0000 0000 0000
00000070: 0000 0000 0000 0000 0000 0000 0000 0000
00000080: 0000 0000 0000 0000 0000 0000 0000 0000
00000090: 0000 0000 0000 0000 0000 0000 0000 0000
000000a0: 0000 0000 0000 0000 0000 0000 0000 0000
000000b0: 0000 0000 0000 0000 0000 0000 0000 0000
000000c0: 0000 0000 0000 0000 0000 0000 cbc6 e43e
000000d0: 0000 0000 0000 0000 0000 0000 0000 0000
000000e0: 0000 0000 0000 0000 0000 0000 0000 0000
000000f0: 0000 0000 0000 0000 0000 0000 0000 0000
00000100: 0000 0000 0000 0000 0000 0000 0000 0000
00000110: 0000 0000 0000 0000 0000 0000 0000 0000
00000120: 0000 0000 0000 0000 0000 0000 0000 0000
00000130: 0000 0000 0000 0000 0000 0000 0000 0000
00000140: 0000 0000 0000 0000 0000 0000 0000 0000
00000150: 0000 0000 0000 0000 0000 0000 0000 0000
00000160: 0000 0000 0000 0000 0000 0000 0000 0000
00000170: 0000 0000 0000 0000 0000 0000 0000 0000
00000180: 0000 0000 0000 0000 0000 0000 0000 0000
00000190: 0000 0000 0000 0000 c1d3 e33e 0000 0000
000001a0: 0000 0000 0000 0000 0000 0000 0000 0000
000001b0: 0000 0000 0000 0000 0000 0000 0000 0000
000001c0: 0000 0000 0000 0000 0000 0000 0000 0000
000001d0: 0000 0000 0000 0000 0000 0000 0000 0000
000001e0: 0000 0000 0000 0000 0000 0000 0000 0000
000001f0: 0000 0000 0000 0000 0000 0000 0000 0000
00000200: 0000 0000 0000 0000 0000 0000 0000 0000
00000210: 0000 0000 0000 0000 0000 0000 0000 0000
00000220: 0000 0000 0000 0000 0000 0000 0000 0000
00000230: 0000 0000 0000 0000 0000 0000 0000 0000
00000240: 0000 0000 0000 0000 0000 0000 0000 0000
00000250: 0000 0000 0000 0000 0000 0000 0000 0000
00000260: 0000 0000 346e e33e 0000 0000 0000 0000
00000270: 0000 0000 0000 0000 0000 0000 0000 0000
00000280: 0000 0000 0000 0000 0000 0000 0000 0000
00000290: 0000 0000 0000 0000 0000 0000 0000 0000
000002a0: 0000 0000 0000 0000 0000 0000 0000 0000
000002b0: 0000 0000 0000 0000 0000 0000 0000 0000
000002c0: 0000 0000 0000 0000 0000 0000 0000 0000
000002d0: 0000 0000 0000 0000 0000 0000 0000 0000
000002e0: 0000 0000 0000 0000 0000 0000 0000 0000
000002f0: 0000 0000 0000 0000 0000 0000 0000 0000
00000300: 0000 0000 0000 0000 0000 0000 0000 0000
00000310: 0000 0000 0000 0000 0000 0000 0000 0000
00000320: 0000 0000 0000 0000 0000 0000 0000 0000
00000330: d4d5 e23e 0000 0000 0000 0000 0000 0000
00000340: 0000 0000 0000 0000 0000 0000 0000 0000
00000350: 0000 0000 0000 0000 0000 0000 0000 0000
00000360: 0000 0000 0000 0000 0000 0000 0000 0000
00000370: 0000 0000 0000 0000 0000 0000 0000 0000
00000380: 0000 0000 0000 0000 0000 0000 0000 0000
00000390: 0000 0000 0000 0000 0000 0000 0000 0000
000003a0: 0000 0000 0000 0000 0000 0000 0000 0000
000003b0: 0000 0000 0000 0000 0000 0000 0000 0000
000003c0: 0000 0000 0000 0000 0000 0000 0000 0000
000003d0: 0000 0000 0000 0000 0000 0000 0000 0000
000003e0: 0000 0000 0000 0000 0000 0000 0000 0000
000003f0: 0000 0000 0000 0000 0000 0000 2640 e23e
0.44714054 0.0 0.0 0.0 0.0 0.0 0.0 0.0
0.0 0.0 0.0 0.0 0.0 0.0 0.0 0.0
0.0 0.0 0.0 0.0 0.0 0.0 0.0 0.0
0.0 0.0 0.0 0.0 0.0 0.0 0.0 0.0
0.0 0.0 0.0 0.0 0.0 0.0 0.0 0.0
0.0 0.0 0.0 0.0 0.0 0.0 0.0 0.0
0.0 0.0 0.0 0.44682917 0.0 0.0 0.0 0.0
0.0 0.0 0.0 0.0 0.0 0.0 0.0 0.0
0.0 0.0 0.0 0.0 0.0 0.0 0.0 0.0
0.0 0.0 0.0 0.0 0.0 0.0 0.0 0.0
0.0 0.0 0.0 0.0 0.0 0.0 0.0 0.0
0.0 0.0 0.0 0.0 0.0 0.0 0.0 0.0
0.0 0.0 0.0 0.0 0.0 0.0 0.44497493 0.0
0.0 0.0 0.0 0.0 0.0 0.0 0.0 0.0
0.0 0.0 0.0 0.0 0.0 0.0 0.0 0.0
0.0 0.0 0.0 0.0 0.0 0.0 0.0 0.0
0.0 0.0 0.0 0.0 0.0 0.0 0.0 0.0
0.0 0.0 0.0 0.0 0.0 0.0 0.0 0.0
0.0 0.0 0.0 0.0 0.0 0.0 0.0 0.0
0.0 0.44420016 0.0 0.0 0.0 0.0 0.0 0.0
0.0 0.0 0.0 0.0 0.0 0.0 0.0 0.0
0.0 0.0 0.0 0.0 0.0 0.0 0.0 0.0
0.0 0.0 0.0 0.0 0.0 0.0 0.0 0.0
0.0 0.0 0.0 0.0 0.0 0.0 0.0 0.0
0.0 0.0 0.0 0.0 0.0 0.0 0.0 0.0
0.0 0.0 0.0 0.0 0.44303763 0.0 0.0 0.0
0.0 0.0 0.0 0.0 0.0 0.0 0.0 0.0
0.0 0.0 0.0 0.0 0.0 0.0 0.0 0.0
0.0 0.0 0.0 0.0 0.0 0.0 0.0 0.0
0.0 0.0 0.0 0.0 0.0 0.0 0.0 0.0
0.0 0.0 0.0 0.0 0.0 0.0 0.0 0.0
0.0 0.0 0.0 0.0 0.0 0.0 0.0 0.44189566

0.bias f4 [50]
00000000: 2144 ad3e b52f ad3e c783 ac3e a742 ac3e
00000010: 77dd ab3e 4378 ab3e c834 ab3e f87e aa3e
00000020: 9ded a93e 8773 a93e d7e9 a83e 83d3 a83e
00000030: 7fdc a83e e7e9 a83e 35f1 a83e 93f9 a83e
00000040: 1b03 a93e c210 a93e 711c a93e f425 a93e
00000050: 692f a93e de22 a93e 02e2 a83e 2887 a83e
00000060: 332d a83e b878 853e be68 853e fb53 853e
00000070: c02f 853e 5513 853e 59fd 843e d3ed 843e
00000080: adcf 843e 57be 843e 129d 843e 0590 843e
00000090: 0580 843e a55e 843e d644 843e 1d36 843e
000000a0: e820 843e 6b08 843e fcf4 833e 4be4 833e
000000b0: 10e2 833e b5d6 833e a8c3 833e 4c9a 833e
000000c0: 8881 833e 6877 833e
0.3384104 0.3382546 0.33694288 0.33644602 0.33567402 0.3349019 0.33438706 0.33299994
0.33189097 0.33095953 0.32990906 0.3297387 0.32980725 0.32990953 0.32996526 0.3300291
0.33010182 0.33020598 0.33029512 0.33036768 0.33043984 0.33034414 0.3298493 0.32915616
0.32846984 0.26068664 0.26056474 0.26040635 0.26012993 0.25991312 0.2597454 0.25962695
0.25939694 0.25926468 0.25901085 0.25891128 0.2587892 0.25853458 0.25833768 0.25822535
0.25806355 0.25787672 0.25772846 0.2576011 0.2575841 0.25749746 0.2573521 0.25703657
0.25684762 0.25677037

1.l0.weight f4 [184, 50]
00000000: 73a6 8f3d 4ec0 f5bc e34e e93c fa9b 633c
00000010: f841 7d3b e64f 0abc c8af c8bc f279 d23d
00000020: eb95 49bc 5f05 963a a253 db3c a753 de3d
00000030: f8af 93bd a7df ac3d 9c14 5b3d 095b f33d
00000040: 8656 2dbd ae05 f43d ef09 cfbc 8b01 33bd
00000050: 9664 cd3d 577a 85bc b2f7 703c a123 1ebd
00000060: 9e7d 09bc 194c b23d 9c80 7d3d 2580 e53d
00000070: 8924 21bd 1b36 d73d 5d12 463e 0993 91bd
00000080: 2f40 fd3d 319d 83bd 5009 3bbd 0d0e d93d
00000090: a1ba 53bd 409e b63c 91ff 98bc e185 5ebd
000000a0: 18fa 3bbe d7ae adbd 824e 53be 42f0 53be
000000b0: 044f 3fbe 3235 06be 6230 66be 472a f7bd
000000c0: ecca 78bd 4ba3 5abe 884d ef3d 53b5 a2bc
000000d0: 1b4d ca3d 7ccb 743d 27e6 a83d 16a6 a93d
000000e0: c353 9d3d 6f99 81b9 02ca bc3d caeb 0f3d
000000f0: ed4a 543d 0b6e 813c ef2a c73d 90df a03d
00000100: bd70 c5ba 7ef4 fb3d a28c a83d 04f6 9abc
00000110: 3e96 a83d f42c 2f3d 0153 b6ba 3d2f 2f3c
00000120: b27b 54bb 96d9 f93b fa18 b93b 9f0e 213e
00000130: a51a 5b3e 9826 0a3e ed8b 5b3e 72ad a2ba
00000140: 499d a63d ec41 943d 6661 a9bd e479 833d
00000150: d234 123c ef09 0ebd 2d57 1dbe ea95 03bd
00000160: 9b68 b4bd 7b14 55be 8388 f9bd e791 0ebe
00000170: bf7b 63be f502 89be 9268 9cbd 54e6 f6bd
00000180: 8fc2 b6be 0797 19be c1d2 b0be afab cfbe
00000190: e872 5e3d 3c5e 533d 4302 263c 8655 1dbd
000001a0: 5037 203e 1424 993c fbcd 923d 9e2d c6bd
000001b0: 434b 193c 7bb0 d1bd 7d50 5abd 2391 e9bd
000001c0: 3644 9dbd 87f5 87bd bf3f 6f3d fb43 d3bd
000001d0: 4aaa 1bbb 0255 38bd ec6b c1bd c36b 1fbe
000001e0: 2167 bbbd c7a8 f43c 5143 1a3d 9f68 3ebd
000001f0: d613 8f3c 7c3e ebbe 5ea4 cebe 5622 bfbe
00000200: ac2f 55bd 6b5a 5bbe 0534 e4bd 1101 d83d
00000210: 290b 07bd 72e6 1ebd 8aed 603e 4cad 753e
00000220: f9c4 633e d4b3 323e df6b 863e 971c 283e
00000230: bb5a 573d 5b6b 6b3e 26bb 8a3b aa16 093e
00000240: 1659 d43d f971 a03d 6cc1 c4bc 1391 17be
00000250: 3a99 c9b9 552a 5bbe be0f a7bc f59f d53c
00000260: 60a9 ddbc 5124 2c3d f713 b9bc 7dc0 b23d
00000270: 2bff c2bc 38d9 c83d 7a5c acbd 3f57 873d
00000280: 464f 703d 6fc1 4fbd 9498 833d c10b dabc
00000290: 5358 a4bd c08f 1c3c 9abe a6bd 5c2a c83d
000002a0: b670 b93d e7dc 003d bd57 26bd 9ed8 4bbd
000002b0: 7afe f33a fb2c 873d c515 cebd caa8 763e
000002c0: 1f70 443e 0589 553d d0cd 053e 60f9 183e
000002d0: 88f3 3f3d 4c86 e83c 3279 013e 20ef 4d3e
000002e0: 748d 273d 9c89 f13d bf99 073e 05a1 b3bd
000002f0: 91c1 a2bd cc26 4dbd 6fc8 c9bd 39ab 2fbe
00000300: 3c2a 7d3d 5151 5cbe f3c1 34be 185e a0bd
00000310: 2268 76be 96cb 0dbe 3c9c 80be 9cdb 13be
00000320: 246a 4bbb 8c47 21bc d5f9 3bbc ce01 5c3c
00000330: 8253 ffbc 442b a73c 0b16 bdbc 35bf b83a
00000340: 949c 04bc fda6 753b 7830 babc 2ee1 963c
00000350: 0bd4 cbbc a743 513b 4537 33bb cb09 54bc
00000360: c5cb c63a 78c2 28bc 333c 21bb dcf6 c6bb
00000370: 4454 30bc 63bd a73b aa73 66bc da66 6ebb
00000380: d7d4 86bb 7e6b 843d de59 173d 69f2 203e
00000390: bcc6 763d 636b 1f3e a64d 653d 5f27 1e3e
000003a0: c7a0 e83c 45c8 063e a688 7f3d 12f3 c23d
000003b0: f51c b53d 106b 6e3d 0569 d23c a512 023d
000003c0: 548f ef3d b3ce 103d b4cd 1c3d 5766 f5bd
000003d0: c76b ccbd 2464 4cbd 1dad 113e ef8f 9f3d
000003e0: 452e dfbc 0b50 123e c247 cd3c 1b80 80bd
000003f0: 6c31 5b3d 988b 82bd bb36 56bd fcaf ca3d
0.070141695 -0.029998925 0.028479999 0.013892168 0.0038644057 -0.008441901 -0.024497882 0.102771655
-0.01230381 0.0011445693 0.026773278 0.10855799 -0.07211298 0.08441096 0.05348645 0.11882598
-0.042318843 0.11915146 -0.025273291 -0.043702643 0.10028951 -0.016293688 0.014707493 -0.038608197
-0.008391766 0.08705921 0.06189023 0.11206082 -0.039341483 0.10508367 0.19342943 -0.07108123
0.12365758 -0.06426466 -0.045663178 0.10598383 -0.051691655 0.022292256 -0.018676551 -0.054326896
-0.18357122 -0.08480614 -0.20635417 -0.2069712 -0.18682486 -0.1310623 -0.22479394 -0.12068611
-0.060740396 -0.21351354 0.1168471 -0.019861853 0.09877988 0.05976437 0.08247023 0.082836315
0.07681992 -0.00024719114 0.092182174 0.035136975 0.051829267 0.015799543 0.09724986 0.07855141
-0.0015063506 0.123024926 0.082299486 -0.018916138 0.082317814 0.04276748 -0.0013910235 0.010692415
-0.003242236 0.007624815 0.0056487294 0.15728234 0.21396883 0.13491285 0.21440096 -0.001241131
0.081354685 0.07239136 -0.082705304 0.06419733 0.008923726 -0.034677442 -0.15365286 -0.03212539
-0.088090144 -0.20808594 -0.12184241 -0.13922845 -0.22215174 -0.2676007 -0.07637133 -0.1205565
-0.3569531 -0.14999019 -0.34535792 -0.40560672 0.054308802 0.05160354 0.010132375 -0.03841164
0.156461 0.018693961 0.07168194 -0.096766695 0.009356323 -0.10238739 -0.053299416 -0.11404636
-0.07679026 -0.066386275 0.058410402 -0.103157006 -0.0023752623 -0.045002945 -0.094444126 -0.15568452
-0.0915053 0.029865636 0.037661854 -0.046486493 0.017465513 -0.4594611 -0.40359777 -0.37330884
-0.052047417 -0.2142121 -0.111427344 0.105470784 -0.032969628 -0.03879399 0.21965614 0.23991889
0.22243108 0.17451411 0.26254174 0.16417156 0.05257676 0.22990172 0.0042337356 0.13387552
0.10368554 0.078342386 -0.024018012 -0.14801435 -0.0003845187 -0.21402867 -0.020393249 0.02607725
-0.027058303 0.04202682 -0.022592528 0.087281205 -0.023803314 0.09807056 -0.08416076 0.06608438
0.05866935 -0.050721582 0.06425586 -0.026616933 -0.08024659 0.009555757 -0.08141823 0.097737044
0.09054701 0.03146067 -0.040611017 -0.04976713 0.0018615269 0.06600376 -0.10062746 0.24087825
0.19183396 0.052132625 0.13066792 0.14938879 0.04686311 0.02838435 0.12643889 0.2011075
0.040906385 0.11793825 0.13242243 -0.087709464 -0.07947076 -0.050085828 -0.09852683 -0.1715516
0.061807856 -0.21515395 -0.17652111 -0.07830447 -0.24063161 -0.13847193 -0.25119197 -0.14439243
-0.0031038607 -0.009843718 -0.011473139 0.013428165 -0.03116775 0.020406373 -0.0230818 0.001409507
-0.008093972 0.0037483566 -0.02272819 0.01841792 -0.024881383 0.0031931193 -0.0027346176 -0.012941788
0.0015166929 -0.010300271 -0.0024602532 -0.0060719084 -0.010762278 0.005119012 -0.014065662 -0.0036377222
-0.004114728 0.06465815 0.03695094 0.15717472 0.06024812 0.15568309 0.055982254 0.15444706
0.028396977 0.13162334 0.062386177 0.09519018 0.08843414 0.05820757 0.025684843 0.031756062
0.116972595 0.035353374 0.03828211 -0.119824104 -0.099814944 -0.04990019 0.14226194 0.07791125
-0.027243743 0.14288346 0.02505863 -0.06274434 0.05351393 -0.06374282 -0.05229829 0.098968476

1.l0.bias f4 [184]
00000000: e64c cb3d 39d3 aebb 25fb 4b3e 9803 31bd
00000010: 5afc dabe df96 823e 008e 8bbc 407f b2bf
00000020: 3fe3 dcbd 0811 7e3e e7cc 91be 738e 57be
00000030: 1a7b 643d a198 4abe d8fd 053e 26b5 4f3e
00000040: cc91 53bd 1b49 72bd 94c5 94be 47e1 d4b9
00000050: ea85 ae3d 5651 ba3d 1247 2fbc 5911 9fbf
00000060: 530f 313c 6a47 703e a632 44bd 185a d83d
00000070: 70cf adbf 237a 813e 25a5 b2bf 8639 e0bc
00000080: 9476 d73d 250e 253d 5a84 53be fc5c f73c
00000090: b1b8 0fbd aaf1 cc3d 0f8f 473e 4a0e efbd
000000a0: 2b9d 283e e149 603e 466f a63c dc61 9bbc
000000b0: d994 8fbf d3af 2b3d 359d 8ebe 4c48 c2bf
000000c0: 7f99 a4be feaa b13c e517 71be 48c0 cfbe
000000d0: 91b5 993d ff21 933e aaa8 253e 35cf e8be
000000e0: 11a9 d0bf c8d6 4ebe f31d 993e b54c df3a
000000f0: 2524 85bc 4fa9 7aba 3c92 753d 0be7 94bb
00000100: cfc3 12bd e7f8 1d3e d1f0 093e 2601 353e
00000110: 2966 cbbe 463b 8dbe 71cf a5be 2f0a 823e
00000120: af70 913e 2e74 443d ab15 a4bc c320 b13d
00000130: 6f61 c5be 0e39 a1be 368d 4f3e 28ff c9bb
00000140: 02f9 1f3e 9860 0c3d 1817 aebb 13b3 86be
00000150: 8a15 883e 3e23 47bf 422e 39be a3ee afbf
00000160: 9cbd dd3c 54d3 783e a6eb 9ebf 7310 d73b
00000170: d822 70bd bf4b f6bd b986 47be 6b63 f1bd
00000180: 108b 88be d800 3d3d dab8 1ebd 6662 4e3e
00000190: c336 cdbd af47 323e 980f 9bbf 53e5 c93b
000001a0: 85f7 2a3b 2a2f 993e 8988 f13d 7bb5 3e3d
000001b0: ab42 97be d291 df3c 421c 4e3e 1d8f f8be
000001c0: 5fbf ddbc 7a65 a2bb cc7b f63b 05a4 253e
000001d0: b43e 2cbc 1bb6 533e 0fc9 a3bf 048b e13d
000001e0: 8a2a 37be 588d b2bf eae3 22be ac87 84bf
000001f0: 9266 413e 9012 813e 19ba 71bd dcff 0b3d
00000200: 4359 babe 1476 1ebf b99a cebb a28a a1be
00000210: 4356 83be 76ff c03d ec09 93bd 26d0 2ebe
00000220: f8ab afbc 775e 5abe fb0a 3fbc 6013 93bc
00000230: f304 2e3d cdfb bfbc fb05 633d 12bb 91bf
00000240: 7574 b53d 5cde 57bd 0c36 713d 24cf 4d3d
00000250: d28b 00be be8a ed3d 40a4 c8bd 1672 efbe
00000260: 43a6 cebf 2307 39bc d6f6 953d 1d02 4d3e
00000270: 7575 adbf 5f93 6d3e 2443 8e3e ee00 453e
00000280: 2a62 d03c 28df 493e 758f e2bc c166 9dbe
00000290: a10f cebe 6c72 20bd ff88 653c a502 ab3e
000002a0: 1af7 1fbe 3332 9fbf 1e58 d43c c864 b4bf
000002b0: 22c1 8b3e 6c78 1d3e 418e fdb9 9764 c93e
000002c0: 5f9b 80be f8a7 90bf 4f86 b4bf c4ef bf3c
000002d0: 13fc debe 5955 c33d d610 abbe e6ef a5be
0.099267766 -0.0053352383 0.19920023 -0.043216318 -0.42770654 0.2550573 -0.017035484 -1.3945084
-0.10785531 0.24811184 -0.2847664 -0.21050434 0.05578146 -0.19784786 0.13085115 0.20283946
-0.051652715 -0.05915175 -0.2905699 -0.00040603636 0.08521636 0.09097545 -0.010698097 -1.2427169
0.010806876 0.23464742 -0.047899865 0.10564059 -1.357893 0.25288495 -1.3956648 -0.02737118
0.10520664 0.040296692 -0.20655957 0.030195706 -0.035088245 0.10007031 0.19488166 -0.11672647
0.16466205 0.21903183 0.020316731 -0.018967561 -1.12173 0.041915726 -0.27854314 -1.5178313
-0.32148358 0.02168798 -0.23544271 -0.40576386 0.07505334 0.28736874 0.16177621 -0.45470586
-1.6301595 -0.2019912 0.29905662 0.001703641 -0.016252587 -0.0009561972 0.059953913 -0.004544144
-0.03583127 0.1542698 0.1347077 0.1767622 -0.3972638 -0.27584285 -0.32384828 0.25398394
0.28406283 0.04796236 -0.020029863 0.08648827 -0.38550898 -0.31488842 0.20268711 -0.00616445
0.15622333 0.034271806 -0.0053128116 -0.26308498 0.26578933 -0.7778815 -0.18084052 -1.3744701
0.027067952 0.24299365 -1.2415664 0.00656324 -0.05862698 -0.12026166 -0.19484986 -0.117865406
-0.26668596 0.046143383 -0.038750507 0.20154724 -0.100202106 0.17410158 -1.2114134 0.006161371
0.0026087475 0.29918796 0.1179362 0.046559792 -0.2954305 0.027291212 0.20127967 -0.48546687
-0.027068792 -0.0049559446 0.007522082 0.1617585 -0.010512996 0.20674936 -1.2795733 0.11012843
-0.17887321 -1.3949385 -0.15907255 -1.0353904 0.18886784 0.25209475 -0.059015367 0.034179553
-0.36396226 -0.6189892 -0.0063050655 -0.3155108 -0.2565175 0.09423725 -0.07179627 -0.1707159
-0.021444306 -0.21325098 -0.011660333 -0.017953575 0.04248519 -0.023435498 0.055425625 -1.1385214
0.08860103 -0.052702293 0.058889434 0.050246373 -0.12553337 0.115987286 -0.09796953 -0.46766728
-1.6144489 -0.011293205 0.07322471 0.20020337 -1.355147 0.23200749 0.277856 0.19238636
0.025437433 0.19714034 -0.027656296 -0.30742458 -0.402463 -0.03917162 0.014009713 0.33400455
-0.15621606 -1.2437195 0.025920924 -1.4093256 0.27295786 0.15377969 -0.00048361908 0.39334556
-0.2511854 -1.130126 -1.4103488 0.023429759 -0.43551692 0.09537763 -0.33411282 -0.3240959

1.l1.weight f4 [184, 184]
00000000: 63b0 e4bc 8da3 bdbb 4fbb e739 7761 303a
00000010: 6a60 1ebe 015d 823d 0351 7cbd 6752 a4bb
00000020: 9bf3 76bf 8cbb b73c cac3 4bbe 7657 d2bd
00000030: 4192 90bb 4cef 5a3e 7759 55bc b529 fbbb
00000040: 8819 40bd 4520 cbbb 2452 4cbe 4c07 d3bc
00000050: 4815 323c 26a8 94be 36ef b93b 5b2a 80bd
00000060: d7a5 223d 88fd 75bb afdd 21bf 07d9 3ebe
00000070: 6677 f0bb 69eb 363a f237 b9bc 974d a1bc
00000080: 94c1 f4bc 90db 69bd 87e1 f0bd d710 403d
00000090: ada0 85be 2fb0 99ba 4efe 3cbe 2415 80be
000000a0: 289f 743d 196c 9ebd a2ca 7fbc c824 b1be
000000b0: 2acb 48bc 9378 a1bc 118f c7bd d2c1 6bbd
000000c0: 9171 89be 1c60 25bd 35c6 d0be 41ea c9bb
000000d0: e89f 37bc 9614 23bd e323 0239 3a3a 8f3d
000000e0: a25a 91bb 98e2 c3bc b90a bcbb 6132 a3b8
000000f0: 12cc ebbe ac39 363d 5b4a a9bd 2354 cabd
00000100: a08c 52bd ae73 203d e2c6 f43a 38eb 4aba
00000110: d77f ea3c b657 5d3d 2e26 123d 30f2 183d
00000120: 2e38 02bb a5ae 9b3c deb0 09bd fdd6 b8bc
00000130: a5e7 97be 7906 9abe a36c b1bd 03e0 b33d
00000140: d886 ab3a d23f ce3c f411 053d 2fbe b7bc
00000150: 40d7 16bb fa29 513c 6851 c6be 582c 80bd
00000160: 4cac 443b e108 f23a f775 27bd b5f4 95bb
00000170: d578 df3c 0a84 37bf e933 78be 6bd1 683b
00000180: 71a9 183c 8690 d43c d15b cd3c aefe a6bb
00000190: db69 14bd 9721 58be e67e c9bc 0dfb dfbc
000001a0: 62d5 843c 892e ceb9 842b 5abc e805 a7be
000001b0: 95ab 22be e28e adbb 20b3 593d 8297 993e
000001c0: 5999 d4bb 7920 99bb f7a5 a13a 8083 0e3d
000001d0: 3f08 a3bc 7f87 cfbb a26e 81bd 6cfb 1c3c
000001e0: c772 6bbe 417f a5bd 174f 91bb ccd5 c7bd
000001f0: ad3c 0ebe 72bb edbb 4725 a23c 43f3 79bc
00000200: dda4 cd3d b7ff ea3c 060a 36bb f0a9 4bbd
00000210: bf6d b3be 609a 063c 5f2b 053d 306f 4bbf
00000220: 2540 01bd c0be a4bd 904b 8f3d 703e 643d
00000230: edf3 cfbe b8e0 60bf 48e9 89bc 4573 5ebd
00000240: de7c c7be 47e7 c3be 44dd 933d 11d3 4abc
00000250: 9aa4 d63d bbaa f3ba 3875 73bc 67eb 75bd
00000260: ce61 233b 8dc6 293d d62d c7bb 8b43 55be
00000270: 48bd e03c 6c0c 44be c362 063b fdf1 57bd
00000280: ad45 8ebc 2e5e c43c b55b 99bc 999f 9fbe
00000290: fcd2 d1bc 286d 97be f826 b43a e625 8c3c
000002a0: 3e1d ef3e 0a8c e5bd dbc2 443d 63f1 b0bd
000002b0: d294 233d 884f 82bd f4b8 f93b 22e8 2339
000002c0: b061 3bbe fcbf 87bc 275d 9e3d 1d04 8bbd
000002d0: e5fe 95be feae 303d c84d f93c f84c 18bf
000002e0: cea7 84be 97da 983d c11c 343e c03d 54bb
000002f0: fe36 69bb 80f9 5dbd 4a38 953d f0f0 8f3e
00000300: c46a 79bd 7bb4 5bbc c848 363c e727 1cbc
00000310: 3fa3 8bbe cb10 c53b ab07 4dbe aa60 6ebe
00000320: f541 37bd b849 21bd af70 8ebc 7b82 0d3e
00000330: 1aaa f3bf 66dd 3b3d 807a 1d3e 49a5 75bd
00000340: f192 003e c422 07bf f89e 53bd c7bb 383d
00000350: e469 babd d5fc 183e 49d9 773c 88a0 85bf
00000360: 02fd 82be 8e89 e43d 9e66 13bd 1637 933d
00000370: 1f2f 07bd f615 45be 3ed8 813c 645e 2639
00000380: 43cd 983d 5284 15bd e7c5 83bf 5fe4 adbc
00000390: ee28 18bb ccad 42bc ec1e f73b e60a 29be
000003a0: 0eaa 1ebd 0996 61bc 2286 0dbd 98ba 0abf
000003b0: 2786 afbf aeed 54bd ccd7 0c40 df7b 98bd
000003c0: f401 c6bd 1015 c53d 66f0 3abd 0792 51c0
000003d0: 894a 93bc e789 4e3d 8e37 8d3d a0aa 21bd
000003e0: 3f64 893c 92d0 24bd 60b9 cabf 44dd 91be
000003f0: 0339 aebc a334 1d3d 1c51 71be 6dcd aabd
-0.027916139 -0.005787319 0.0004419931 0.00067283906 -0.15466467 0.06365395 -0.061600696 -0.005014706
-0.9646546 0.022428297 -0.19898906 -0.10270588 -0.004411966 0.21380347 -0.013021818 -0.007664884
-0.04689935 -0.006198915 -0.19953209 -0.025760315 0.010869332 -0.29034537 0.005674268 -0.06258079
0.03970894 -0.003753515 -0.6322889 -0.18637477 -0.007338452 0.0006977828 -0.022609685 -0.019690318
-0.029877461 -0.057094157 -0.11761766 0.04689106 -0.26099148 -0.001172548 -0.18456385 -0.2501613
0.059722096 -0.07735462 -0.015612276 -0.34598374 -0.012255469 -0.019710815 -0.097440846 -0.05755789
-0.26844457 -0.04037486 -0.4077622 -0.0061619584 -0.011207558 -0.039814554 0.00012411135 0.06993528
-0.004435853 -0.02391176 -0.005738583 -7.7818295e-05 -0.4605413 0.044488594 -0.08266135 -0.09879329
-0.05140364 0.03917282 0.0018674994 -0.0007740739 0.028625412 0.054038726 0.035680942 0.037340343
-0.0019869911 0.019004175 -0.03361594 -0.022563452 -0.29668918 -0.30083063 -0.08663299 0.08782961
0.0013086451 0.025176916 0.032487825 -0.022429554 -0.0023016483 0.012766356 -0.38733983 -0.06258458
0.0030009924 0.0018465781 -0.040883984 -0.0045762905 0.027279297 -0.7168585 -0.24238552 0.0035525213
0.009317742 0.02594782 0.025068196 -0.005096278 -0.036233764 -0.21106564 -0.024596643 -0.02734139
0.01621503 -0.00039326053 -0.013316039 -0.32621694 -0.15885766 -0.005296574 0.053149343 0.29998404
-0.006488007 -0.0046730605 0.0012332787 0.034793377 -0.019901393 -0.006333291 -0.0631993 0.009581428
-0.22993003 -0.080809124 -0.004434477 -0.097575754 -0.13890333 -0.0072550112 0.019793166 -0.015255752
0.10041211 0.028686387 -0.002777697 -0.049722612 -0.35044667 0.008215517 0.032512065 -0.79466534
-0.031555314 -0.08044195 0.06996834 0.055723608 -0.40615788 -0.87842894 -0.01683487 -0.05430915
-0.38962454 -0.38262388 0.072199374 -0.012379424 0.10480614 -0.001859031 -0.01485949 -0.06003895
0.0024930122 0.04144912 -0.006078462 -0.20826547 0.027434006 -0.19145364 0.0020505644 -0.052721012
-0.017367208 0.02397069 -0.018720487 -0.3117645 -0.0256133 -0.29575467 0.0013744524 0.017107915
0.46701998 -0.11208351 0.04803739 -0.08639791 0.039936848 -0.06362826 0.007620925 0.00015631368
-0.18298984 -0.016571037 0.07732611 -0.06787894 -0.29296032 0.043135636 0.030432597 -0.59492445
-0.25909275 0.07463568 0.17589094 -0.0032385439 -0.0035585756 -0.05419302 0.07286127 0.28113508
-0.060892835 -0.013409729 0.011125751 -0.009530998 -0.27272984 0.006013965 -0.20022456 -0.23279062
-0.044740636 -0.039376944 -0.017387716 0.13819306 -1.9036286 0.04586544 0.15378761 -0.05997208
0.12556054 -0.52787423 -0.051665276 0.045100953 -0.09102228 0.14940198 0.015127488 -1.0439615
-0.25583655 0.11159049 -0.035986535 0.07188241 -0.033003923 -0.19246659 0.015850183 0.00015866157
0.074610256 -0.036503144 -1.029477 -0.02122706 -0.0023217755 -0.011882257 0.007541528 -0.16508064
-0.038736396 -0.013768681 -0.034551747 -0.5419097 -1.3712815 -0.05198448 2.2006712 -0.074455015
-0.09668341 0.09623158 -0.045639418 -3.2745378 -0.017979877 0.050424483 0.06895362 -0.03946936
0.016771434 -0.04023797 -1.5837822 -0.28489125 -0.02126742 0.038380276 -0.23566097 -0.08339963

1.l1.bias f4 [184]
00000000: 3e86 5e3f 0568 6d3f 1098 9f3e ec6e e93e
00000010: f279 5b3f 8bb3 1d3f 8808 793f 129c 363f
00000020: 4556 13bf ec9a 683f 2475 523f df93 9a3e
00000030: 67c0 5e3f ba63 5f3f b05f 393f bf98 80be
00000040: 711b b3bf a315 643f 8d00 9fbe 7f6e 583f
00000050: 1d09 11bf 6c9d 06be 62b0 f6be d4ef 623f
00000060: 50d6 9cbe 87e8 6e3e 8924 cabd 813f 2c3e
00000070: 30d2 053f bfae 5b3f 783e 443f cb0d 8d3f
00000080: 5f2d 6d3f 6eed 453e fcf5 823f aa05 b3bf
00000090: bcca 683f eaca 4d3f dcd9 31bf eead 4dbf
000000a0: 69b9 dd3e 63a2 47bf 9d5b 473f e5a7 5b3f
000000b0: aef3 ebbd a5f8 463f 8d98 843f 0282 95bd
000000c0: ee43 893e b0eb 433f cfbf 5f3f 6e7b 7a3f
000000d0: 69f9 493f a1f8 e4be e94c 7e3f aa5a 833f
000000e0: 3a52 753f ebf1 5a3f 5b7d 5d3f f8dc 643f
000000f0: abc7 523f d5a3 8e3d c191 f33e 2f50 703f
00000100: 1d6d 5a3f 9514 503f 22ec 703f 6250 7b3f
00000110: ff45 3c3f 53a8 18be fc89 543f 5d4c 793f
00000120: fce4 1d3f e4a4 653f 8afc a03e ec73 033e
00000130: 2564 803f 539f 293f 52c5 f23e abf8 34bd
00000140: 35a4 fa3e 4e44 483f 6b81 673f e76d ce3e
00000150: c156 323f 691b 463f 7fb1 e8be f991 45be
00000160: 2165 1e3f 77e5 1dbe 7576 503f 71ea 6d3f
00000170: d209 403f 6df0 623f 187c 363e 273d e7bf
00000180: 4a60 bfbe 1f47 5a3f eee2 aabc afb3 673f
00000190: 6e86 273f 6987 8f3d c3c8 5d3f f6c5 4d3f
000001a0: 8da9 5f3f aadf 5d3f f3f2 5d3f bc33 c03e
000001b0: 8917 393f deb8 613f 2e2f cebe da73 843f
000001c0: db5b 7a3f a8fc 233f 028f 6f3f 1400 7c3e
000001d0: cf02 fdbd c79e 663f 6c70 903e fae5 3e3f
000001e0: 94c0 cb3d 8478 8b3f a7f7 173e f4fc dabf
000001f0: 8916 543f 4359 ad3d b2bd bb3d cb78 82bf
00000200: 0fc8 333f f2fa 2c3f 51e9 21be 9c3e 3c3f
00000210: 8b3e 203f 0b0e 443f 597e 743f 8c65 493f
00000220: 79de 153f b1e2 2c3f 4fa5 8a3f 75ec 613f
00000230: 5685 643f 76e9 293f 00d1 203f 718b 513f
00000240: 9e98 823f c91d 633f b6ae 03bf 453b 2c3f
00000250: 5390 7d3f 2ac1 0d3f 6a0e 0c3f 4c22 823d
00000260: 2f84 483e bf54 833f 063d 143e 6bd7 24bd
00000270: 0e4b 463f 74ff 7a3f aeb1 fe3d d715 173f
00000280: e1cf 5dbd c249 1bbf 7e16 5d3f cdbc 8abe
00000290: a0e2 0b3e 1e76 2c3f ed60 c73b 98d8 10be
000002a0: 0e9a 453f 8d80 643f 64ac 5c3f 76c9 6c3e
000002b0: d6ed 053f 1a75 543f b386 6abb b0b9 4c3f
000002c0: d63f 7dbe cb37 843f 1f7b 05bf eeff 433f
000002d0: 82dd 863f fbb1 813e 9bec 5e3f 3e2a 363f
0.8692359 0.92736846 0.31170702 0.4559244 0.8573295 0.61602086 0.9727864 0.71331894
-0.5755351 0.9086139 0.8220999 0.30190942 0.8701233 0.87261546 0.7241163 -0.25116536
-1.399275 0.89095515 -0.31055108 0.84543604 -0.5665453 -0.13145989 -0.48181444 0.886472
-0.30632257 0.2333089 -0.0987025 0.168211 0.52273846 0.85813516 0.7665782 1.1019834
0.92647356 0.19328853 1.0231318 -1.3986104 0.9093435 0.8038775 -0.6947305 -0.8034352
0.4330552 -0.7798216 0.77874166 0.8580306 -0.115210876 0.7772315 1.0359055 -0.07300188
0.2680964 0.76531506 0.8740205 0.9784459 0.78896195 -0.4472094 0.99336106 1.0262043
0.9582859 0.8552539 0.865194 0.8939967 0.8233592 0.06964842 0.4757214 0.9387235
0.85322744 0.81281406 0.9411031 0.9816953 0.73544306 -0.1490796 0.8302305 0.97382146
0.6167753 0.8970473 0.31442672 0.1283719 1.0030562 0.66258734 0.47416168 -0.04418246
0.48953405 0.78229225 0.9043185 0.40318224 0.69663626 0.77385575 -0.4544792 -0.19293965
0.6187306 -0.15419565 0.8143075 0.92935854 0.75014985 0.8864811 0.17820776 -1.8065537
-0.3737815 0.8526477 -0.020860162 0.9050855 0.654395 0.07008249 0.86634463 0.8038019
0.8736809 0.8666941 0.86698836 0.3753947 0.72301537 0.8817271 -0.4027037 1.0347855
0.9779641 0.640574 0.9357759 0.24609405 -0.12354051 0.90086025 0.2821077 0.74569666
0.09948841 1.0896153 0.14840566 -1.7108445 0.82846886 0.08464291 0.09167041 -1.0193113
0.7022714 0.6757041 -0.1581166 0.73533034 0.62595433 0.7658393 0.9550529 0.78670573
0.5854259 0.67533404 1.0831698 0.8825143 0.89265954 0.6637186 0.6281891 0.81853396
1.0202825 0.88717324 -0.5143846 0.6727794 0.99048346 0.5537287 0.54709494 0.06354198
0.19581674 1.0260237 0.14476404 -0.0402445 0.77458274 0.9804604 0.124362335 0.590177
-0.054153327 -0.6065942 0.86362445 -0.2709717 0.1366067 0.6736773 0.0060845525 -0.14145124
0.77188194 0.8925865 0.8620055 0.23123726 0.52316034 0.8299118 -0.0035785853 0.79970837
-0.24731383 1.0329527 -0.5214099 0.7656239 1.0536349 0.253311 0.8707978 0.71158206

1.l3.weight f4 [1, 184]
00000000: 51f0 b1bd a92f c43c 2325 a1be f632 1e3e
00000010: 194f 99bd d23e 43bd 7d6b a13d 1ce6 a8bd
00000020: 7884 3a3c d260 80bd f8b3 9bbd 6343 65be
00000030: 4810 863d d26a 82bd 9dfc d73d 13b0 773f
00000040: 9961 b93d 6f03 2fbd 453c 4b3b 8bc0 3fbd
00000050: 9c97 55bc abf8 0cbd 3e4d c0bb 106e 5c3d
00000060: d7f6 04bc bb40 a8bf d81f 2a3d 5fee 62c0
00000070: 09b0 823e a500 29bd 0942 69bd 6d66 7f3d
00000080: c202 ee3c 1399 1cbf fd6d 803d f14c cb3d
00000090: ab4d e83d 8808 853d 1c86 7b3e 0e30 79ba
000000a0: 28c0 5cbc fd88 8fbb c29b b5bc 0138 75bd
000000b0: 2c81 61c0 9668 84bd 1af2 5c3d 31a5 68c0
000000c0: 02ae 26be 1927 fdbc 8e77 d43d 670d 713d
000000d0: 16a5 30be f70e 253a 10f0 993d 6e2b b53d
000000e0: 3ee5 f1bc 6132 4abd dcf2 67bd 54bf ae3d
000000f0: 3cf8 80bd 76d3 20c0 0163 493e 2120 ac3d
00000100: d29c 9dbd c6ea 3ebd 2313 9c3d 492f d63d
00000110: 4073 b2bd 6fd6 7040 fe4b 51bd eea3 aa3d
00000120: 46e9 7c3c c057 8ebd 016c 8b3f 832f 5bc0
00000130: 8dea 08bd e8f8 0dbe 78fe 1f3e a8e9 d7bf
00000140: 5c97 4abf c59d cd3c 56e4 28bd 2549 283f
00000150: 9d1b b6bd ec54 d5bc 3450 dcba 9d01 19bd
00000160: 8fe5 183e 2b09 2040 ebda 12bd 468d 45bd
00000170: 09ab 063e 7c78 a9bd fcf2 8c3f 1eca 913e
00000180: c63d aebb 0ff8 7dbd 5fee ffc0 7631 46bd
00000190: ca0b 96bc 991e 23c0 1a03 923d a9b4 e03d
000001a0: e2e3 db3d 296d 2cbd d7ff f4bc fb75 81bf
000001b0: 5d6f 053d a5a6 c5bd 4223 ae3c c36a 603d
000001c0: 83fd ac3d c051 863d 9f3c a83d c722 4ac0
000001d0: 32bd 1d3d 515d 3ebd cb61 3ebe 6fec c93d
000001e0: 6e39 9e3f 8d40 103d 5bb7 7c3f 7515 a3bd
000001f0: ec4d 60bd adad 3dc0 d1ae 543f 33ce 8dbc
00000200: 8693 abbc b2f9 a23d a52e abbf 404b b83d
00000210: 9ff7 6fbd f740 543d 6ccf d6bc fdf4 993d
00000220: 8eb4 f63d fc4c 5ebe 93d1 9d3d 06eb 2cbd
00000230: 0ff0 a73c 8369 0e3e 1f98 8bbe 5c8c 11bd
00000240: 50e3 473d f70a 86bd 81d8 cc3b 84f7 b1bc
00000250: 6e55 ca3d 4d00 73bc f654 9ebe 3db2 16c0
00000260: 277b cfbf 2ec0 443d 73af 70c0 7782 c2be
00000270: e29f 70bc ca8d c63d 106b 3640 875a ab3d
00000280: 899b e4c0 0dfd 70bb 37b7 25bd d3b6 c93f
00000290: a7df f9bf 9f35 ce3d d575 11c0 6dfc 443d
000002a0: 9a70 a1bd b8cb 45bd 3ff6 91bd a3ab abbf
000002b0: f8d0 6a3e b1cc 03bd e051 7ec0 c7a5 83bd
000002c0: bb8b ca3a 079c 8c3d 4c54 a53f d2cb 75bd
000002d0: acb1 843d dac8 51bf 0d01 8abd 98d4 873d
-0.08688415 0.023948507 -0.31473646 0.15449128 -0.0748579 -0.047667332 0.0788183 -0.08247015
0.011384122 -0.06268467 -0.07602686 -0.22388987 0.06546074 -0.063680306 0.10546229 0.9675304
0.090518184 -0.042727884 0.0031011265 -0.046814483 -0.013036635 -0.034416836 -0.005868583 0.0538159
-0.008115492 -1.3144754 0.041534275 -3.545799 0.2552493 -0.04126038 -0.05694774 0.06235354
0.02905405 -0.6117107 0.062709786 0.09926785 0.11342939 0.06495768 0.24562877 -0.0009505757
-0.013473548 -0.004380344 -0.022168998 -0.059867863 -3.523509 -0.06465261 0.053941824 -3.6350825
-0.16277316 -0.030902432 0.10374366 0.058850672 -0.17250475 0.00062964804 0.075164914 0.08846174
-0.029528257 -0.04936445 -0.056628093 0.08532587 -0.06297347 -2.5129066 0.19666673 0.084045656
-0.07695927 -0.046610616 0.076208375 0.10458238 -0.087133884 3.763088 -0.051097862 0.08332048
0.015436476 -0.06950331 1.0892335 -3.424775 -0.03342681 -0.13864481 0.15624416 -1.6868181
-0.79137206 0.025099644 -0.041233383 0.6573661 -0.088919856 -0.02604147 -0.001680857 -0.037355054
0.1493132 2.5005596 -0.035853308 -0.048230432 0.13151182 -0.08274934 1.1011653 0.28474516
-0.0053174226 -0.062004145 -7.997848 -0.048387013 -0.018316168 -2.5487425 0.07129498 0.10971958
0.107368246 -0.04209629 -0.02990715 -1.011413 0.032576907 -0.096509255 0.021257047 0.054789316
0.08446791 0.06558561 0.082146876 -3.1583726 0.03851051 -0.046475712 -0.18591993 0.09859549
1.2361276 0.03521781 0.9871728 -0.07963077 -0.054761812 -2.9637253 0.8307925 -0.017310238
-0.020944368 0.07957782 -1.337361 0.08998728 -0.05858576 0.051819768 -0.026221953 0.07517431
0.12046157 -0.21709055 0.07705989 -0.042216323 0.020500211 0.13907437 -0.27264497 -0.035534248
0.048800766 -0.0654506 0.006251395 -0.02172447 0.09879576 -0.014831615 -0.30924195 -2.3546288
-1.6209458 0.04803484 -3.7607086 -0.37990162 -0.0146865565 0.09695013 2.8502846 0.08366876
-7.143986 -0.0036771924 -0.04045793 1.5758919 -1.9521378 0.10068821 -2.272817 0.048092294
-0.07882805 -0.048289984 -0.07127046 -1.3411754 0.22931278 -0.03217763 -3.9737473 -0.06428104
0.001545302 0.06865697 1.291635 -0.06000883 0.06479201 -0.819471 -0.06738482 0.06632346
