ergoCubSN001/friction_pinn/2_rhp_b4551_h18.onnx (onnx, 267113 bytes, 7 tensors)

0.weight f4 [36, 36]
0.18829857 0.0 0.0 0.0 0.0 0.0 0.0 0.0
0.0 0.0 0.0 0.0 0.0 0.0 0.0 0.0
0.0 0.0 0.0 0.0 0.0 0.0 0.0 0.0
0.0 0.0 0.0 0.0 0.0 0.0 0.0 0.0
0.0 0.0 0.0 0.0 0.0 0.1882886 0.0 0.0
0.0 0.0 0.0 0.0 0.0 0.0 0.0 0.0
0.0 0.0 0.0 0.0 0.0 0.0 0.0 0.0
0.0 0.0 0.0 0.0 0.0 0.0 0.0 0.0
0.0 0.0 0.0 0.0 0.0 0.0 0.0 0.0
0.0 0.0 0.18836372 0.0 0.0 0.0 0.0 0.0
0.0 0.0 0.0 0.0 0.0 0.0 0.0 0.0
0.0 0.0 0.0 0.0 0.0 0.0 0.0 0.0
0.0 0.0 0.0 0.0 0.0 0.0 0.0 0.0
0.0 0.0 0.0 0.0 0.0 0.0 0.0 0.18842523
0.0 0.0 0.0 0.0 0.0 0.0 0.0 0.0
0.0 0.0 0.0 0.0 0.0 0.0 0.0 0.0
0.0 0.0 0.0 0.0 0.0 0.0 0.0 0.0
0.0 0.0 0.0 0.0 0.0 0.0 0.0 0.0
0.0 0.0 0.0 0.0 0.18847483 0.0 0.0 0.0
0.0 0.0 0.0 0.0 0.0 0.0 0.0 0.0
0.0 0.0 0.0 0.0 0.0 0.0 0.0 0.0
0.0 0.0 0.0 0.0 0.0 0.0 0.0 0.0
0.0 0.0 0.0 0.0 0.0 0.0 0.0 0.0
0.0 0.18851896 0.0 0.0 0.0 0.0 0.0 0.0
0.0 0.0 0.0 0.0 0.0 0.0 0.0 0.0
0.0 0.0 0.0 0.0 0.0 0.0 0.0 0.0
0.0 0.0 0.0 0.0 0.0 0.0 0.0 0.0
0.0 0.0 0.0 0.0 0.0 0.0 0.18849212 0.0
0.0 0.0 0.0 0.0 0.0 0.0 0.0 0.0
0.0 0.0 0.0 0.0 0.0 0.0 0.0 0.0
0.0 0.0 0.0 0.0 0.0 0.0 0.0 0.0
0.0 0.0 0.0 0.0 0.0 0.0 0.0 0.0
00000000: 57d1 403e 0000 0000 0000 0000 0000 0000
00000010: 0000 0000 0000 0000 0000 0000 0000 0000
00000020: 0000 0000 0000 0000 0000 0000 0000 0000
00000030: 0000 0000 0000 0000 0000 0000 0000 0000
00000040: 0000 0000 0000 0000 0000 0000 0000 0000
00000050: 0000 0000 0000 0000 0000 0000 0000 0000
00000060: 0000 0000 0000 0000 0000 0000 0000 0000
00000070: 0000 0000 0000 0000 0000 0000 0000 0000
00000080: 0000 0000 0000 0000 0000 0000 0000 0000
00000090: 0000 0000 bace 403e 0000 0000 0000 0000
000000a0: 0000 0000 0000 0000 0000 0000 0000 0000
000000b0: 0000 0000 0000 0000 0000 0000 0000 0000
000000c0: 0000 0000 0000 0000 0000 0000 0000 0000
000000d0: 0000 0000 0000 0000 0000 0000 0000 0000
000000e0: 0000 0000 0000 0000 0000 0000 0000 0000
000000f0: 0000 0000 0000 0000 0000 0000 0000 0000
00000100: 0000 0000 0000 0000 0000 0000 0000 0000
00000110: 0000 0000 0000 0000 0000 0000 0000 0000
00000120: 0000 0000 0000 0000 6be2 403e 0000 0000
00000130: 0000 0000 0000 0000 0000 0000 0000 0000
00000140: 0000 0000 0000 0000 0000 0000 0000 0000
00000150: 0000 0000 0000 0000 0000 0000 0000 0000
00000160: 0000 0000 0000 0000 0000 0000 0000 0000
00000170: 0000 0000 0000 0000 0000 0000 0000 0000
00000180: 0000 0000 0000 0000 0000 0000 0000 0000
00000190: 0000 0000 0000 0000 0000 0000 0000 0000
000001a0: 0000 0000 0000 0000 0000 0000 0000 0000
000001b0: 0000 0000 0000 0000 0000 0000 8bf2 403e
000001c0: 0000 0000 0000 0000 0000 0000 0000 0000
000001d0: 0000 0000 0000 0000 0000 0000 0000 0000
000001e0: 0000 0000 0000 0000 0000 0000 0000 0000
000001f0: 0000 0000 0000 0000 0000 0000 0000 0000
00000200: 0000 0000 0000 0000 0000 0000 0000 0000
00000210: 0000 0000 0000 0000 0000 0000 0000 0000
00000220: 0000 0000 0000 0000 0000 0000 0000 0000
00000230: 0000 0000 0000 0000 0000 0000 0000 0000
00000240: 0000 0000 0000 0000 0000 0000 0000 0000
00000250: 8cff 403e 0000 0000 0000 0000 0000 0000
00000260: 0000 0000 0000 0000 0000 0000 0000 0000
00000270: 0000 0000 0000 0000 0000 0000 0000 0000
00000280: 0000 0000 0000 0000 0000 0000 0000 0000
00000290: 0000 0000 0000 0000 0000 0000 0000 0000
000002a0: 0000 0000 0000 0000 0000 0000 0000 0000
000002b0: 0000 0000 0000 0000 0000 0000 0000 0000
000002c0: 0000 0000 0000 0000 0000 0000 0000 0000
000002d0: 0000 0000 0000 0000 0000 0000 0000 0000
000002e0: 0000 0000 1d0b 413e 0000 0000 0000 0000
000002f0: 0000 0000 0000 0000 0000 0000 0000 0000
00000300: 0000 0000 0000 0000 0000 0000 0000 0000
00000310: 0000 0000 0000 0000 0000 0000 0000 0000
00000320: 0000 0000 0000 0000 0000 0000 0000 0000
00000330: 0000 0000 0000 0000 0000 0000 0000 0000
00000340: 0000 0000 0000 0000 0000 0000 0000 0000
00000350: 0000 0000 0000 0000 0000 0000 0000 0000
00000360: 0000 0000 0000 0000 0000 0000 0000 0000
00000370: 0000 0000 0000 0000 1404 413e 0000 0000
00000380: 0000 0000 0000 0000 0000 0000 0000 0000
00000390: 0000 0000 0000 0000 0000 0000 0000 0000
000003a0: 0000 0000 0000 0000 0000 0000 0000 0000
000003b0: 0000 0000 0000 0000 0000 0000 0000 0000
000003c0: 0000 0000 0000 0000 0000 0000 0000 0000
000003d0: 0000 0000 0000 0000 0000 0000 0000 0000
000003e0: 0000 0000 0000 0000 0000 0000 0000 0000
000003f0: 0000 0000 0000 0000 0000 0000 0000 0000

0.bias f4 [36]
-0.00820992 -0.008273441 -0.00833491 -0.008410793 -0.008491613 -0.00857613 -0.008634152 -0.00870266
-0.008771406 -0.008837655 -0.008908887 -0.008954643 -0.008994388 -0.009020313 -0.009039558 -0.009052425
-0.009063151 -0.009058914 0.0070982915 0.007076885 0.007054163 0.0070338766 0.0070092897 0.0069853566
0.006957572 0.006933316 0.006908883 0.0068846955 0.00686644 0.0068448973 0.0068226685 0.006804401
0.00678553 0.006766963 0.006749055 0.006732002
00000000: e682 06bc 548d 07bc 258f 08bc 6ccd 09bc
00000010: 6820 0bbc e582 0cbc 4276 0dbc 9a95 0ebc
00000020: f1b5 0fbc d0cb 10bc 95f6 11bc 7fb6 12bc
00000030: 335d 13bc efc9 13bc a71a 14bc 9f50 14bc
00000040: 9c7d 14bc d76b 14bc c998 e83b 37e5 e73b
00000050: 9c26 e73b 6f7c e63b 2fae e53b 6be5 e43b
00000060: 58fc e33b df30 e33b e963 e23b 0399 e13b
00000070: e0ff e03b 294b e03b b190 df3b 74f7 de3b
00000080: 2759 de3b 66bd dd3b 2d27 dd3b 2098 dc3b

1.l0.weight f4 [277, 36]
-0.09973278 0.07087891 -0.012924963 0.04466941 -0.121321775 0.16633758 0.194647 0.112981334
0.09278635 0.03493092 -0.015351704 0.118436694 0.12890866 -0.15196581 -0.17342807 -0.035495
-0.08488903 -0.15679868 0.010953632 0.09404467 -0.07784822 0.015861688 0.14340928 -0.18546572
-0.07965135 -0.13630004 0.030888418 0.062104125 0.03478022 -0.10253623 0.0784352 -0.13151567
-0.07210631 -0.01809462 0.14792837 0.16143349 0.0771114 -0.04529143 0.073729016 -0.04399553
0.087682106 -0.048906438 0.07434637 0.021349648 0.16037732 -0.09781239 -0.10774415 0.0718004
-0.08646204 -0.08081195 0.11786713 0.14633505 0.04674364 -0.014972276 -0.0068330583 -0.19831976
-0.19321841 0.07124224 -0.08239325 -0.19712014 -0.10071906 -0.1602584 -0.0993055 -0.063364945
-0.11998436 0.14949574 0.18993926 0.13740496 -0.050721727 0.14687474 0.05836953 0.13708623
0.14558013 -0.10132652 0.1527129 0.16780666 0.15625674 -0.078954995 0.09793581 -0.058128115
0.07906421 -0.23208256 -0.05205608 -0.23806226 -0.19678238 -0.14418979 0.043622088 0.010334144
0.17376378 0.1670264 -0.026013179 -0.15631038 -0.11468695 0.017975155 -0.11767024 0.09263395
0.027267015 -0.09315414 -0.0005399995 0.0019796344 -0.12772052 0.1223014 0.16638614 -0.13568184
0.09817362 0.16276139 0.14055407 -0.14339468 -0.11007835 0.12291037 -0.04960785 -0.1307079
0.13692103 0.053589273 0.016909817 -0.008740604 0.08265096 -0.12964886 0.12096314 -0.14248404
-0.09928005 0.10423175 -0.14248736 -0.12645932 0.13598059 0.095986 0.05872092 0.07178759
0.01630692 0.10899419 -0.07270133 0.035614267 -0.1614304 0.122231536 -0.19948514 -0.08569995
0.052598014 -0.09079502 0.057494417 0.10897306 -0.09997691 -0.13842759 0.16401747 0.13613641
0.15467267 -0.11855744 0.048048478 0.11232905 -0.040347107 0.14521495 0.00998873 0.10228006
0.13092315 -0.07190324 -0.047051106 -0.05278803 0.011134858 -0.031806394 -0.013106031 -0.17606002
0.11978979 -0.034951165 0.23463275 0.0012694426 -0.12730862 0.03851971 0.08987685 -0.012313304
-0.15793185 -0.03841779 -0.07739301 0.06909515 0.02081098 0.074955344 -0.1084615 0.033870105
-0.119438976 -0.012868766 0.09647521 -0.099667735 -0.10655944 -0.24293022 0.01526891 -0.13686024
-0.1426018 -0.09100404 -0.03280942 -0.1560379 -0.08028708 0.032949653 -0.08694667 -0.0149388425
0.04671901 -0.09162686 -0.114442356 0.01043331 -0.12485464 0.009085936 -0.16767691 -0.07676329
0.06735364 -0.0495672 0.11736148 0.189815 0.15007424 -0.04182682 0.15191957 0.098538235
0.09517851 0.06267976 -0.021094851 0.01007888 0.16184178 0.0032213738 0.18223551 0.06003519
-0.13520436 -0.21298885 -0.18485072 0.013934987 -0.036752068 -0.0055629746 0.046974048 -0.026983753
0.1663328 0.11122118 -0.040829614 -0.023917746 0.061925773 -0.076997034 -0.107455224 0.1284506
-0.014006965 -0.11936379 0.20064883 0.17986852 0.26384583 0.121278636 0.22265995 0.023489488
-0.05663014 0.113557644 -0.15681629 -0.03395296 0.034217507 0.07072112 0.08323258 -0.19015935
-0.2162806 -0.20813434 0.045521665 -0.14786394 -0.037599605 -0.056293603 -0.119991034 -0.10595013
00000000: b340 ccbd f628 913d 39c3 53bc 45f7 363d
00000010: 8d77 f8bd 6654 2a3e 8b51 473e c262 e73d
00000020: c506 be3d b913 0f3d b785 7bbc f08e f23d
00000030: a200 043e ed9c 1bbe 2197 31be 3563 11bd
00000040: 4dda adbd d58f 20be dd76 333c 7e9a c03d
00000050: e36e 9fbd 5ff0 813c e2d9 123e baea 3dbe
00000060: 3f20 a3bd 3d92 0bbe b509 fd3c e560 7e3d
00000070: b475 0e3d 84fe d1bd a2a2 a03d 0bac 06be
00000080: 79ac 93bd 2b3b 94bc 897a 173e d24e 253e
00000090: 95ec 9d3d 8283 39bd 3dff 963d a834 34bd
000000a0: ad92 b33d 1e52 48bd e942 983d 75e5 ae3c
000000b0: f439 243e dd51 c8bd f7a8 dcbd 170c 933d
000000c0: 0313 b1bd bc80 a5bd 5264 f13d dbd8 153e
000000d0: 4276 3f3d 474e 75bc d9e7 dfbb 5614 4bbe
000000e0: 0cdb 45be 74e7 913d cbbd a8bd ddd9 49be
000000f0: cb45 cebd c71a 24be af60 cbbd 7bc5 81bd
00000100: 5cba f5bd 6915 193e 707f 423e e3b3 0c3e
00000110: 96c1 4fbd 5566 163e e314 6f3d 5560 0c3e
00000120: f512 153e 4784 cfbd c560 1c3e 82d5 2b3e
00000130: c401 203e 28b3 a1bd 9292 c83d bf17 6ebd
00000140: 6bec a13d 0da7 6dbe c238 55bd 98c6 73be
00000150: 5281 49be 7da6 13be 13ad 323d 8b50 293c
00000160: 22ef 313e f808 2b3e 9719 d5bc d40f 20be
00000170: fee0 eabd a240 933c 18fd f0bd deb6 bd3d
00000180: 135f df3c 99c7 bebd c18e 0dba c1bc 013b
00000190: 2bc9 02be 2879 fa3d 2161 2a3e 2ef0 0abe
000001a0: 400f c93d ecaa 263e 68ed 0f3e 0ed6 12be
000001b0: c270 e1bd 6fb8 fb3d 9a31 4bbd 4bd8 05be
000001c0: 0735 0c3e 6d80 5b3d 7586 8a3c c034 0fbc
000001d0: e844 a93d acc2 04be 86bb f73d 56e7 11be
000001e0: 5753 cbbd 7577 d53d 35e8 11be 8d7e 01be
000001f0: 7f3e 0b3e 4f94 c43d 5985 703d 5f05 933d
00000200: 1796 853c 5938 df3d 6fe4 94bd 44e0 113d
00000210: 034e 25be 8754 fa3d d545 4cbe 7583 afbd
00000220: 0471 573d bdf2 b9bd 447f 6b3d 452d df3d
00000230: b2c0 ccbd f6bf 0dbe 32f4 273e 5867 0b3e
00000240: 8362 1e3e 3ece f2bd 7bce 443d c60c e63d
00000250: 0243 25bd 3ab3 143e c5a7 233c 3578 d13d
00000260: b810 063e 0242 93bd a9b8 40bd 4338 58bd
00000270: fb6e 363c 6c47 02bd aeba 56bc 1449 34be
00000280: 5954 f53d f428 0fbd 9143 703e 6d63 a63a
00000290: 315d 02be d8c6 1d3d 5b11 b83d bdbd 49bc
000002a0: e3b8 21be f95b 1dbd 3a80 9ebd c281 8d3d
000002b0: ca7b aa3c 3082 993d 1021 debd 61bb 0a3d
000002c0: 6c9c f4bd 84d7 52bc cb94 c53d 991e ccbd
000002d0: d63b dabd b3c2 78be 732a 7a3c 1725 0cbe
000002e0: 3506 12be 5360 babd 2c63 06bd 66c8 1fbe
000002f0: 8d6d a4bd 37f6 063d 1911 b2bd 0cc2 74bc
00000300: 6f5c 3f3d dda6 bbbd c160 eabd 79f0 2a3c
00000310: cab3 ffbd 2ddd 143c 7fb3 2bbe 1236 9dbd
00000320: b5f0 893d fa06 4bbd 375b f03d dd5e 423e
00000330: 10ad 193e 9952 2bbd ce90 1b3e 6ace c93d
00000340: f3ec c23d 3f5e 803d 1ccf acbc e321 253c
00000350: dab9 253e af1d 533b f29b 3a3e 76e7 753d
00000360: 0373 0abe c019 5abe 8249 3dbe 924f 643c
00000370: 5689 16bd 9d49 b6bb dc67 403d 080d ddbc
00000380: 2553 2a3e eec7 e33d f43c 27bd 26ef c3bc
00000390: e1a5 7d3d 9fb0 9dbd 7c11 dcbd 8e88 033e
000003a0: 787d 65bc 0175 f4bd e376 4d3e 742f 383e
000003b0: cd16 873e ef60 f83d f800 643e 076d c03c
000003c0: 01f5 67bd e990 e83d 7394 20be 4212 0bbd
000003d0: a827 0c3d 3cd6 903d d875 aa3d 22b9 42be
000003e0: a978 5dbe 2b21 55be ed74 3a3d a569 17be
000003f0: 0b02 1abd 1f94 66bd dcbd f5bd 62fc d8bd

1.l0.bias f4 [277]
-0.6592693 0.03446958 0.0014002328 0.013717964 -0.8093898 0.06249152 0.03803321 0.06374707
0.009454955 -0.6757119 -0.6827441 -0.3492079 0.01614485 -0.6344028 0.04100995 -0.37240496
-0.4931143 -0.8371748 0.021572763 0.009329055 -0.776335 -0.31956682 -0.7882257 0.01286512
0.010888728 0.00755281 0.0077330926 0.008833565 -0.23706418 -0.8563788 0.01984799 0.0044250344
0.0010967671 0.03950433 -0.2601046 0.036693536 -0.8373216 0.006467496 -0.059809994 -0.018384432
0.07794846 -0.22797959 0.011342652 0.024177002 0.024546841 0.006888549 -0.821134 -1.1747161
-0.7746515 0.036228266 -0.0039040612 0.011552539 -0.969155 -0.20852946 -0.16213152 0.014611709
-0.69013935 0.015096156 -0.59866333 0.017335806 -0.24225414 0.02109473 0.008502818 0.011978834
-0.08730668 0.0108452095 0.03458177 -0.002049063 -0.00923436 0.008481732 -0.0038491494 0.027842278
-0.0064477804 -0.69600874 -0.014592253 -0.83615214 0.035760406 -0.00630089 -0.14779174 0.049726002
-0.5746106 -0.0029241159 -0.0019656639 -0.62470865 0.03926041 0.009578609 0.01763199 0.029210623
-0.6795275 -0.46695036 -0.013002996 -0.009032035 0.043596968 -0.0010701065 -0.8197659 0.025527095
0.027735017 0.024971351 0.0127151385 -0.0017221426 0.013655766 0.08192567 0.034407973 -0.009715544
0.03381951 0.012723937 0.04292186 0.016562339 0.02883993 -0.008935723 0.02736379 0.020223262
0.030009426 -0.14418565 -0.10551758 -1.2204499 0.005829052 -0.77002996 -0.1533661 0.0041068625
0.012291581 0.005751057 -0.02530183 -0.6786613 0.1090111 0.045346268 -0.73040366 0.012618384
0.017016701 -0.03378748 0.01860016 -0.30387276 -0.22082458 0.02668533 -0.38518763 -0.24656966
0.031228187 0.033802215 0.08340478 -0.005495309 0.05687238 -1.0479983 0.0135967955 -0.0015054513
-0.65710866 -0.042768944 0.018878419 0.022521034 0.066236176 0.0069966554 -0.04939375 0.019558318
-0.4750057 0.059612688 -0.40195656 -0.054595895 0.024260104 -0.007893261 0.009451312 -0.0028915424
-0.6573635 -0.02049339 -0.2986252 0.071596906 0.04823297 0.0459483 -0.23430133 0.10461953
-0.07423314 -0.52968556 0.18015042 0.022700688 -0.9154062 0.034002773 -0.60134846 -0.61657554
-0.53455037 -0.59437114 -0.001426419 0.08049249 0.008924241 0.009467102 0.0018646299 0.044547398
-0.5661236 0.044117965 0.06872331 0.00719275 -0.49088278 -0.079118766 -0.34228975 -0.34217092
0.00818886 0.01928967 0.020615894 -0.029411988 0.03325441 0.012590455 -0.1037955 -0.004196386
0.09148007 -0.0065995497 0.039728124 0.044687156 0.07030656 -0.026533915 0.026027398 0.008841449
-0.34773004 0.01611341 -0.6533557 0.0038023412 0.00047047006 0.055840082 -0.10432692 -0.20330742
0.022313548 0.08858404 0.038172804 0.012748966 0.013993255 -0.11350325 0.044032637 -0.15715703
-0.0042490913 0.0058692982 0.04297251 -0.6171233 -0.7331133 0.23539805 0.010720591 -0.009300713
0.04606428 0.011268819 -0.09583968 0.008590285 0.054250363 0.03875348 0.028931929 0.07708385
0.015806923 0.009207961 -0.83600736 0.008321748 0.0069566523 -0.0005996706 -0.24326602 0.007917599
0.009206535 0.03818388 0.013654162 0.014018609 0.024786007 0.0011964004 -0.83514154 0.03003523
00000000: dfc5 28bf f92f 0d3d 0488 b73a 50c1 603c
00000010: 2c34 4fbf 1cf7 7f3d b6c8 1b3d d38d 823d
00000020: f5e8 1a3c 75fb 2cbf 51c8 2ebf 61cb b2be
00000030: 3442 843c 3968 22bf 0dfa 273d ddab bebe
00000040: 7a79 fcbe 1651 56bf 5db9 b03c e5d8 183c
00000050: e4bd 46bf 439e a3be 29c9 49bf 39c8 523c
00000060: a366 323c 907d f73b e265 fd3b a8ba 103c
00000070: f4c0 72be a43b 5bbf 4098 a23c e1ff 903b
00000080: 66c1 8f3a 4bcf 213d 6e2c 85be f64b 163d
00000090: b55a 56bf 4aed d33b 53fb 74bd f39a 96bc
000000a0: 71a3 9f3d 7b73 69be 88d6 393c d90e c63c
000000b0: 7516 c93c 56b9 e13b d635 52bf 195d 96bf
000000c0: 904f 46bf 1764 143d 47db 7fbb dc46 3d3c
000000d0: 8b1a 78bf bf88 55be ce05 26be f365 6f3c
000000e0: f9ac 30bf de55 773c 0042 19bf d203 8e3c
000000f0: 7811 78be dbce ac3c 674f 0b3c df42 443c
00000100: d8cd b2bd 1bb0 313c 9da5 0d3d 9349 06bb
00000110: b74b 17bc f6f6 0a3c 0342 7cbb 7d15 e43c
00000120: e747 d3bb a12d 32bf 5814 6fbc 110e 56bf
00000130: 8179 123d b277 cebb b856 17be 7ead 4b3d
00000140: ae19 13bf 86a2 3fbb 5ed2 00bb e8ec 1fbf
00000150: 86cf 203d 99ef 1c3c f770 903c 1e4b ef3c
00000160: 84f5 2dbf 1e14 efbe 850a 55bc 1afb 13bc
00000170: bc92 323d d142 8cba 2edc 51bf 331e d13c
00000180: 8c34 e33c b890 cc3c 2853 503c 84b9 e1ba
00000190: 6fbc 5f3c a5c8 a73d 60ef 0c3d f22d 1fbc
000001a0: 5486 0a3d 0f78 503c d5ce 2f3d bead 873c
000001b0: b841 ec3c 2467 12bc 072a e03c 41ab a53c
000001c0: 54d6 f53c 67a5 13be 9a19 d8bd b437 9cbf
000001d0: a201 bf3b af20 45bf 010c 1dbe dc92 863b
000001e0: a162 493c 5d73 bc3b c945 cfbc bfbc 2dbf
000001f0: 3641 df3d 02bd 393d bcfb 3abf 57bd 4e3c
00000200: 9c66 8b3c be64 0abd 5d5f 983c 3695 9bbe
00000210: d71f 62be 319b da3c 5037 c5be c27c 7cbe
00000220: 41d2 ff3c 3174 0a3d 20d0 aa3d fe11 b4bb
00000230: 03f3 683d cf24 86bf 18c5 5e3c 9052 c5ba
00000240: 4638 28bf 7d2e 2fbd eaa6 9a3c 087e b83c
00000250: d5a6 873d 3344 e53b 1a51 4abd c438 a03c
00000260: f233 f3be 6f2c 743d 40cd cdbe f29f 5fbd
00000270: 20bd c63c bc52 01bc add9 1a3c 0880 3dbb
00000280: f948 28bf c1e1 a7bc 67e5 98be 66a1 923d
00000290: ef8f 453d 4934 3c3d b0ec 6fbe c442 d63d
000002a0: 8b07 98bd 7999 07bf 5a79 383e cbf6 b93c
000002b0: 1058 6abf 7e46 0b3d f9f1 19bf e5d7 1dbf
000002c0: 4bd8 08bf b528 18bf aef6 baba 3fd9 a43d
000002d0: fb36 123c e71b 1b3c 9966 f43a 5577 363d
000002e0: 7aed 10bf 0ab5 343d cfbe 8c3d 29b1 eb3b
000002f0: fd54 fbbe 0509 a2bd 9a40 afbe 0731 afbe
00000300: 912a 063c 5f05 9e3c aae2 a83c 69f1 f0bc
00000310: c735 083d 3248 4e3c bc92 d4bd d681 89bb
00000320: e759 bb3d 0941 d8bb f5b9 223d e109 373d
00000330: e3fc 8f3d a75d d9bc 6937 d53c badb 103c
00000340: ac09 b2be 4500 843c 5242 27bf b330 793b
00000350: 6ca9 f639 92b8 643d 5aa9 d5bd d22f 50be
00000360: e7ca b63c 8d6b b53d 165b 1c3d 0ae1 503c
00000370: f743 653c 6474 e8bd 915b 343d c6ed 20be
00000380: f63b 8bbb 3e53 c03b f103 303d cbfb 1dbf
00000390: 50ad 3bbf 300c 713e 6ba5 2f3c 0562 18bc
000003a0: e6ad 3c3d daa0 383c 9847 c4bd 44be 0c3c
000003b0: a135 5e3d f8bb 1e3d a702 ed3c 23de 9d3d
000003c0: 857d 813c fddc 163c 9404 56bf f157 083c
000003d0: a1f4 e33b 3633 1dba ba1a 79be d1b8 013c
000003e0: 02d7 163c b366 1c3d b5b5 5f3c 4fae 653c
000003f0: 060c cb3c 89d0 9c3a d6cb 55bf 710c f63c

1.l1.weight f4 [197, 277]
0.010299995 0.02022102 0.15247543 -0.043197982 -0.05996845 0.018917345 -0.046644993 -0.01249256
0.03873325 0.025895426 0.00506288 0.18655375 -0.2598684 -0.23329543 0.010666428 -0.03534882
-0.047544036 0.9241773 -0.005658413 0.18390352 -0.101213746 -0.20427817 0.055504512 -0.07649485
-0.11261534 -0.6869343 -0.14614676 -0.23127113 0.03345018 -0.08781096 -0.0870776 -0.07789518
0.03705543 0.08673936 -0.3650374 0.051240712 0.6700816 -0.027893575 0.006139265 -0.41236794
0.07784965 -0.039540082 0.00050462974 -0.06793232 0.032880157 0.04053366 0.0045251986 -0.13361147
-0.018588152 0.015285555 0.23562717 -0.025318615 -0.84366614 0.11060466 -0.7195392 0.06420398
0.038788926 -0.010840538 -1.3131741 -0.04148228 0.021679632 0.05008363 0.004922092 0.06868171
1.4015955 -0.10018766 0.0032453528 0.010185611 -1.5536312 0.0064978725 -0.03312993 0.07725747
0.010636551 -0.47968805 -0.05033694 -1.7138748 -0.08056918 -0.37925738 -0.046063486 -0.008297487
0.046118263 -1.1531451 -0.681078 -0.24303837 0.004552544 -0.10661688 -0.0923551 0.06791792
-0.029689537 -0.023391064 -0.2285695 -0.5533009 -0.03611108 0.03419688 0.097642735 -0.17357124
-0.030166948 -0.14696945 0.0022411356 -0.01338229 -0.095428444 0.06748008 0.07735122 0.045524426
-0.22978067 -0.13378315 -0.08249998 0.013216522 -0.006550871 0.26534545 -0.060438804 -0.13255379
0.06870521 0.022422789 0.024780909 0.068842575 0.022843424 1.3141769 -0.3012133 -1.0302474
-0.04402362 -0.79517925 -0.23121926 -0.0361003 0.0642995 0.012105218 -0.023947628 -0.096799105
-0.12528698 -1.0996056 0.056259375 -0.0568498 0.024375245 0.027227266 -0.15541135 0.1192015
-0.0007459255 -0.059842028 -0.08481141 0.006722381 -0.014972268 -0.19820471 -0.07664019 0.24847488
0.01408864 0.015194026 -0.005481808 -0.07697874 -0.023803785 -0.0077238465 0.0030762951 -0.08513165
-0.0023206316 -0.07149654 -0.81256753 -3.7290597 -0.17577815 0.008865541 0.058197793 -0.03804792
-0.1608542 5.598324e-05 -0.21885158 -0.016319653 0.025618875 0.07706796 0.10898387 -0.020252345
-0.0036688107 -0.14775299 0.016359877 -0.025733419 -0.3267457 0.04805768 0.041227836 -1.2758858
-0.005429062 -0.6183596 -0.0048235054 -0.07421016 0.20659283 0.0838819 -0.014378527 0.01565944
0.573592 -0.11739326 -0.034746602 -0.13882257 -0.035893153 0.0020408817 0.029860348 -0.05300244
-0.21452579 -0.002214564 -0.033687413 -0.053705294 0.12009241 0.017657485 -0.05117051 -1.0189613
0.019650135 0.0014093956 -0.038889837 -0.04434127 -0.15384163 0.0059620803 0.031952046 -0.13895427
0.14425215 -0.019838896 -0.08196841 0.00073295203 0.22407003 0.015458166 -0.82806623 0.119737305
-0.018356703 -0.008226443 -0.04971065 -0.12763608 0.045847274 -0.26364976 -0.07302377 -0.08815557
-0.0247554 -0.00035225018 -0.027833622 0.13901876 -1.4650298 0.022755947 -0.15386093 -0.9337657
0.016875282 -0.064858235 0.12802455 0.007340271 0.0064354492 0.08297909 -0.077337146 0.0053142295
-0.04282649 -0.1046025 0.63037765 -0.17955412 -0.055420663 -0.54927427 0.017606564 -0.06020751
0.022842493 -0.082757235 -0.08561273 0.034745988 -0.080406114 -0.9136359 -0.3109967 -0.02714841
00000000: 4fc1 283c 8da6 a53c 8522 1c3e 5ef0 30bd
00000010: 7aa1 75bd 8cf8 9a3c d20e 3fbd 98ad 4cbc
00000020: c2a6 1e3d a522 d43c 84e6 a53b f207 3f3e
00000030: 790d 85be ffe4 6ebe 3ec2 2e3c edc9 10bd
00000040: 89bd 42bd e296 6c3f 356a b9bb 3451 3c3e
00000050: 2749 cfbd 4c2e 51be b358 633d 55a9 9cbd
00000060: dfa2 e6bd edda 2fbf 7fa7 15be 57d2 6cbe
00000070: 0e03 093d 3cd6 b3bd be55 b2bd 8287 9fbd
00000080: 6fc7 173d 68a4 b13d 2fe6 babe c8e1 513d
00000090: 788a 2b3f 1181 e4bc e32b c93b e421 d3be
000000a0: a36f 9f3d c8f4 21bd 2149 043a 1a20 8bbd
000000b0: 58ad 063d a006 263d 1e48 943b 72d1 08be
000000c0: 2e46 98bc 4470 7a3c 4048 713e fc68 cfbc
000000d0: 81fa 57bf b284 e23d b933 38bf 607d 833d
000000e0: 23e1 1e3d 839c 31bc 1716 a8bf 53e9 29bd
000000f0: 7c99 b13c 7e24 4d3d 8049 a13b ffa8 8c3d
00000100: 7b67 b33f 302f cdbd fcaf 543b 8de1 263c
00000110: 63dd c6bf 1bec d43b 40b3 07bd 2a39 9e3d
00000120: ee44 2e3c ac99 f5be 1b2e 4ebd 4060 dbbf
00000130: 7401 a5bd 062e c2be 11ad 3cbd 2ff2 07bc
00000140: 81e6 3c3d 429a 93bf 215b 2ebf 0ddf 78be
00000150: 822d 953b f359 dabd ac24 bdbd 8d18 8b3d
00000160: 7937 f3bc 9e9e bfbc 1f0e 6abe 21a5 0dbf
00000170: 36e9 13bd 0712 0c3d eaf8 c73d a9bc 31be
00000180: ad20 f7bc 297f 16be 04e0 123b 6441 5bbc
00000190: fd6f c3bd ff32 8a3d 516a 9e3d d277 3a3d
000001a0: a04b 6bbe 73fe 08be c0f5 a8bd 1c8a 583c
000001b0: b0a8 d6bb 5cdb 873e ae8e 77bd 2ebc 07be
000001c0: 51b5 8c3d ffaf b73c 5501 cb3c 56fd 8c3d
000001d0: 2222 bb3c f336 a83f a138 9abe 26df 83bf
000001e0: 1d52 34bd de90 4bbf bec4 6cbe e8dd 13bd
000001f0: 75af 833d f754 463c d12d c4bc 9c3e c6bd
00000200: 3b4b 00be e0bf 8cbf 3b70 663d 56db 68bd
00000210: 98ae c73c b70b df3c 2724 1fbe eb1f f43d
00000220: 378a 43ba ea1c 75bd 9bb1 adbd 6b47 dc3b
00000230: 3e4e 75bc 2df6 4abe 88f5 9cbd 3370 7e3e
00000240: 0ad4 663c 5df0 783c bda0 b3bb 08a7 9dbd
00000250: 2800 c3bc 5218 fdbb ab9b 493b 8159 aebd
00000260: bd15 18bb c76c 92bd 6d04 50bf eaa8 6ec0
00000270: 30ff 33be c640 113c cf60 6e3d 23d8 1bbd
00000280: f7b6 24be 8ccf 6a38 a11a 60be cbb0 85bc
00000290: adde d13c ced5 9d3d ef32 df3d 3fe8 a5bc
000002a0: 6e70 70bb 8f4c 17be 2605 863c e4ce d2bc
000002b0: 364b a7be 21d8 443d 85de 283d 3a50 a3bf
000002c0: 46e6 b1bb d14c 1ebf 7f0e 9ebb 7ffb 97bd
000002d0: 128d 533e 46ca ab3d ea93 6bbc 3a48 803c
000002e0: edd6 123f e16b f0bd 7452 0ebd 8127 0ebe
000002f0: b304 13bd 50c0 053b b09d f43c 1619 59bd
00000300: a6ac 5bbe 3822 11bb d0fb 09bd 15fa 5bbd
00000310: 02f3 f53d 6ea6 903c 2b98 51bd 536d 82bf
00000320: 52f9 a03c 78bb b83a f34a 1fbd 319f 35bd
00000330: a988 1dbe 8e5d c33b 26e0 023d 074a 0ebe
00000340: d6b6 133e 2e85 a2bc 0edf a7bd 9423 403a
00000350: 9d72 653e 3f44 7d3c 26fc 53bf d538 f53d
00000360: cc60 96bc 34c8 06bc 659d 4bbd 08b3 02be
00000370: 5aca 3b3d 1afd 86be 7c8d 95bd e88a b4bd
00000380: d6cb cabc 38ae b8b9 5603 e4bc ef5a 0e3e
00000390: 1986 bbbf ae6a ba3c b88d 1dbe 450b 6fbf
000003a0: 083e 8a3c 65d4 84bd de18 033e a886 f03b
000003b0: 76e0 d23b f1f0 a93d f062 9ebd fd22 ae3b
000003c0: d46a 2fbd d639 d6bd 6e60 213f 09dd 37be
000003d0: c700 63bd 3d9d 0cbf a43b 903c 269c 76bd
000003e0: 2e20 bb3c a07c a9bd ba55 afbd cf51 0e3d
000003f0: f6ab a4bd 0be4 69bf f63a 9fbe 5866 debc

1.l1.bias f4 [197]
0.19026488 0.3103492 -0.7551047 0.2899166 0.1529885 0.10785978 0.36298874 0.18153982
0.40425512 0.32269222 -0.08042005 0.14890918 0.2680632 0.2982527 0.20913148 0.15860261
0.28032097 0.118304916 -0.014949922 0.3144531 0.30556318 0.2571301 0.34674633 0.18915379
0.31636217 0.1490898 0.28945252 0.27397934 0.19191599 -0.02266713 0.40043032 0.24631537
0.35647383 0.034384593 0.30567798 0.31538367 0.3742854 0.28891498 0.20761074 0.31372753
0.26638216 0.29522765 0.33082795 0.32079262 0.3088292 0.2216936 0.3408007 0.12572767
0.34750608 0.3244096 0.31429714 0.092718035 0.20605789 0.32093814 0.1971678 0.28509068
0.1050129 0.21289235 0.006989379 0.19056877 -0.08933372 0.15754096 0.3258066 0.24428739
0.10750418 0.32320213 0.30799282 0.1903375 0.3572299 0.17688519 0.2654846 0.26186752
-0.055861257 0.26105946 0.13919084 0.32345942 0.16817535 0.091195695 0.20749316 0.314316
0.28036937 -0.37256494 0.292196 0.013432343 0.4449753 0.31805098 0.11628936 0.25731555
0.30546737 0.37608254 0.2813607 0.19107942 0.30751622 0.37463903 0.32120362 0.26791018
0.36189836 -0.0016735042 0.12726294 0.27699023 -0.6523186 0.2735842 0.17881443 0.29407367
0.3182028 0.27804703 -0.5294022 0.3483429 0.23922516 0.17785169 0.27428335 0.27467117
0.2986279 -0.13483272 0.11864534 0.14159733 -0.0058805533 0.027237792 0.17443554 0.16995981
0.20074828 0.30416816 -0.3188787 0.23715422 0.25360337 0.3602424 -0.82318264 0.2322392
0.11952935 0.3430226 0.28329486 -0.78471076 0.3107285 0.10121144 0.3128448 0.24898124
0.2925976 0.2892791 0.2695824 0.21539761 0.2566067 0.13843915 0.25971872 0.22807488
0.18385483 0.25853413 0.24262337 0.29358566 0.3623867 0.20203105 0.21023679 0.32693318
0.18683703 0.31285566 0.20796926 0.2545264 0.1384636 0.19230755 0.14850283 0.30245885
0.15850037 0.3197228 0.15563932 0.01531865 0.24465047 -0.048137106 0.34639817 0.3373521
0.19626428 0.3288092 -0.6583907 0.33006188 0.13648392 0.3004533 0.2827965 0.16680528
0.3291587 0.26858148 0.24129412 0.33593482 0.121597566 0.2940233 0.3475961 0.28913844
0.29516372 0.10715699 0.2689517 0.13463046 0.20515785 0.169552 0.23583154 0.052040562
0.102948 0.08701993 0.274937 -0.50394845 0.3638187
00000000: ccd4 423e 17e6 9e3e 8b4e 41bf f36f 943e
00000010: 04a9 1c3e 97e5 dc3d a9d9 b93e 93e5 393e
00000020: 87fa ce3e ea37 a53e 44b3 a4bd a67b 183e
00000030: 943f 893e 94b4 983e 9026 563e b968 223e
00000040: 3b86 8f3e d949 f23d 85f0 74bc ffff a03e
00000050: c772 9c3e 8ea6 833e bc88 b13e 88b1 413e
00000060: 39fa a13e ffaa 183e 1f33 943e 0547 8c3e
00000070: a085 443e 6bb0 b9bc 3405 cd3e 193a 7c3e
00000080: bd83 b63e dcd6 0c3d d381 9c3e f879 a13e
00000090: 56a2 bf3e aaec 933e e997 543e e5a0 a03e
000000a0: 3e63 883e 1428 973e 4862 a93e ee3e a43e
000000b0: dc1e 9e3e a603 633e 6e7d ae3e c1be 003e
000000c0: 51ec b13e 0419 a63e 8eeb a03e f4e2 bd3d
000000d0: d700 533e 0152 a43e 5be6 493e 68f7 913e
000000e0: 0111 d73d 7400 5a3e 2907 e53b 7624 433e
000000f0: 99f4 b6bd 6b52 213e 1fd0 a63e 7926 7a3e
00000100: 272b dc3d c07a a53e 3cb1 9d3e d5e7 423e
00000110: d6e6 b63e 6421 353e 99ed 873e 8013 863e
00000120: c6ce 64bd 96a9 853e 0b88 0e3e 799c a53e
00000130: 2936 2c3e cfc4 ba3d 1679 543e 07ee a03e
00000140: 938c 8f3e d5c0 bebe b79a 953e 5413 5c3c
00000150: cdd3 e33e 94d7 a23e 1e29 ee3d ddbe 833e
00000160: 3866 9c3e e48d c03e 820e 903e 53aa 433e
00000170: c472 9d3e b0d0 bf3e cd74 a43e 862b 893e
00000180: be4a b93e 7c59 dbba 3751 023e aad1 8d3e
00000190: 5afe 26bf 3a13 8c3e 211b 373e d390 963e
000001a0: 7aeb a23e 2e5c 8e3e e786 07bf 005a b23e
000001b0: 71f7 743e c11e 363e de6e 8c3e b3a1 8c3e
000001c0: c2e5 983e 9711 0abe 54fc f23d e4fe 103e
000001d0: a8b1 c0bb ca21 df3c 3b9f 323e f209 2e3e
000001e0: f590 4d3e eebb 9b3e 1244 a3be 8ed8 723e
000001f0: 4dd8 813e b171 b83e 19bc 52bf 1dd0 6d3e
00000200: cecb f43d a9a0 af3e 060c 913e cee2 48bf
00000210: ce17 9f3e f247 cf3d 322d a03e f0f4 7e3e
00000220: 5acf 953e 641c 943e b406 8a3e 3191 5c3e
00000230: f461 833e fec2 0d3e daf9 843e 768c 693e
00000240: 7144 3c3e 965e 843e 4372 783e dc50 963e
00000250: c08a b93e 3ae1 4e3e 5048 573e c963 a73e
00000260: 3552 3f3e 9e2e a03e e5f5 543e 4951 823e
00000270: 67c9 0d3e 45ec 443e 2011 183e e3db 9a3e
00000280: ec4d 223e b5b2 a33e ea5f 1f3e 13fb 7a3c
00000290: a785 7a3e 6a2b 45bd 1a5b b13e 6ab9 ac3e
000002a0: 81f9 483e ae59 a83e 4b8c 28bf dffd a83e
000002b0: 71c2 0b3e 04d5 993e b4ca 903e 01cf 2a3e
000002c0: 7d87 a83e 8383 893e ce15 773e a6ff ab3e
000002d0: 2508 f93d 398a 963e 1ef8 b13e f409 943e
000002e0: b31f 973e 2075 db3d 0ab4 893e 91dc 093e
000002f0: e614 523e 0a9f 2d3e d37d 713e 7c28 553d
00000300: 67d6 d23d 8137 b23d 8bc4 8c3e c402 01bf
00000310: 7246 ba3e

1.l3.weight f4 [1, 197]
-0.5147665 0.060946263 -0.50670123 0.13620286 -0.3405179 1.0018383 0.13463323 1.9726683
0.11322182 -0.20217544 0.113309495 0.19409831 0.05283058 0.058429014 -0.781198 -0.3920754
0.060373895 1.3251851 -1.1861988 0.047364485 0.21071544 -0.15339085 0.03657321 1.1906964
0.05573301 -0.33203232 -0.14416423 0.2672995 -0.4907586 0.02103925 0.2274747 -0.11974088
-0.24165134 1.6208191 0.13703616 0.04650246 0.0847896 -0.1221701 -1.3988618 -0.072642766
-0.14455608 0.07090496 -0.14869525 -0.12950158 -0.14940505 0.15519266 0.04530719 0.5874759
0.3824945 -0.05084039 -0.06023293 0.5375245 0.6113525 -0.08078894 -0.34208843 0.20770766
0.4104149 -0.10636657 -0.12951694 0.194014 -1.133321 0.4149654 -0.09680782 -0.3836064
0.584027 0.19073236 -0.06254223 0.1767968 0.06430247 -0.3933837 -0.14766382 -0.2146195
0.021019321 0.045361258 0.47623283 0.08048482 -0.4648786 1.2464678 -0.31681025 -0.099588014
-0.0565223 1.2845461 0.11841319 1.046796 0.102484286 -0.08125111 0.5214546 0.045702834
0.24840097 0.11795778 -0.20493801 0.31796226 0.043543495 0.11581471 0.09898182 -0.1775279
-0.08130148 0.070036314 0.25127867 -0.3353164 0.47652248 -0.11804975 0.064019725 -0.0908579
0.06060386 -0.15707132 0.28638846 0.14108233 -0.31824312 -0.26010302 -0.105243534 0.038490046
-0.12776512 -0.33120644 0.6294678 -0.7362928 5.0259547 0.44273302 0.17382215 -0.43894467
-0.35648 0.05048855 -0.09610788 -0.3545958 -0.24934687 -0.06361594 -0.296485 -0.20167162
2.3520532 -0.083461866 -0.20916559 0.3618275 -0.100800075 0.5685941 0.067550145 -0.112795375
-0.12542558 0.06533386 -0.07552412 -0.17105193 0.103448436 0.39912674 0.24528122 -2.7093136
0.6800804 -0.20718613 0.036542024 0.04381457 0.10776774 -0.044997796 -0.23559293 -0.0802984
0.35825187 -0.1390715 -0.3449835 -0.101386786 0.8889943 -0.48200402 0.9351531 0.04264225
-0.38260818 -0.12450567 -0.83778495 -0.05326275 0.058422863 -1.7778217 -1.615379 -0.11192821
0.19685349 0.27490836 0.23878832 0.05339687 -0.17300905 -0.106596656 0.45984444 -0.6370096
-0.20949823 -0.13559273 0.054806136 0.07584212 0.88627523 0.06629847 -0.07486858 -0.1283104
-0.063095436 0.39872688 -0.120323725 -0.60051495 0.31014153 1.045014 -0.38573053 -0.075208575
-0.08934923 0.38588175 -0.1326201 0.27597404 -0.16955495
00000000: bdc7 03bf caa2 793d 2cb7 01bf c378 0b3e
00000010: 5d58 aebe 3d3c 803f 4bdd 093e 6580 fc3f
00000020: d7e0 e73d 1407 4fbe cf0e e83d b5c1 463e
00000030: e164 583d 4353 6f3d 98fc 47bf 1bbe c8be
00000040: 9e4a 773d aa9f a93f 5dd5 97bf 4301 423d
00000050: cac5 573e 7e12 1dbe cacd 153d bd68 983f
00000060: 4c48 643d 2400 aabe ca9f 13be 7bdb 883e
00000070: b644 fbbe 815a ac3c 21ef 683e b53a f5bd
00000080: 7373 77be 0077 cf3f 3553 0c3e 5d79 3e3d
00000090: 2ba6 ad3d 5134 fabd e70d b3bf bbc5 94bd
000000a0: 8206 14be 9f36 913d 9143 18be 109c 04be
000000b0: a3fd 18be d3ea 1e3e 0894 393d d264 163f
000000c0: 52d6 c33e 033e 50bd ceb6 76bd 359b 093f
000000d0: 9981 1c3f ac74 a5bd 3726 afbe 51b1 543e
000000e0: e721 d23e b7d6 d9bd 17a0 04be 9bab 463e
000000f0: aa10 91bf 5876 d43e 2e43 c6bd 0f68 c4be
00000100: cb82 153f 584f 433e 2416 80bd 380a 353e
00000110: 03b1 833d 9769 c9be 2f35 17be 37c5 5bbe
00000120: b630 ac3c bacc 393d cad4 f33e 3ad5 a43d
00000130: 9104 eebe 428c 9f3f f434 a2be cdf4 cbbd
00000140: ed83 67bd 026c a43f 9d82 f23d 69fd 853f
00000150: 48e3 d13d fb66 a6bd 0c7e 053f e532 3b3d
00000160: d35c 7e3e d993 f13d 45db 51be f3cb a23e
00000170: aa5a 323d 4330 ed3d fbb6 ca3d e0c9 35be
00000180: 6481 a6bd 336f 8f3d 99a7 803e 97ae abbe
00000190: c1fa f33e 11c4 f1bd c61c 833d b513 babd
000001a0: c13b 783d 4ed7 20be 82a1 923e e377 103e
000001b0: c3f0 a2be 392c 85be ec89 d7bd bda7 1d3d
000001c0: dcd4 02be e493 a9be cd24 213f af7d 3cbf
000001d0: 9fd4 a040 e7ad e23e 6ffe 313e 5bbd e0be
000001e0: 8c84 b6be 15cd 4e3d 35d4 c4bd 958d b5be
000001f0: c954 7fbe 1349 82bd e2cc 97be 0183 4ebe
00000200: 0a88 1640 0eee aabd 812f 56be 7441 b93e
00000210: 4570 cebd 628f 113f bb57 8a3d 4301 e7bd
00000220: 906f 00be c2cd 853d 64ac 9abd 3d28 2fbe
00000230: c6dc d33d 575a cc3e 002b 7b3e 6565 2dc0
00000240: c019 2e3f 9a28 54be 17ad 153d e876 333d
00000250: 55b5 dc3d 9c4f 38bd 463f 71be 7d73 a4bd
00000260: ca6c b73e c268 0ebe ada1 b0be e0a3 cfbd
00000270: 2195 633f 3bc9 f6be 3266 6f3f a4a9 2e3d
00000280: 38e5 c3be d4fc febd 1379 56bf 0b2a 5abd
00000290: d04c 6f3d a98f e3bf bdc4 cebf 9e3a e5bd
000002a0: f693 493e cac0 8c3e ed84 743e adb6 5a3d
000002b0: 4929 31be 594f dabd bb70 eb3e 1013 23bf
000002c0: b486 56be d2d8 0abe 667c 603d 1d53 9b3d
000002d0: efe2 623f 7ec7 873d b354 99bd cd63 03be
000002e0: 2e38 81bd ee25 cc3e 496c f6bd 59bb 19bf
000002f0: dfca 9e3e 05c3 853f 797e c5be f406 9abd
00000300: bbfc b6bd 4b92 c53e 90cd 07be 784c 8d3e
00000310: d09f 2dbe
