ergoCubSN001/friction_pinn/2_rhr_b4813_h20.onnx (onnx, 321665 bytes, 7 tensors)

0.weight f4 [40, 40]
0	0x3f4d65d1	0.80233485
1	0x00000000	0.0
2	0x00000000	0.0
3	0x00000000	0.0
4	0x00000000	0.0
5	0x00000000	0.0
6	0x00000000	0.0
7	0x00000000	0.0
8	0x00000000	0.0
9	0x00000000	0.0
10	0x00000000	0.0
11	0x00000000	0.0
12	0x00000000	0.0
13	0x00000000	0.0
14	0x00000000	0.0
15	0x00000000	0.0
16	0x00000000	0.0
17	0x00000000	0.0
18	0x00000000	0.0
19	0x00000000	0.0
20	0x00000000	0.0
21	0x00000000	0.0
22	0x00000000	0.0
23	0x00000000	0.0
24	0x00000000	0.0
25	0x00000000	0.0
26	0x00000000	0.0
27	0x00000000	0.0
28	0x00000000	0.0
29	0x00000000	0.0
30	0x00000000	0.0
31	0x00000000	0.0
32	0x00000000	0.0
33	0x00000000	0.0
34	0x00000000	0.0
35	0x00000000	0.0
36	0x00000000	0.0
37	0x00000000	0.0
38	0x00000000	0.0
39	0x00000000	0.0
40	0x00000000	0.0
41	0x3f4d65d1	0.80233485
42	0x00000000	0.0
43	0x00000000	0.0
44	0x00000000	0.0
45	0x00000000	0.0
46	0x00000000	0.0
47	0x00000000	0.0
48	0x00000000	0.0
49	0x00000000	0.0
50	0x00000000	0.0
51	0x00000000	0.0
52	0x00000000	0.0
53	0x00000000	0.0
54	0x00000000	0.0
55	0x00000000	0.0
56	0x00000000	0.0
57	0x00000000	0.0
58	0x00000000	0.0
59	0x00000000	0.0
60	0x00000000	0.0
61	0x00000000	0.0
62	0x00000000	0.0
63	0x00000000	0.0
64	0x00000000	0.0
65	0x00000000	0.0
66	0x00000000	0.0
67	0x00000000	0.0
68	0x00000000	0.0
69	0x00000000	0.0
70	0x00000000	0.0
71	0x00000000	0.0
72	0x00000000	0.0
73	0x00000000	0.0
74	0x00000000	0.0
75	0x00000000	0.0
76	0x00000000	0.0
77	0x00000000	0.0
78	0x00000000	0.0
79	0x00000000	0.0
80	0x00000000	0.0
81	0x00000000	0.0
82	0x3f4d65d1	0.80233485
83	0x00000000	0.0
84	0x00000000	0.0
85	0x00000000	0.0
86	0x00000000	0.0
87	0x00000000	0.0
88	0x00000000	0.0
89	0x00000000	0.0
90	0x00000000	0.0
91	0x00000000	0.0
92	0x00000000	0.0
93	0x00000000	0.0
94	0x00000000	0.0
95	0x00000000	0.0
96	0x00000000	0.0
97	0x00000000	0.0
98	0x00000000	0.0
99	0x00000000	0.0
100	0x00000000	0.0
101	0x00000000	0.0
102	0x00000000	0.0
103	0x00000000	0.0
104	0x00000000	0.0
105	0x00000000	0.0
106	0x00000000	0.0
107	0x00000000	0.0
108	0x00000000	0.0
109	0x00000000	0.0
110	0x00000000	0.0
111	0x00000000	0.0
112	0x00000000	0.0
113	0x00000000	0.0
114	0x00000000	0.0
115	0x00000000	0.0
116	0x00000000	0.0
117	0x00000000	0.0
118	0x00000000	0.0
119	0x00000000	0.0
120	0x00000000	0.0
121	0x00000000	0.0
122	0x00000000	0.0
123	0x3f4d65d1	0.80233485
124	0x00000000	0.0
125	0x00000000	0.0
126	0x00000000	0.0
127	0x00000000	0.0
128	0x00000000	0.0
129	0x00000000	0.0
130	0x00000000	0.0
131	0x00000000	0.0
132	0x00000000	0.0
133	0x00000000	0.0
134	0x00000000	0.0
135	0x00000000	0.0
136	0x00000000	0.0
137	0x00000000	0.0
138	0x00000000	0.0
139	0x00000000	0.0
140	0x00000000	0.0
141	0x00000000	0.0
142	0x00000000	0.0
143	0x00000000	0.0
144	0x00000000	0.0
145	0x00000000	0.0
146	0x00000000	0.0
147	0x00000000	0.0
148	0x00000000	0.0
149	0x00000000	0.0
150	0x00000000	0.0
151	0x00000000	0.0
152	0x00000000	0.0
153	0x00000000	0.0
154	0x00000000	0.0
155	0x00000000	0.0
156	0x00000000	0.0
157	0x00000000	0.0
158	0x00000000	0.0
159	0x00000000	0.0
160	0x00000000	0.0
161	0x00000000	0.0
162	0x00000000	0.0
163	0x00000000	0.0
164	0x3f4d65d1	0.80233485
165	0x00000000	0.0
166	0x00000000	0.0
167	0x00000000	0.0
168	0x00000000	0.0
169	0x00000000	0.0
170	0x00000000	0.0
171	0x00000000	0.0
172	0x00000000	0.0
173	0x00000000	0.0
174	0x00000000	0.0
175	0x00000000	0.0
176	0x00000000	0.0
177	0x00000000	0.0
178	0x00000000	0.0
179	0x00000000	0.0
180	0x00000000	0.0
181	0x00000000	0.0
182	0x00000000	0.0
183	0x00000000	0.0
184	0x00000000	0.0
185	0x00000000	0.0
186	0x00000000	0.0
187	0x00000000	0.0
188	0x00000000	0.0
189	0x00000000	0.0
190	0x00000000	0.0
191	0x00000000	0.0
192	0x00000000	0.0
193	0x00000000	0.0
194	0x00000000	0.0
195	0x00000000	0.0
196	0x00000000	0.0
197	0x00000000	0.0
198	0x00000000	0.0
199	0x00000000	0.0
200	0x00000000	0.0
201	0x00000000	0.0
202	0x00000000	0.0
203	0x00000000	0.0
204	0x00000000	0.0
205	0x3f4d65d1	0.80233485
206	0x00000000	0.0
207	0x00000000	0.0
208	0x00000000	0.0
209	0x00000000	0.0
210	0x00000000	0.0
211	0x00000000	0.0
212	0x00000000	0.0
213	0x00000000	0.0
214	0x00000000	0.0
215	0x00000000	0.0
216	0x00000000	0.0
217	0x00000000	0.0
218	0x00000000	0.0
219	0x00000000	0.0
220	0x00000000	0.0
221	0x00000000	0.0
222	0x00000000	0.0
223	0x00000000	0.0
224	0x00000000	0.0
225	0x00000000	0.0
226	0x00000000	0.0
227	0x00000000	0.0
228	0x00000000	0.0
229	0x00000000	0.0
230	0x00000000	0.0
231	0x00000000	0.0
232	0x00000000	0.0
233	0x00000000	0.0
234	0x00000000	0.0
235	0x00000000	0.0
236	0x00000000	0.0
237	0x00000000	0.0
238	0x00000000	0.0
239	0x00000000	0.0
240	0x00000000	0.0
241	0x00000000	0.0
242	0x00000000	0.0
243	0x00000000	0.0
244	0x00000000	0.0
245	0x00000000	0.0
246	0x3f4d65d1	0.80233485
247	0x00000000	0.0
248	0x00000000	0.0
249	0x00000000	0.0
250	0x00000000	0.0
251	0x00000000	0.0
252	0x00000000	0.0
253	0x00000000	0.0
254	0x00000000	0.0
255	0x00000000	0.0

0.bias f4 [40]
0	0xbf3c152f	-0.73469824
1	0xbf3c3178	-0.73512983
2	0xbf3c4d5a	-0.7355553
3	0xbf3c6903	-0.73597735
4	0xbf3c8e90	-0.73655033
5	0xbf3ca854	-0.7369435
6	0xbf3cc9bf	-0.7374534
7	0xbf3cdd98	-0.73775625
8	0xbf3cfca6	-0.7382301
9	0xbf3d2495	-0.73883945
10	0xbf3d3fe0	-0.7392559
11	0xbf3d5e1b	-0.7397172
12	0xbf3d7d74	-0.7401955
13	0xbf3da4c0	-0.74079514
14	0xbf3dc44c	-0.7412765
15	0xbf3def2d	-0.7419308
16	0xbf3e1bfb	-0.74261445
17	0xbf3e4269	-0.74320084
18	0xbf3e709a	-0.74390566
19	0xbf3ea089	-0.7446371
20	0x3f1e8823	0.6192648
21	0x3f1e79ae	0.6190442
22	0x3f1e5e9d	0.6186312
23	0x3f1e374c	0.61803126
24	0x3f1e1968	0.61757517
25	0x3f1e0e3c	0.6174047
26	0x3f1df595	0.61702853
27	0x3f1debb7	0.616878
28	0x3f1df448	0.6170087
29	0x3f1df4af	0.6170148
30	0x3f1dcc97	0.61640304
31	0x3f1dbb08	0.6161351
32	0x3f1daf37	0.6159548
33	0x3f1dabf7	0.6159052
34	0x3f1d8e3d	0.61545163
35	0x3f1d833e	0.61528385
36	0x3f1d7595	0.6150754
37	0x3f1d558b	0.61458653
38	0x3f1d46d9	0.6143623
39	0x3f1d3c62	0.6142026

1.l0.weight f4 [232, 40]
0	0x3d2e9e2a	0.042631306
1	0x3d7c0bd4	0.061534718
2	0x3e1ab085	0.151064
3	0xbd833d29	-0.0640815
4	0xbde8f209	-0.113742895
5	0x3d394cc5	0.04523923
6	0x3d9d3d7c	0.07677743
7	0xbce2f9f1	-0.027707072
8	0x3dbbba67	0.09166413
9	0xbe102cbf	-0.1407957
10	0x3e24145f	0.16023396
11	0xbca8622e	-0.020554628
12	0xbdba58eb	-0.09098991
13	0x3d02679b	0.031837087
14	0xbc182cc9	-0.009288021
15	0x3c95619e	0.018235024
16	0xbdf6692c	-0.12031779
17	0xbd21a3fd	-0.039463032
18	0xbd69b672	-0.05705876
19	0xbd9ceabd	-0.0766196
20	0x3d5b9178	0.053605527
21	0x3e12efae	0.14349243
22	0x3e168a93	0.147013
23	0xbe082672	-0.13295916
24	0xbd6d10f8	-0.05787751
25	0xbde437a7	-0.11143427
26	0xbdf8ccad	-0.12148414
27	0x3d103540	0.035207033
28	0x3e11502b	0.14190738
29	0xbced7e71	-0.028990956
30	0xbcb62584	-0.022234686
31	0xbdbad249	-0.0912214
32	0x3e201168	0.1563164
33	0xbbc815a1	-0.006106094
34	0xbe08f6f5	-0.13375457
35	0xbd6f6688	-0.05844739
36	0x3d4ca58d	0.04996257
37	0x3d8e2889	0.06941325
38	0xbcc580c0	-0.024109244
39	0xbe00b600	-0.12569427
40	0xbe08b423	-0.13349967
41	0xbdcb6eb3	-0.099332236
42	0x3d63dc5d	0.055630077
43	0xbd7e8d88	-0.062146693
44	0x3d99bd18	0.0750677
45	0x3de43a6a	0.11143954
46	0xbd687869	-0.056755457
47	0xbde4b323	-0.1116698
48	0x3d014fdc	0.0315703
49	0x3ccfa2bf	0.025346158
50	0x3da8b4e2	0.08237626
51	0x3db174f4	0.08664885
52	0x3dac0238	0.08398861
53	0xbdc4a144	-0.096010715
54	0x3de761b6	0.11297934
55	0xbdcf08c9	-0.101090975
56	0xbc232c6c	-0.0099593215
57	0x3d82f652	0.06394638
58	0x3dae80b7	0.08520644
59	0x3d3a8dac	0.045545265
60	0x3e17522a	0.14777437
61	0xbda01e3f	-0.07818269
62	0xbc7eba03	-0.015547278
63	0xbde150ef	-0.11001765
64	0xbe296ee2	-0.16546205
65	0xbdc04309	-0.09387786
66	0x3da01150	0.07815802
67	0x3d7eee1d	0.0622388
68	0xbd54455d	-0.051823962
69	0xbd989d3c	-0.07451865
70	0xbda0a94c	-0.07844791
71	0x3dafaa34	0.085773855
72	0xbe3219f3	-0.17392711
73	0xbd79ee71	-0.06101841
74	0xbdc3c086	-0.09558205
75	0x3d257b4a	0.04040078
76	0xbddae189	-0.10687549
77	0xbd0f822d	-0.035036255
78	0x3e0b0619	0.13576545
79	0xbd9110b5	-0.07083265
80	0xbc92fa60	-0.017941654
81	0x3dfa8ffa	0.122344926
82	0x3dd6ccfe	0.10488318
83	0xbdf20d2c	-0.118189186
84	0xbc99ecd2	-0.018789683
85	0xbddd4106	-0.10803418
86	0xbd9ce94b	-0.076616846
87	0xbd9374e1	-0.07200027
88	0xbde74fee	-0.11294542
89	0x3e265c97	0.16246258
90	0x3cee5a23	0.029095715
91	0x3de5528c	0.11197385
92	0x3da3e0af	0.08001839
93	0x3e2cd1cc	0.16876906
94	0xbd059e91	-0.032621924
95	0xbe0e4778	-0.1389445
96	0xbc3ff317	-0.011715672
97	0xbe1b26c3	-0.15151505
98	0xbdaacc55	-0.083397545
99	0xbd05250c	-0.032506034
100	0x3dc5ed5b	0.096644126
101	0x3e086f3d	0.13323684
102	0xbd295ce2	-0.041348346
103	0xbd12f6a6	-0.035879754
104	0x3da40c0d	0.08010111
105	0xbdd1d2a6	-0.10245256
106	0xbc0e6414	-0.008690853
107	0x3e17e40d	0.14833088
108	0xbda8e8c0	-0.082475185
109	0xbc2e49b7	-0.010637692
110	0x3ce23957	0.027615232
111	0xbe197d6d	-0.14989252
112	0x3d1d5eb1	0.038420383
113	0xbe16546a	-0.14680639
114	0xbd6c1511	-0.057637278
115	0x3d6f5c44	0.0584376
116	0xbdd4ee63	-0.10397031
117	0xbd6dc761	-0.05805147
118	0xbd6a325a	-0.057176925
119	0x3e122347	0.1427127
120	0xbdb771be	-0.089572415
121	0x3e01ba3d	0.126687
122	0x3d1fca05	0.03901102
123	0xbd150a5d	-0.036386836
124	0xbbb71852	-0.005587616
125	0x3cdf8bd8	0.027288362
126	0xbd7e6f9d	-0.06211816
127	0xbd844226	-0.06457929
128	0x3dfb0f13	0.122587346
129	0x3d5e37b0	0.054252326
130	0x3d7e37d2	0.062064953
131	0xbdf330b8	-0.11874527
132	0xbd90a69d	-0.07063029
133	0x3d0a1974	0.03371568
134	0x3d1766d1	0.036963288
135	0xbd43f0c2	-0.047837026
136	0x3d0214f5	0.031758267
137	0x3e082495	0.13295205
138	0xbd845936	-0.06462328
139	0xbe221e1a	-0.15831795
140	0x3ba1360b	0.0049197725
141	0x3ccc6c56	0.024954002
142	0x3d939860	0.072067976
143	0x3ddac0bb	0.10681292
144	0x3e0dc42b	0.13844363
145	0xbdd7f2ec	-0.105443805
146	0xbd8f0a0c	-0.06984338
147	0xbcc48e54	-0.023993649
148	0xbd41632b	-0.047213715
149	0x3dcde8a8	0.10054141
150	0x3e04b256	0.12958655
151	0x3da60068	0.08105546
152	0xbd45d84f	-0.04830199
153	0x3dfa8550	0.122324586
154	0xbe0ed996	-0.1395019
155	0x3d148cf3	0.036267232
156	0xbdbd17d4	-0.092330605
157	0x3c01ca8c	0.007921826
158	0xbe063670	-0.13106704
159	0x3d12bee1	0.035826568
160	0x3a32396e	0.0006798719
161	0xbdd1a539	-0.10236592
162	0xbd36d952	-0.044640847
163	0x3dc6f049	0.097137995
164	0xbe10791b	-0.14108698
165	0x3d83ac46	0.06429343
166	0xbe05ecfd	-0.13078685
167	0x3d61d5d2	0.055135556
168	0x3d9b88a4	0.075944215
169	0xbd71baa8	-0.0590159
170	0x3e0c8f89	0.1372663
171	0xbd837c08	-0.064201415
172	0x3cff9fbf	0.031204103
173	0x3da66500	0.08124733
174	0x3e0dc911	0.13846232
175	0x3ce9167f	0.02845311
176	0x3d824e20	0.063625574
177	0xbe04f676	-0.12984642
178	0xbccd6a8c	-0.02507522
179	0xbcf00067	-0.029297067
180	0xbdca5fe7	-0.09881573
181	0xbe201a04	-0.15634924
182	0x3d39c08a	0.045349635
183	0x3d46ec77	0.048565354
184	0xbaa45b68	-0.0012539448
185	0x3bac2d55	0.0052544274
186	0x3dce435c	0.100714415
187	0x3e1d50af	0.1536281
188	0xbd470790	-0.048591197
189	0x3deb5724	0.1149123
190	0xbe0600b0	-0.130862
191	0xbe0e0bd5	-0.13871701
192	0x3d6615ef	0.05617326
193	0x3cf2a130	0.029617876
194	0x3de3fb87	0.111319594
195	0xbd9c8b58	-0.07643765
196	0x3e0e75be	0.13912103
197	0x3ac7cdf2	0.0015243872
198	0xbe16f6d8	-0.14742601
199	0x3d5527ab	0.052039783
200	0x3daad988	0.08342272
201	0xbe1beaa5	-0.15226229
202	0x3e0b865d	0.13625474
203	0xbd9b6151	-0.07586921
204	0x3e10b477	0.14131342
205	0x3deb2ff5	0.114837565
206	0xbda6c78a	-0.08143528
207	0xbdfebe05	-0.12438587
208	0xbd22e449	-0.03976849
209	0x3e0ce8fb	0.1376075
210	0xbdfd793a	-0.12376638
211	0x3df95e8f	0.12176239
212	0xbdff34fa	-0.12461276
213	0xbd93091b	-0.07179471
214	0x3dc33bd7	0.09532898
215	0x3d2911dd	0.0412768
216	0x3dad1063	0.08450391
217	0xbd93028a	-0.07178219
218	0x3cb7a6d5	0.022418419
219	0xbd9b8bb4	-0.07595006
220	0x3e1939a2	0.14963391
221	0x3c99a11a	0.018753577
222	0x3df57f00	0.11987114
223	0xbe234fc2	-0.15948394
224	0x3db120cf	0.08648836
225	0x3d4742d7	0.048647728
226	0xbe026e17	-0.12737308
227	0x3d894f3e	0.067045674
228	0xbe04cfb2	-0.12969854
229	0xbe082983	-0.13297085
230	0x3e07f432	0.13276747
231	0xbe0cc8df	-0.13748501
232	0xbd4a08be	-0.049324743
233	0x3e00d652	0.12581757
234	0x3e052eea	0.13006178
235	0xbdbf9990	-0.093554616
236	0x3e17bb22	0.14817479
237	0x3c86cf09	0.016456144
238	0xbdd278a7	-0.10276919
239	0xbda655f6	-0.081218645
240	0x3dbd206b	0.09234699
241	0x3d85fdfc	0.06542584
242	0xbd72706c	-0.059189245
243	0x3c13685b	0.008997048
244	0x3d4a1125	0.049332757
245	0x3dd982ff	0.10620689
246	0xbda47e32	-0.08031882
247	0xbdc5e0e4	-0.09662035
248	0xbd67dddf	-0.056608077
249	0xbd7561ac	-0.0599076
250	0x3da9250c	0.08259019
251	0x3c56290f	0.013071313
252	0xbd8e0da5	-0.06936196
253	0xbe0ef611	-0.13961054
254	0xbddf8f99	-0.10916061
255	0x3e153e37	0.14574514

1.l0.bias f4 [232]
0	0xbf8975e1	-1.0739099
1	0xbe74d5ed	-0.23909731
2	0xbf855125	-1.0415388
3	0xbf497af4	-0.78703237
4	0x3f329b0e	0.69767845
5	0x3ed91c45	0.4240438
6	0x3f08a4a4	0.5337622
7	0x3c808437	0.015688045
8	0xbd844aac	-0.06459555
9	0x3e2a7db1	0.1664951
10	0x3e6cbc88	0.23118794
11	0x3e0d3e80	0.13793373
12	0x3e97b22e	0.29628128
13	0xbf8e3d48	-1.1112452
14	0xbee7d15b	-0.45276913
15	0x3dca8597	0.098887615
16	0x3f43967f	0.76401514
17	0x3f49f90c	0.7889564
18	0xbe57aaa0	-0.21061182
19	0x3ebd7db8	0.37009978
20	0xbd1a5037	-0.037674155
21	0x3d815a3c	0.06316039
22	0x3f2b42de	0.66898906
23	0xbbd4c960	-0.0064937323
24	0xbf95fe72	-1.1718276
25	0x3f612214	0.87942624
26	0xbd1ec8dd	-0.038765777
27	0x3e37b5d1	0.17940451
28	0xbc3605c3	-0.011109772
29	0x3d7bbc34	0.06145878
30	0xbd1619c0	-0.03664565
31	0x3f269ece	0.65086067
32	0xbf105ced	-0.56391793
33	0x3e65de45	0.2244807
34	0x3f51dae7	0.81974643
35	0x3e10cbd3	0.14140253
36	0x3c5672f9	0.013088935
37	0xbd87f38f	-0.06638252
38	0xbf128fc8	-0.5725064
39	0xbf13d552	-0.57747376
40	0x3e6eced3	0.23321085
41	0x3f249847	0.64294857
42	0x3f08fa65	0.5350707
43	0x3eae475e	0.34038824
44	0x3e8b7f05	0.27245346
45	0x3e51c0fd	0.20483775
46	0xbe240a56	-0.16019568
47	0x3d9b0989	0.07570178
48	0x3f55ce32	0.83517754
49	0x3f6328cc	0.88734126
50	0xbf9d3531	-1.2281858
51	0x3eb28e8d	0.34874383
52	0x3df99c5b	0.121880256
53	0x3e138e1e	0.14409682
54	0xbf7e181f	-0.99255556
55	0x3f1fc795	0.62413913
56	0xbf895871	-1.0730115
57	0x3e323aab	0.17405193
58	0x3e8e3c3f	0.2778034
59	0xbfa368d8	-1.2766371
60	0x3eef021b	0.46681294
61	0xbfa86734	-1.3156495
62	0x3f39097c	0.72280097
63	0x3f450200	0.76956177
64	0x3d29941c	0.041401014
65	0xbe18ab63	-0.14909129
66	0x3c5c87ae	0.013460083
67	0x3eaac368	0.33352208
68	0x3e9db4d7	0.30802032
69	0xbf0f9499	-0.5608612
70	0x3d4ca037	0.04995748
71	0xbf10fbec	-0.566344
72	0x3dc34c22	0.095360056
73	0xbeb2a6d3	-0.34892902
74	0xbf0ba2bd	-0.54545194
75	0xbce57d9e	-0.028014
76	0xbf1c3bad	-0.6102856
77	0x3f12ede3	0.57394236
78	0x3f32f92b	0.6991145
79	0xbf0f1215	-0.55886966
80	0xbac95410	-0.0015360136
81	0x3f1e68ab	0.6187846
82	0xbf2808bf	-0.65638345
83	0x3e348cbf	0.17631815
84	0xbf907843	-1.1286701
85	0x3ec777b4	0.38958514
86	0x3eadfa59	0.33980063
87	0xbcd7cae0	-0.026341856
88	0x3e0b050a	0.13576141
89	0x3f374870	0.71594906
90	0x3ed940df	0.42432305
91	0xbf8a5d1b	-1.0809664
92	0x3ec8d007	0.39221212
93	0x3f1318c4	0.57459664
94	0xbe32c232	-0.17456892
95	0xbc9f7c15	-0.019468347
96	0x3c2dfbe9	0.010619142
97	0x3ec059fb	0.3756865
98	0xbf007539	-0.5017887
99	0xbee0af47	-0.43883726
100	0xbe29fa0d	-0.16599293
101	0xbf9d1129	-1.2270862
102	0xbec8afca	-0.39196616
103	0xbf1e527b	-0.61844605
104	0x3d1f8ddd	0.03895365
105	0xbf0ecd64	-0.5578215
106	0x3e7a4469	0.24440159
107	0xbe9eaaff	-0.30989835
108	0x3e2230ea	0.15838972
109	0xbe9392b2	-0.28822857
110	0xbf1e8487	-0.6192097
111	0xbf8fb2dd	-1.122646
112	0x3e880061	0.2656279
113	0xbf075df7	-0.52877754
114	0x3da786a2	0.08179976
115	0x3ec010ea	0.37512904
116	0xbf80b166	-1.0054138
117	0x3d1cd7d4	0.038291767
118	0x3d81b67f	0.063336365
119	0x3e213645	0.15743358
120	0xbf77dad7	-0.968183
121	0x3e78cabe	0.2429609
122	0xbf36a18d	-0.71340257
123	0xbf78e556	-0.9722494
124	0x3d4dc170	0.050233305
125	0x3f29b91b	0.66298074
126	0x3e07e909	0.1327249
127	0x3f21108e	0.62915885
128	0x3e026061	0.12732078
129	0x3cd2ba67	0.02572365
130	0x3dd45bea	0.10369094
131	0x3ed9cea5	0.4254047
132	0xbf06e609	-0.52694756
133	0x3ef076df	0.4696569
134	0x3eb98f06	0.3624193
135	0x3ef97757	0.48723862
136	0xbf6b2da5	-0.91866523
137	0xbfb6c006	-1.4277351
138	0xbf1ad29d	-0.6047762
139	0xbf79a56d	-0.97518045
140	0xbe61c95c	-0.22049469
141	0xbd87777f	-0.06614589
142	0xbf0b23ee	-0.543517
143	0x3eb7b6af	0.35881564
144	0x3c555123	0.013019833
145	0xbede1fa6	-0.4338352
146	0xbd1c42d7	-0.03814968
147	0xbf96d482	-1.1783602
148	0xbf982e9e	-1.1889226
149	0xbe8089d2	-0.2510515
150	0xbf0c3a46	-0.5477642
151	0x3edea9ca	0.43488914
152	0xbf2523f1	-0.6450797
153	0x3f423f42	0.75877774
154	0x3f30ecce	0.69111335
155	0xbede07d9	-0.43365362
156	0x3ee8fbcb	0.45504603
157	0xbe2e0fab	-0.16998164
158	0xbf235137	-0.637958
159	0x3e484db5	0.19560893
160	0x3f1ff975	0.62490016
161	0xbe244e5c	-0.16045517
162	0x3d185990	0.03719479
163	0xbeea7a36	-0.45796365
164	0xbc5a5ebc	-0.0133282505
165	0x3d5e553d	0.05428051
166	0xbdb33045	-0.08749441
167	0xbf0f6f03	-0.56028765
168	0xbf006708	-0.50157213
169	0x3e922804	0.28546154
170	0xbf0af3e4	-0.542784
171	0x3ebe28d2	0.37140518
172	0x3eef9b54	0.46798193
173	0xbf160f30	-0.58616924
174	0xbeff4876	-0.4985997
175	0x3f26b71d	0.6512316
176	0xbe466979	-0.19376172
177	0xbf18ed75	-0.5973733
178	0x3f1bda8c	0.6088035
179	0xbd21008b	-0.03930716
180	0x3f2cce87	0.67502636
181	0x3edcea01	0.4314728
182	0xbf23d73d	-0.640003
183	0x3e9e3b65	0.3090469
184	0x3f40d02f	0.7531766
185	0x3ca792a8	0.020455673
186	0xbf8e0876	-1.1096332
187	0x3ec0e045	0.37671104
188	0x3e23ca75	0.159952
189	0x3eedea88	0.46467996
190	0x3c081f76	0.008308282
191	0xbf2e2780	-0.6802902
192	0x3e4cdc70	0.20005965
193	0xbe0a55ff	-0.13509367
194	0x3f4f8ac9	0.81071144
195	0xbf171eb6	-0.59031236
196	0xbf3470e7	-0.70484775
197	0xbe49a069	-0.19690098
198	0xbf13d92b	-0.5775325
199	0xbede89e1	-0.43464568
200	0x3eb01987	0.34394476
201	0x3eab0081	0.33398822
202	0x3f0fc613	0.5616161
203	0xbe40d612	-0.18831661
204	0x3edca405	0.43093887
205	0x3e45e6ae	0.19326279
206	0x3e6997a4	0.22811753
207	0x3ed5e990	0.41779757
208	0x3e9da302	0.30788428
209	0x3e3368e3	0.1752048
210	0x3ef0821b	0.46974263
211	0x3f5fa185	0.87355834
212	0xbf043c92	-0.5165492
213	0x3eb3808d	0.35059014
214	0xbddc6eae	-0.10763298
215	0x3bc4d029	0.00600626
216	0xbec16345	-0.3777105
217	0x3da6dbfc	0.081474274
218	0xbf19439c	-0.5986879
219	0xbf1f8669	-0.6231447
220	0x3edd3b58	0.43209338
221	0x3e37f11e	0.17963073
222	0x3e93405c	0.2876004
223	0x3f2c8e66	0.6740478
224	0xbf2a166c	-0.66440463
225	0x3f4808bb	0.7813832
226	0xbf23813c	-0.6386907
227	0x3e77dd77	0.24205576
228	0x3db6b9d1	0.089221604
229	0x3eb6eafa	0.35726148
230	0x3de5a8d9	0.11213846
231	0x3eb360cc	0.35034788

1.l1.weight f4 [295, 232]
0	0xbdbb377c	-0.09141442
1	0xbd416965	-0.047219653
2	0xbdff069a	-0.12452431
3	0xbc89ca31	-0.016820045
4	0xbd1a5cf8	-0.03768632
5	0x3da5859b	0.08082124
6	0xbcbff8ce	-0.023434069
7	0xbc4d57e2	-0.01253316
8	0x3e59ca12	0.2126849
9	0xbc50bd83	-0.012740496
10	0xbe8a748b	-0.2704204
11	0xbcb56a28	-0.022145346
12	0xbe702a71	-0.2345369
13	0xbe704391	-0.23463275
14	0xbae2b7f6	-0.0017297256
15	0x3e03b94b	0.12863652
16	0x3cf789b0	0.030217022
17	0x3cfedd2d	0.031111324
18	0x3d6ce44a	0.0578349
19	0xbef91f6a	-0.4865678
20	0x3e94f2f8	0.2909162
21	0xbe7445b6	-0.23854718
22	0x3ccb0fc2	0.024787787
23	0xbc68887d	-0.014192698
24	0xbcee5a7c	-0.02909588
25	0x3d936f7f	0.071990006
26	0x3e5f9c9e	0.21837088
27	0xbae2f81e	-0.0017316376
28	0xbc8db2ca	-0.017297167
29	0x3e2908fa	0.1650733
30	0x3b8abdb8	0.004234042
31	0xbd9f4f11	-0.077787526
32	0x3bc08282	0.0058749327
33	0x3b82cdc4	0.0039918143
34	0xbad732d6	-0.0016418349
35	0xbea51200	-0.32240295
36	0xbe02267a	-0.1270999
37	0xbce94d89	-0.028479354
38	0xbc2208a7	-0.009889758
39	0xbbab6e0e	-0.0052316254
40	0xbd930551	-0.071787484
41	0x3db42789	0.08796603
42	0x3d82cd36	0.06386797
43	0xbf5bdbc8	-0.85882235
44	0xbeafcaf8	-0.3433454
45	0xbe82dad1	-0.2555757
46	0xbc5b7eb0	-0.013396904
47	0xbe119b72	-0.14219454
48	0x3d2e206a	0.04251138
49	0x3bf5a65f	0.0074966396
50	0xbe1bb216	-0.15204653
51	0x3bb11dd1	0.0054051657
52	0xbdaaabf4	-0.08333579
53	0x3b24ba00	0.0025135279
54	0xbca045cb	-0.01956453
55	0xbc824f24	-0.015906878
56	0xbe948646	-0.29008693
57	0x3c249d25	0.010047232
58	0xbdf49f17	-0.119444065
59	0xbd7f123a	-0.06227324
60	0xbcd3a57e	-0.025835749
61	0xbe13edf2	-0.14446238
62	0xbdb6ea8b	-0.08931454
63	0x3d066756	0.032813393
64	0x3c3e9e84	0.011634473
65	0x3c9ab402	0.018884663
66	0x3e709a41	0.23496343
67	0xbeda4fa1	-0.42638877
68	0xbec5e51e	-0.38651365
69	0x3c8b1371	0.016977044
70	0xbc7ca17f	-0.015419363
71	0xbcd8f29d	-0.026482875
72	0xbdbd1d66	-0.09234123
73	0xbe067f9e	-0.1313462
74	0x3bfa14f1	0.007631891
75	0x3d52ef21	0.051497582
76	0x3b4d3e7b	0.003131776
77	0x3d1938f3	0.037407827
78	0x3d3f6c06	0.04673388
79	0xbc358786	-0.011079675
80	0x3d6c1646	0.05763843
81	0x3d93e060	0.072205305
82	0x3c4d93bd	0.012547431
83	0x3d4de2f1	0.050265256
84	0xbb55c18b	-0.0032616581
85	0xbc0a926c	-0.008457761
86	0x3d8320f0	0.06402767
87	0x3b704bc7	0.003666626
88	0x3ce58ba8	0.028020695
89	0xbc7f30bb	-0.015575583
90	0xbe439ab7	-0.19101988
91	0xbea3b690	-0.31975222
92	0xbef76499	-0.48318937
93	0x3d296d41	0.04136396
94	0x3ba6e8e2	0.0050936798
95	0x3cc8c2a6	0.024506878
96	0x3e0c7d56	0.13719687
97	0xbf1549be	-0.58315647
98	0xbc9d347e	-0.01919007
99	0x3cbceab5	0.023061136
100	0xbc9d345c	-0.019190006
101	0xbea8d327	-0.32973596
102	0xbc42ac82	-0.011881949
103	0x3c538ee9	0.01291249
104	0xbd79faff	-0.061030384
105	0xbb1e1187	-0.0024119334
106	0x3d1d7eb9	0.03845093
107	0xbbd6f9bf	-0.006560534
108	0xbe69bb1f	-0.22825287
109	0x3bd22514	0.0064131115
110	0xbbf1d2c0	-0.0073798597
111	0xbea27065	-0.31726375
112	0xbf7c28bf	-0.98499674
113	0x3c163526	0.009167945
114	0x3d6a159d	0.05714952
115	0xbeee9989	-0.46601513
116	0xbd4eab56	-0.050456367
117	0xbe57a7fb	-0.21060173
118	0x3cd50afc	0.026006214
119	0xbd226499	-0.03964672
120	0xbdad3873	-0.084580325
121	0xbf0e26ce	-0.5552796
122	0xbd1a2d67	-0.037640955
123	0x3d183f28	0.037169605
124	0x3a640241	0.00086978456
125	0xbc01ba48	-0.007917948
126	0xbffcd3cd	-1.9752136
127	0xbd26b618	-0.040701002
128	0xbd8d0283	-0.06885245
129	0xbb2813ea	-0.0025646635
130	0xbdc2f7b3	-0.09519901
131	0xbedb9d9f	-0.42893693
132	0xbc336ee0	-0.010951728
133	0xbed65495	-0.41861406
134	0xbeeaf65c	-0.45891082
135	0xbeec499d	-0.46149912
136	0xbdb3abf2	-0.0877303
137	0x3c5eeb6f	0.013605936
138	0x3c06d317	0.008229039
139	0xbdb01535	-0.08597795
140	0xbc23df1f	-0.010001927
141	0x3d8e70f2	0.06955136
142	0xbaa574cb	-0.0012623308
143	0xbeca4f74	-0.39513743
144	0x3d828997	0.063738994
145	0x3d1c26db	0.038122993
146	0x3db60c71	0.08889092
147	0xbe89562d	-0.2682356
148	0xbe127b34	-0.14304811
149	0xbcd6303a	-0.026146043
150	0xbc2216c3	-0.009893122
151	0xbf137ded	-0.5761402
152	0xbc1d54f5	-0.009602775
153	0x3d455233	0.048174094
154	0xbd544fac	-0.051833794
155	0xbafee1f9	-0.0019446007
156	0xbe3ede2a	-0.18639436
157	0x3c95cf6d	0.018287385
158	0xbc0b60af	-0.008506938
159	0x3e421d97	0.189566
160	0x3dbe572b	0.0929397
161	0xbda005e6	-0.07813625
162	0x3d9badb7	0.07601493
163	0xbca150e3	-0.01969189
164	0x3e43ae5d	0.19109483
165	0xbc940399	-0.018068122
166	0xbf173441	-0.5906411
167	0x3c3de00f	0.011589064
168	0xbc024c71	-0.007952795
169	0x3c41409e	0.011795191
170	0xbc7acff1	-0.015308366
171	0xbea5db45	-0.32393852
172	0xbf07cd2d	-0.5304745
173	0x3ca84f07	0.020545496
174	0x3cf9fbd5	0.03051559
175	0xbbdc0bc3	-0.0067152693
176	0xbbbc8565	-0.0057532066
177	0x3c877b41	0.016538264
178	0x3d8e9cb4	0.069634825
179	0x3cb9a308	0.022660747
180	0xbb7358e4	-0.003713184
181	0x3c323a8d	0.010878217
182	0x3bad5eb5	0.005290831
183	0xbcf83e24	-0.030303068
184	0xbc486a5a	-0.012232387
185	0x3ea9090d	0.33014718
186	0xbd81efaf	-0.06344544
187	0xbedd295d	-0.4319562
188	0x3be551da	0.006998283
189	0x3d209416	0.039203726
190	0x3d4253f0	0.04744333
191	0xbaf999e2	-0.0019043053
192	0x3cf0669a	0.0293458
193	0x3cd1c9c6	0.025608908
194	0x3cbd78c3	0.023128873
195	0xbcdc7e1d	-0.026915604
196	0xbda6eb9a	-0.08150406
197	0xbb207ff9	-0.002449034
198	0x3c79bb6a	0.015242437
199	0x3c00096a	0.0078147445
200	0xbf0ebcae	-0.5575665
201	0xbdf6ab0a	-0.12044342
202	0x3bdf6002	0.006816865
203	0x3d2a0a38	0.04151365
204	0xbef43fbb	-0.47704872
205	0xbe42bbcb	-0.1901695
206	0xbe3aab5a	-0.18229428
207	0xbee464ba	-0.44608098
208	0xbdb22b3c	-0.086996526
209	0x3c8ecc70	0.017431468
210	0x3d087893	0.033318114
211	0xbcda9465	-0.026682088
212	0x3cb2338f	0.0217531
213	0xbee8468b	-0.4536632
214	0x3c916846	0.017749917
215	0x3dc12f35	0.09432832
216	0xbc3a816f	-0.011383398
217	0x3dbd92fc	0.09256551
218	0xbaaa1977	-0.001297756
219	0xbc6b0f33	-0.0143468855
220	0xbf0acd38	-0.5421939
221	0x3dfef99a	0.124499515
222	0xbe8397c5	-0.25701728
223	0x3d2b8ec7	0.04188421
224	0xbbec663c	-0.0072143357
225	0x3c496c44	0.012293879
226	0xbca40d86	-0.02002598
227	0x3dcc74a9	0.09983189
228	0x3c91ba79	0.017789112
229	0xbcb4d608	-0.022074714
230	0xbd8ad8f6	-0.06779663
231	0xbed5be8e	-0.41746944
232	0xbb9973c4	-0.00468299
233	0xbdfaf3c1	-0.122535236
234	0x3aa9801b	0.0012931855
235	0xba93e63b	-0.0011283824
236	0x3c0ed515	0.008717795
237	0x3cd829ca	0.026387114
238	0x3dccadcc	0.099940866
239	0x3c962781	0.018329384
240	0x3dadc7ee	0.08485399
241	0x3d21c7f8	0.039497346
242	0xbe84490b	-0.25836977
243	0xbcae6a8a	-0.021291036
244	0xbecd4961	-0.40095046
245	0xbd116dd2	-0.035505123
246	0xbcc028f9	-0.023457037
247	0x3e04072c	0.12893361
248	0x3cc8f7c9	0.024532216
249	0x3d380722	0.044928677
250	0x3cc75a69	0.024335103
251	0xbf02b51b	-0.51057595
252	0xbdb6977e	-0.089156136
253	0xbefe6820	-0.49688816
254	0xbc44a3ba	-0.012001926
255	0x3d393659	0.045217846

1.l1.bias f4 [295]
0	0x3f4ca4fa	0.79939234
1	0x3f855cf6	1.0418994
2	0xbebc9599	-0.36832884
3	0x3ed7b20f	0.42128035
4	0x3e1787fd	0.14797969
5	0xbccb56bc	-0.024821632
6	0xbe85c816	-0.26129216
7	0xbc64b5cc	-0.013959359
8	0x3e95d11e	0.29261106
9	0x3f0af1ae	0.54275024
10	0x3f203a7a	0.6258923
11	0x3e3efd06	0.18651208
12	0x3f74e620	0.9566364
13	0x3efa9174	0.48939097
14	0x3f692272	0.91068184
15	0x3f7b5805	0.9818118
16	0x3f6b5a28	0.9193444
17	0x3f14f9ff	0.58193964
18	0x3e6ef1a5	0.23334368
19	0xbf370477	-0.7149119
20	0x3d02d1f8	0.031938523
21	0x3f77288c	0.96546245
22	0x3f2ff234	0.6872895
23	0x3f651295	0.8948148
24	0x3cc1c079	0.023651348
25	0x3eb52aa6	0.353841
26	0xbd9ea608	-0.07746512
27	0x3ef91785	0.48650756
28	0x3e990a51	0.29890683
29	0x3ee70857	0.4512355
30	0x3e0b60a1	0.1361108
31	0x3efeffce	0.49804538
32	0xbe4a82c6	-0.19776449
33	0x3f38722b	0.72049206
34	0xbe05f309	-0.13080992
35	0x3f7cc836	0.98743
36	0x3f2c5e57	0.6733145
37	0x3f0c46c5	0.54795486
38	0xbe7fa8f4	-0.24966794
39	0xbead136e	-0.33803886
40	0xbe0f36cf	-0.13985752
41	0xbf7cdd64	-0.98775315
42	0x3e441cd7	0.19151627
43	0xbf5aa2f0	-0.8540487
44	0x3f7dcf8e	0.9914483
45	0xbf0787f2	-0.5294181
46	0x3effb0c2	0.49939543
47	0x3f75295a	0.9576622
48	0x3ecf1a1e	0.40449613
49	0xbf92740d	-1.1441666
50	0x3eaeef93	0.34167156
51	0x3f85f9ab	1.0466818
52	0x3f15e813	0.5855724
53	0x3f0550e7	0.5207657
54	0x3f050e92	0.5197536
55	0x3f8a2c03	1.0794681
56	0x3f6c82d9	0.9238716
57	0xbe71ae8b	-0.23601739
58	0x3c3c18da	0.011480534
59	0xbf95ecb9	-1.1712867
60	0x3f75f8b9	0.96082646
61	0xbe3c1835	-0.18368609
62	0x3f3d7985	0.7401355
63	0xbe7e3a08	-0.24826825
64	0xbea815d3	-0.3282915
65	0x3f6b8ff3	0.92016524
66	0xbcb32264	-0.021866985
67	0x3f927355	1.1441447
68	0xbf8d7a45	-1.1052939
69	0xbe71a2d8	-0.23597276
70	0x3f32bb1f	0.69816774
71	0x3f6f8074	0.9355538
72	0x3f23646d	0.6382511
73	0xbf6c83f8	-0.9238887
74	0xbf28f215	-0.6599439
75	0xbd4709e4	-0.048593417
76	0xbe809339	-0.25112322
77	0x3efe3773	0.4965168
78	0x3f707546	0.93928945
79	0xbf233f9d	-0.6376894
80	0x3f8580e1	1.0429956
81	0xbf0c55f2	-0.5481864
82	0x3eeca1d4	0.46217215
83	0x3f444bd4	0.76678205
84	0x3f70ce82	0.94065106
85	0xbe77a989	-0.24185766
86	0xbf5519d8	-0.8324256
87	0xbd42dd88	-0.04757455
88	0xbddd790f	-0.10814106
89	0xbeafe8d5	-0.34357324
90	0x3ef44ce3	0.4771491
91	0xbc282617	-0.010262988
92	0x3f1a619e	0.603052
93	0x3f5426a7	0.8287148
94	0x3f0f9625	0.5608848
95	0x3f14e476	0.58161104
96	0x3f85c0d7	1.0449475
97	0x3f07eb99	0.5309387
98	0x3e17e1e4	0.14832264
99	0x3f626bbc	0.8844564
100	0x3f27794d	0.65419465
101	0xbe9d4d40	-0.30723
102	0x3f5b90cc	0.8576782
103	0x3ee982a0	0.4560747
104	0x3f700999	0.93764645
105	0x3e1c362a	0.15255037
106	0x3f0f5068	0.55982065
107	0x3ec9279f	0.3928804
108	0x3f06dde7	0.52682346
109	0x3f73fc18	0.9530654
110	0x3f1512c3	0.58231753
111	0x3f6a2e0b	0.91476506
112	0xbdd50605	-0.10401539
113	0xbe8c5717	-0.27410194
114	0x3e2cb5e8	0.16866267
115	0xbf7b0096	-0.9804777
116	0x3e9db38d	0.3080105
117	0x3ee22a83	0.4417306
118	0xbeddc1c4	-0.43311894
119	0x3f69675a	0.91173327
120	0xbd4e606c	-0.050384924
121	0x3f7e712b	0.9939143
122	0x3f71d32d	0.94462854
123	0x3f83b7d1	1.0290471
124	0x3f175f2e	0.5912961
125	0x3f105e78	0.5639415
126	0x3f6b9307	0.9202122
127	0x3f6e4f40	0.93089676
128	0x3ef3bd33	0.47605285
129	0x3e814b0a	0.25252563
130	0x3e673c35	0.22581561
131	0xbe70c9d7	-0.23514496
132	0x3f0a82d1	0.5410586
133	0xbe9c4fea	-0.3052972
134	0xbe79c992	-0.24393299
135	0xbecc7d5c	-0.39939392
136	0x3f0f6be1	0.56023985
137	0x3f573352	0.84062684
138	0x3f3f12e7	0.7463822
139	0x3f5603ab	0.83599347
140	0xbe9aa84f	-0.30206534
141	0x3f71979c	0.9437196
142	0x3eea1c11	0.45724538
143	0x3e4dbbdb	0.20091192
144	0x3f016682	0.5054704
145	0x3f03c55b	0.51473016
146	0x3f2c5142	0.6731149
147	0x3cb53113	0.022118127
148	0x3f219a5e	0.6312617
149	0x3f721d41	0.9457589
150	0x3f1e3fed	0.61816293
151	0x3e396985	0.18106659
152	0x3f66b01a	0.9011246
153	0x3f652240	0.89505386
154	0x3f038b62	0.51384556
155	0x3ef5e463	0.48025808
156	0xbe94eb7d	-0.29085913
157	0xbda60263	-0.08105924
158	0x3f6be2b0	0.9214277
159	0x3f0132b7	0.5046801
160	0x3d918775	0.071059145
161	0xbf183880	-0.5946121
162	0x3eca3eab	0.39500937
163	0xbbfe4d22	-0.00776066
164	0x3db2b977	0.08726781
165	0x3f0908cb	0.5352904
166	0xbd9565cc	-0.07294807
167	0x3f7cbef9	0.987289
168	0x3eb53788	0.3539393
169	0x3f24a15c	0.64308715
170	0xbf1aa1b6	-0.60403
171	0x3f2e33c3	0.6804773
172	0xbe5352a9	-0.20637001
173	0xbf3698a3	-0.71326655
174	0xbf725918	-0.94667196
175	0x3f62e2dc	0.8862741
176	0xbf6abeb7	-0.9169726
177	0xbbc30fec	-0.005952826
178	0xbf495c26	-0.7865623
179	0xbe94c35a	-0.2905529
180	0x3f520f42	0.8205453
181	0x3f407082	0.75171673
182	0xbacd110c	-0.0015645339
183	0xbe9efdfa	-0.31053144
184	0xbf5257a5	-0.82164985
185	0x3f65d40f	0.897767
186	0xbf8bf225	-1.0933272
187	0xbcc4c67f	-0.024020432
188	0x3c2d0d45	0.010562246
189	0x3f5f73e5	0.87286216
190	0xbeedf452	-0.46475464
191	0x3e42350e	0.18965551
192	0x3f199687	0.5999531
193	0xbe8bcf14	-0.27306426
194	0xbf05f018	-0.5231948
195	0x3eff7b52	0.49898773
196	0x3d0ed703	0.03487302
197	0x3f58be54	0.8466542
198	0xbd867564	-0.06565359
199	0x3f855d2e	1.0419061
200	0x3f25ccc6	0.64765584
201	0x3f05427b	0.52054566
202	0x3f358884	0.7091143
203	0x3f69ed6a	0.9137789
204	0xbe2345cd	-0.15944596
205	0x3e08e458	0.13368356
206	0x3f84738e	1.0347764
207	0x3d93bf93	0.07214274
208	0x3f886a8c	1.0657516
209	0x3f818c11	1.012087
210	0x3ebf88f5	0.37409177
211	0x3f068674	0.5254891
212	0x3efd8e2b	0.49522528
213	0x3f804d2b	1.002355
214	0x3f6d4a1e	0.9269122
215	0x3f42108b	0.7580649
216	0xbf22c77f	-0.63585657
217	0x3e2c2849	0.16812243
218	0xbe6e0425	-0.23243769
219	0x3efaaba3	0.48959073
220	0x3f755415	0.95831424
221	0x3f794936	0.97377336
222	0xbed4cb53	-0.41561374
223	0xbf88f359	-1.0699264
224	0xbf8191b7	-1.0122594
225	0x3f7edbae	0.99553955
226	0x3f1dc263	0.61624736
227	0x3cbbc04d	0.022918845
228	0xbf9d1f5c	-1.2275195
229	0x3f695b8e	0.91155326
230	0x3f56c363	0.83891886
231	0x3f75548e	0.95832145
232	0x3de70012	0.1127931
233	0xbf1e6238	-0.6186862
234	0x3b9c2d62	0.0047661522
235	0x3dab9448	0.08377892
236	0x3f70c41d	0.94049245
237	0x3efda78c	0.4954189
238	0x3f72dad5	0.9486516
239	0x3e90fd79	0.28318384
240	0x3f717c01	0.9432984
241	0xbf857793	-1.0427116
242	0x3ea254d7	0.31705353
243	0xbe2bcca9	-0.1677729
244	0x3ef88782	0.48540884
245	0x3f1af795	0.6053403
246	0xbf3bbbb8	-0.7333331
247	0x3ed6cf70	0.41955137
248	0xbd9a2b8f	-0.075278394
249	0xbf8870da	-1.065944
250	0xbe826527	-0.25467798
251	0x3dd66450	0.10468352
252	0x3f7fe746	0.9996227
253	0x3f365817	0.71228164
254	0xbe18292d	-0.14859457
255	0x3f6c5503	0.9231722

1.l3.weight f4 [1, 295]
0	0x3daf47f9	0.085586496
1	0x3d7b86f3	0.061407994
2	0x3c2540af	0.010086223
3	0xbcd21ef8	-0.025649533
4	0xbf8bc7da	-1.0920365
5	0x3d2a8143	0.04162718
6	0xbf4ccbb5	-0.7999833
7	0x3b6fc46a	0.0036585578
8	0xbc875299	-0.016518878
9	0xbcc55fa0	-0.02409345
10	0xbf1d0d5e	-0.6134852
11	0xbf7aa47f	-0.9790725
12	0x3daa8a2f	0.08327138
13	0xbeb93eba	-0.3618067
14	0x3d498322	0.049197324
15	0x3d8b0fae	0.067901
16	0x3dca03b4	0.098639876
17	0x3e74c402	0.23902896
18	0x3ea12eb2	0.31480938
19	0x3ca9fe73	0.020751214
20	0x3c08fbd6	0.008360824
21	0x3d70afeb	0.05876152
22	0xbf075ab6	-0.5287279
23	0x3d5f5d11	0.054532114
24	0xbfad144a	-1.3521817
25	0xbd0d9e08	-0.03457454
26	0x3d0f04f1	0.034916822
27	0xbd1c337d	-0.03813504
28	0x3ee5d164	0.44886315
29	0xbd176821	-0.03696454
30	0xbf71ab9c	-0.9440248
31	0xbd01cd4d	-0.03168993
32	0xbd461274	-0.048357442
33	0xbdef61a2	-0.11688544
34	0xbd067c8f	-0.032833632
35	0x3d96b7dc	0.07359287
36	0x3cccaecd	0.024985695
37	0xbcd24d47	-0.025671614
38	0xbd0aaaa7	-0.033854153
39	0x3c673152	0.01411088
40	0xbc5ed175	-0.013599743
41	0x3c9cfc14	0.019163169
42	0xbc9cdc6d	-0.019148076
43	0x3a7a2ac9	0.00095431186
44	0x3d181279	0.037126992
45	0xbc1a677c	-0.009424087
46	0xbd0c9032	-0.034317203
47	0x3d98d481	0.07462407
48	0xbcae226b	-0.021256646
49	0x3c7064c5	0.014672463
50	0xbcbab8e4	-0.02279324
51	0x3da69667	0.08134156
52	0xbde01cba	-0.10942979
53	0xbcf2effd	-0.029655451
54	0xbcf063b2	-0.029344413
55	0x3cff964a	0.031199593
56	0x3d8cdf6d	0.068785526
57	0xbd45b177	-0.048264947
58	0xbb4f322e	-0.0031615603
59	0x3d15c41a	0.03656397
60	0x3d49852e	0.049199276
61	0xbd37d120	-0.04487717
62	0xbf084a60	-0.5323849
63	0xbd5696d9	-0.052389953
64	0x3c1ea087	0.009681827
65	0x3d4476b1	0.047964755
66	0xbfe30d61	-1.7738458
67	0x3de73699	0.112897106
68	0x3cf0139d	0.029306227
69	0x3f137f5b	0.57616204
70	0x3db6dc33	0.089287184
71	0x3d92eab4	0.07173672
72	0xbf24c43e	-0.6436194
73	0x3c919a67	0.01777382
74	0x3c39b554	0.011334736
75	0xbd4ae718	-0.049536794
76	0xbcb904b8	-0.022585258
77	0xbf3adb92	-0.7299129
78	0x3d7f226a	0.06228868
79	0xbd001ea9	-0.03127924
80	0x3d4b7433	0.049671363
81	0x3c829fe2	0.015945379
82	0xbd102c4d	-0.0351985
83	0x3ce69de1	0.028151454
84	0x3dd427d2	0.103591576
85	0x3c55f05a	0.013057793
86	0x3d24d62e	0.04024332
87	0xbcb17863	-0.02166385
88	0xbbd4edea	-0.006498088
89	0xbcca157c	-0.024668448
90	0xbd06505b	-0.032791477
91	0x3c27a968	0.010233261
92	0x3e1b59fe	0.15171048
93	0x3d4a7530	0.049428165
94	0xbd1ee82e	-0.038795643
95	0xbd2d4873	-0.04230542
96	0x3da0314c	0.07821903
97	0x3ccdeeac	0.025138222
98	0xbf8eb032	-1.114752
99	0x3d85f6c0	0.065412045
100	0x3f5718ce	0.84022224
101	0xbc0d1b02	-0.008612396
102	0x3d6fbd90	0.05853039
103	0xbe571e4c	-0.21007651
104	0x3dbfe73b	0.093702756
105	0xbf70c7df	-0.9405498
106	0xbed50b65	-0.41610256
107	0xbec0b1f3	-0.37635764
108	0xbd02235b	-0.031772
109	0x3dac5d4a	0.08416231
110	0xbf3c5851	-0.7357226
111	0x3d834502	0.064096466
112	0xbd30e471	-0.04318661
113	0x3b7d834c	0.0038682995
114	0xbf7816cb	-0.9690978
115	0x3cab430c	0.020905994
116	0xbf5c34fd	-0.86018354
117	0xbc9f7efd	-0.019469732
118	0x3d083149	0.033250127
119	0x3d9e43ce	0.077277765
120	0xbd07b8e5	-0.033135314
121	0x3d8a9643	0.067669414
122	0x3d96b114	0.07357994
123	0x3d499307	0.04921248
124	0xbd10526e	-0.03523486
125	0xbdea0aab	-0.11427816
126	0x3daf8e71	0.085720904
127	0x3dd77cc1	0.10521842
128	0xbd3377cf	-0.04381543
129	0xbf492012	-0.7856456
130	0xbcd25e0a	-0.025679607
131	0x3d4b4f47	0.04963615
132	0xbdbb60d3	-0.09149327
133	0x3d2c3d47	0.042050626
134	0xbce3d153	-0.027809775
135	0xbc4f8b19	-0.012667441
136	0x3dc4bfae	0.096068725
137	0x3d75baab	0.059992474
138	0x3d8c8a6f	0.068623416
139	0x3d6f4466	0.05841484
140	0xbae7e206	-0.0017691262
141	0x3d93ca2b	0.07216295
142	0xbcf8b15b	-0.030358007
143	0xbcbd0551	-0.023073824
144	0xbd0d6f57	-0.03453001
145	0xbcfa822c	-0.030579649
146	0xbeb8eba0	-0.36117268
147	0x3cffe319	0.031236218
148	0xbed90359	-0.42385367
149	0x3dbc21bc	0.09186122
150	0xbeddbde3	-0.43308935
151	0xbf51e4c2	-0.8198968
152	0x3d99c839	0.075088926
153	0x3d8c2635	0.06843225
154	0xbd01e055	-0.03170808
155	0xbd1bfc13	-0.038082194
156	0x3c5de3ad	0.013543052
157	0x3b20d3ee	0.0024540382
158	0x3d894f67	0.06704598
159	0xbd6a8aa0	-0.05726111
160	0xbf91b605	-1.1383673
161	0x3bd2954b	0.0064264885
162	0xbcb78de3	-0.022406524
163	0x3b4e2c40	0.003145948
164	0xbf844db5	-1.0336214
165	0x3e4f2d1e	0.20232055
166	0x3ce1b6d3	0.027552998
167	0x3d4ee692	0.050512858
168	0xbd14cee5	-0.036330123
169	0x3e23cca2	0.1599603
170	0xbccc8003	-0.024963384
171	0x3cbe0fa4	0.023200817
172	0xbca402c7	-0.020020856
173	0x3d10dfdf	0.03536975
174	0x3cad85fa	0.021182049
175	0x3d7013be	0.058612578
176	0x3cbcf744	0.023067124
177	0x3bbd6522	0.0057798782
178	0x3c3a518a	0.0113719795
179	0xbccf7847	-0.025325907
180	0xbeb9445a	-0.3618496
181	0xbf0c493e	-0.5479926
182	0x3c2dfa44	0.01061875
183	0x3b7cd6ef	0.003858026
184	0x3cac3170	0.021019667
185	0x3da1c853	0.07899537
186	0x3cd2a81e	0.02571493
187	0xbd309eec	-0.04312031
188	0x3d30ec3b	0.043194037
189	0x3d8ac91d	0.067766406
190	0x3b24b47e	0.0025131996
191	0xbf9786fb	-1.1838068
192	0xbd172612	-0.03690154
193	0x3eb0bb20	0.34517765
194	0x3c35b713	0.011091012
195	0xbcf51114	-0.02991537
196	0x3d2b6967	0.041848566
197	0xbedc1f04	-0.42992413
198	0xbe060cee	-0.1309087
199	0x3dddf635	0.10837976
200	0xbe9d5332	-0.30727535
201	0xbd82eb05	-0.06392483
202	0xbf052095	-0.5200284
203	0x3d3fd218	0.04683122
204	0x3f89936c	1.0748115
205	0xbf764f19	-0.96214443
206	0x3db275e7	0.08713894
207	0xbc5738b6	-0.01313608
208	0x3d9443b8	0.07239479
209	0x3d674f56	0.056472145
210	0x3e2f9e83	0.17150311
211	0xbd1e93cf	-0.03871518
212	0xbcedfa55	-0.029050032
213	0x3d9e9317	0.07742899
214	0x3d3c72da	0.04600797
215	0xbe18a8e8	-0.14908183
216	0xbd0a825e	-0.033815734
217	0xbf43a620	-0.7642536
218	0xbd355055	-0.044266064
219	0xbd1a7c81	-0.037716392
220	0x3d4feacb	0.050761025
221	0x3d998124	0.07495335
222	0x3ce5fb3a	0.028073896
223	0x3c982a76	0.018574934
224	0x3be42516	0.006962429
225	0x3daf727a	0.085667565
226	0x3f5d3fc2	0.8642541
227	0x3d377be9	0.044795904
228	0x3d30f3f9	0.04320142
229	0x3d80034c	0.06250629
230	0x3d93cc30	0.0721668
231	0x3d402901	0.046914104
232	0xbf5c9090	-0.86158085
233	0x3bcba024	0.0062141586
234	0xbfe63fea	-1.7988255
235	0xbfa5a9fc	-1.29425
236	0x3dd6b12b	0.10483011
237	0xbdd585fc	-0.10425946
238	0x3d9e667f	0.07734393
239	0xbc90ed2c	-0.017691217
240	0x3d4b15d1	0.049581353
241	0x3cac2e4d	0.021018172
242	0xbc99ec47	-0.018789424
243	0xbd2978d3	-0.041374993
244	0xbd41bc97	-0.047298994
245	0x3cca0730	0.02466163
246	0x3a9f010c	0.0012131049
247	0xbcf0034f	-0.029298453
248	0xbb8e5821	-0.004344002
249	0xba0c7b86	-0.00053589826
250	0xbc96f102	-0.018425468
251	0xbf9401b5	-1.1563021
252	0x3daa0144	0.08301023
253	0xbe8827e1	-0.26592925
254	0xbd28ea90	-0.04123932
255	0x3d3ca706	0.046057723
