ergoCubSN001/friction_pinn/2_rk_b4184_h20.onnx (onnx, 216833 bytes, 7 tensors)

0.weight f4 [40, 40]
00000000: bae2 2641 0000 0000 0000 0000 0000 0000
00000010: 0000 0000 0000 0000 0000 0000 0000 0000
00000020: 0000 0000 0000 0000 0000 0000 0000 0000
00000030: 0000 0000 0000 0000 0000 0000 0000 0000
00000040: 0000 0000 0000 0000 0000 0000 0000 0000
00000050: 0000 0000 0000 0000 0000 0000 0000 0000
00000060: 0000 0000 0000 0000 0000 0000 0000 0000
00000070: 0000 0000 0000 0000 0000 0000 0000 0000
00000080: 0000 0000 0000 0000 0000 0000 0000 0000
00000090: 0000 0000 0000 0000 0000 0000 0000 0000
000000a0: 0000 0000 bae2 2641 0000 0000 0000 0000
000000b0: 0000 0000 0000 0000 0000 0000 0000 0000
000000c0: 0000 0000 0000 0000 0000 0000 0000 0000
000000d0: 0000 0000 0000 0000 0000 0000 0000 0000
000000e0: 0000 0000 0000 0000 0000 0000 0000 0000
000000f0: 0000 0000 0000 0000 0000 0000 0000 0000
00000100: 0000 0000 0000 0000 0000 0000 0000 0000
00000110: 0000 0000 0000 0000 0000 0000 0000 0000
00000120: 0000 0000 0000 0000 0000 0000 0000 0000
00000130: 0000 0000 0000 0000 0000 0000 0000 0000
00000140: 0000 0000 0000 0000 bae2 2641 0000 0000
00000150: 0000 0000 0000 0000 0000 0000 0000 0000
00000160: 0000 0000 0000 0000 0000 0000 0000 0000
00000170: 0000 0000 0000 0000 0000 0000 0000 0000
00000180: 0000 0000 0000 0000 0000 0000 0000 0000
00000190: 0000 0000 0000 0000 0000 0000 0000 0000
000001a0: 0000 0000 0000 0000 0000 0000 0000 0000
000001b0: 0000 0000 0000 0000 0000 0000 0000 0000
000001c0: 0000 0000 0000 0000 0000 0000 0000 0000
000001d0: 0000 0000 0000 0000 0000 0000 0000 0000
000001e0: 0000 0000 0000 0000 0000 0000 bae2 2641
000001f0: 0000 0000 0000 0000 0000 0000 0000 0000
00000200: 0000 0000 0000 0000 0000 0000 0000 0000
00000210: 0000 0000 0000 0000 0000 0000 0000 0000
00000220: 0000 0000 0000 0000 0000 0000 0000 0000
00000230: 0000 0000 0000 0000 0000 0000 0000 0000
00000240: 0000 0000 0000 0000 0000 0000 0000 0000
00000250: 0000 0000 0000 0000 0000 0000 0000 0000
00000260: 0000 0000 0000 0000 0000 0000 0000 0000
00000270: 0000 0000 0000 0000 0000 0000 0000 0000
00000280: 0000 0000 0000 0000 0000 0000 0000 0000
00000290: bae2 2641 0000 0000 0000 0000 0000 0000
000002a0: 0000 0000 0000 0000 0000 0000 0000 0000
000002b0: 0000 0000 0000 0000 0000 0000 0000 0000
000002c0: 0000 0000 0000 0000 0000 0000 0000 0000
000002d0: 0000 0000 0000 0000 0000 0000 0000 0000
000002e0: 0000 0000 0000 0000 0000 0000 0000 0000
000002f0: 0000 0000 0000 0000 0000 0000 0000 0000
00000300: 0000 0000 0000 0000 0000 0000 0000 0000
00000310: 0000 0000 0000 0000 0000 0000 0000 0000
00000320: 0000 0000 0000 0000 0000 0000 0000 0000
00000330: 0000 0000 bae2 2641 0000 0000 0000 0000
00000340: 0000 0000 0000 0000 0000 0000 0000 0000
00000350: 0000 0000 0000 0000 0000 0000 0000 0000
00000360: 0000 0000 0000 0000 0000 0000 0000 0000
00000370: 0000 0000 0000 0000 0000 0000 0000 0000
00000380: 0000 0000 0000 0000 0000 0000 0000 0000
00000390: 0000 0000 0000 0000 0000 0000 0000 0000
000003a0: 0000 0000 0000 0000 0000 0000 0000 0000
000003b0: 0000 0000 0000 0000 0000 0000 0000 0000
000003c0: 0000 0000 0000 0000 0000 0000 0000 0000
000003d0: 0000 0000 0000 0000 bae2 2641 0000 0000
000003e0: 0000 0000 0000 0000 0000 0000 0000 0000
000003f0: 0000 0000 0000 0000 0000 0000 0000 0000
10.430353 0.0 0.0 0.0 0.0 0.0 0.0 0.0
0.0 0.0 0.0 0.0 0.0 0.0 0.0 0.0
0.0 0.0 0.0 0.0 0.0 0.0 0.0 0.0
0.0 0.0 0.0 0.0 0.0 0.0 0.0 0.0
0.0 0.0 0.0 0.0 0.0 0.0 0.0 0.0
0.0 10.430353 0.0 0.0 0.0 0.0 0.0 0.0
0.0 0.0 0.0 0.0 0.0 0.0 0.0 0.0
0.0 0.0 0.0 0.0 0.0 0.0 0.0 0.0
0.0 0.0 0.0 0.0 0.0 0.0 0.0 0.0
0.0 0.0 0.0 0.0 0.0 0.0 0.0 0.0
0.0 0.0 10.430353 0.0 0.0 0.0 0.0 0.0
0.0 0.0 0.0 0.0 0.0 0.0 0.0 0.0
0.0 0.0 0.0 0.0 0.0 0.0 0.0 0.0
0.0 0.0 0.0 0.0 0.0 0.0 0.0 0.0
0.0 0.0 0.0 0.0 0.0 0.0 0.0 0.0
0.0 0.0 0.0 10.430353 0.0 0.0 0.0 0.0
0.0 0.0 0.0 0.0 0.0 0.0 0.0 0.0
0.0 0.0 0.0 0.0 0.0 0.0 0.0 0.0
0.0 0.0 0.0 0.0 0.0 0.0 0.0 0.0
0.0 0.0 0.0 0.0 0.0 0.0 0.0 0.0
0.0 0.0 0.0 0.0 10.430353 0.0 0.0 0.0
0.0 0.0 0.0 0.0 0.0 0.0 0.0 0.0
0.0 0.0 0.0 0.0 0.0 0.0 0.0 0.0
0.0 0.0 0.0 0.0 0.0 0.0 0.0 0.0
0.0 0.0 0.0 0.0 0.0 0.0 0.0 0.0
0.0 0.0 0.0 0.0 0.0 10.430353 0.0 0.0
0.0 0.0 0.0 0.0 0.0 0.0 0.0 0.0
0.0 0.0 0.0 0.0 0.0 0.0 0.0 0.0
0.0 0.0 0.0 0.0 0.0 0.0 0.0 0.0
0.0 0.0 0.0 0.0 0.0 0.0 0.0 0.0
0.0 0.0 0.0 0.0 0.0 0.0 10.430353 0.0
0.0 0.0 0.0 0.0 0.0 0.0 0.0 0.0

0.bias f4 [40]
00000000: d269 87c0 b960 87c0 1656 87c0 6e50 87c0
00000010: 5843 87c0 bd37 87c0 fb2f 87c0 3a27 87c0
00000020: a21d 87c0 1012 87c0 7f07 87c0 85fb 86c0
00000030: 62f3 86c0 c1ec 86c0 6ee8 86c0 ebe0 86c0
00000040: d2dc 86c0 81e1 86c0 4bdb 86c0 6ed7 86c0
00000050: c30d 33c0 ac05 33c0 1cf6 32c0 bfec 32c0
00000060: 5df0 32c0 ccd9 32c0 6fc7 32c0 05bc 32c0
00000070: 399b 32c0 868d 32c0 e37a 32c0 da76 32c0
00000080: 267b 32c0 2c75 32c0 db70 32c0 9b6c 32c0
00000090: cf65 32c0 e165 32c0 bd6d 32c0 cd83 32c0
-4.2316675 -4.230557 -4.2292585 -4.228568 -4.2269707 -4.225554 -4.224607 -4.2235384
-4.2223673 -4.220955 -4.219665 -4.218203 -4.21721 -4.2164006 -4.215873 -4.214956
-4.2144556 -4.2150273 -4.214269 -4.2137976 -2.797715 -2.7972212 -2.7962713 -2.7956998
-2.7959206 -2.7945433 -2.7934225 -2.7927258 -2.790724 -2.789888 -2.7887504 -2.7885041
-2.7887664 -2.7884016 -2.7881382 -2.7878788 -2.787464 -2.7874682 -2.787948 -2.7892945

1.l0.weight f4 [222, 40]
00000000: fb6f 853d 0304 a83c 8697 1b3d b6c4 21bd
00000010: 91de 4fbc b5cc 39bd 5fad b13b 86db 863d
00000020: 85f6 983c 704b 05ba 5239 89bc 8528 e93c
00000030: 8814 823c a029 ea3d cdc2 7d3a 588f c53d
00000040: e691 373e ed25 113d 2720 623e 75d9 d33e
00000050: ee69 803e b446 18bd 62d4 093d a77c 0cbe
00000060: abbe 74bd 122d 0bbd df9d 35be 8ac2 343d
00000070: 761f fc3c bf59 56bd 12b5 933d f43e d33d
00000080: d0c2 e23d 57e5 f73c df93 27bd ddc6 4a3a
00000090: ca82 313d ce8a 86be 90cb 06bf 1f27 3dbf
000000a0: 1c37 243e 5916 e6bd d75b 0ebe ae15 e9bc
000000b0: 2e7c 703d a14f 993e f70a 15be 2736 27be
000000c0: 4f37 aebd 0b60 cbbd eecd 1abd 3cbb c7bd
000000d0: 274a c83d 8b99 653c bab1 1c3c 5c30 0c3e
000000e0: 16df 27bd ca2a 2d3d 7ac1 463d 2b11 be3d
000000f0: 0412 483e d39e 9f3d bb5f 75bd 1cff ae3c
00000100: 472d 25bd 3717 3aba c644 39bd be7d 58bd
00000110: 65ba 883d 6360 c9bd 7e7d f33d 04a8 6d3d
00000120: b040 a43d ac30 87bd 354a 9bbd 593a 84bd
00000130: 0876 93bb d429 c0bd 8f26 f9bc dfc8 04bd
00000140: 7488 9dbd 2528 ffbd 8a93 823b 827f d0bd
00000150: 7af4 2ebd 614a 043d d4b6 2b3d 3432 333e
00000160: c32b 3e3e c6bc dd3d 33ac 443e 77f3 053e
00000170: a916 23bb 5d48 083e 8133 30bd 0fbe d53d
00000180: 5607 96ba 5d7b 513e a71f 0ebe c81b 7ebe
00000190: 29ba c03e f49f 623e 3943 d93b 5ae7 e8bd
000001a0: aff1 ceba f244 77be bf46 5cbe 780c 91be
000001b0: 6abe 2dbe d7b8 80bd 9c76 aabd b15c b2bd
000001c0: 0bb7 21be 8ea0 6ebd 7d4e c33d df9f 2d3e
000001d0: a6c8 08bd 5299 673d 6aff ff3d 839d a23d
000001e0: f715 f23d 3f53 b23c cb77 f83c 8548 3e3d
000001f0: 8433 f73c 2c20 9a3c 3856 913c 4f20 ad3c
00000200: 0fd5 b53c d2ff 3d3c 5979 173c 510b aa3c
00000210: 8b2d 8a3c 5121 9a3c 8e15 d23c 241b 033d
00000220: 6fdf 0d3d 892f ed3c de33 553d 78fe df3c
00000230: 0da0 a4bd 4a9c da3d d4c0 0cbd b6c7 0abd
00000240: 1104 ce3c a125 0fbd 592f a0bb 7bf3 313d
00000250: 5bdb c73d fccd cebc ada8 10bd bfbe d23c
00000260: 8bc3 c13c 2faa b1bd 3515 0a3d 86d7 103c
00000270: 2be3 c2bd 44d5 143d d27c b13d a3aa 0bbd
00000280: 3bac 88be 5729 143f ffed bc3e 1f13 cc3d
00000290: 15b5 29be adc3 21be 58bb b8bd 0e3c 543e
000002a0: 50f7 bf3b 2376 7d3c 8d42 babd ccaa 5d3d
000002b0: ef43 1fbc a047 e6bd d17c 6cbd b28d 50bd
000002c0: cc43 bc3b 95e2 d3bd 585e 70bd c2b1 3bbc
000002d0: eb55 53be 61c2 f3bc 0e56 933b 4a28 5fbd
000002e0: 2003 b13d a020 353e f94d 06bb e554 433d
000002f0: d7ac 68bd 3b40 ffbc 918a 023d 7bfd 7a3e
00000300: 3856 f23c e2a9 d83d fcdc a9bd 1491 073e
00000310: 0ea5 40be a09a 533d 88dc 21be 67ae d0bd
00000320: 150c 2f3e 89a1 303e 5fe0 a4bd 258b eabc
00000330: 1226 533e d2ef 9c3c e99a 26be 4d80 823d
00000340: 884f 9abc 1a93 fabd 0620 c5bd 9f47 ebbd
00000350: bbc0 023c 3b48 6dbe d2d2 6ebd dfce 51bd
00000360: 9234 b1bd 8b2e 02be beda 24bd 92cb 85bd
00000370: b1a9 5fbe d440 dfbd 67a1 b0bd b929 b53d
00000380: 0ffb 583e 883c d03c 7d92 bbbc 80e1 83bd
00000390: 4d66 82bd 557a 68bd ca76 e3bc d641 9d3d
000003a0: 212a a73d 6980 a03d 9792 113d d2ab f83c
000003b0: 2797 fb3d 5b20 eb3d 1b0b dc3e 6a56 033f
000003c0: 0f42 963d 0ce8 843d f257 183c b997 bf3c
000003d0: abe8 74bc 014f 583a eabb 8cbb c4d8 0abd
000003e0: 20d0 f0bb 8afe 65bd e465 bd3c 45c6 54bd
000003f0: 0ea0 823c 3673 5dbd 802b b33d a795 c2bd
0.06515499 0.020509725 0.0379863 -0.03949424 -0.012687341 -0.04536124 0.005422279 0.065848395
0.018672237 -0.00050847884 -0.016750965 0.028461704 0.01587893 0.114337206 0.00096802117 0.09646481
0.1792675 0.03543656 0.22082578 0.41376844 0.25080818 -0.037176803 0.03364981 -0.13719426
-0.059752148 -0.03397853 -0.17736004 0.04413084 0.03077672 -0.052331682 0.07212271 0.10314742
0.11072314 0.030260725 -0.040912505 0.00077353214 0.04333762 -0.26277775 -0.5265436 -0.7388782
0.16036648 -0.11234731 -0.13902222 -0.02845272 0.058712177 0.29943565 -0.14554964 -0.16329251
-0.08506643 -0.09930428 -0.037794046 -0.09752509 0.097797684 0.014013658 0.009563858 0.13690323
-0.040984236 0.042277135 0.048524357 0.09280618 0.19538122 0.07793965 -0.05990575 0.02136188
-0.040326383 -0.0007098796 -0.045231603 -0.052854292 0.06676177 -0.098328374 0.1188917 0.05802156
0.08020151 -0.0660108 -0.07582513 -0.064564414 -0.0045001544 -0.09382978 -0.030413894 -0.032418128
-0.07692042 -0.12458829 0.003984873 -0.1018057 -0.04271362 0.032297496 0.041922405 0.1749962
0.18571381 0.10827021 0.19206314 0.13081156 -0.0024885333 0.13308854 -0.043017868 0.104366414
-0.0011446278 0.20457216 -0.13879262 -0.24815285 0.3764203 0.2213133 0.006630328 -0.11372252
-0.001578858 -0.24147394 -0.21511362 -0.28329825 -0.16967168 -0.062852554 -0.08323404 -0.08709086
-0.15792482 -0.058258586 0.09536455 0.16955517 -0.03339448 0.056542702 0.12499888 0.07940199
0.11820596 0.02176821 0.03033056 0.04645588 0.030175932 0.018814169 0.017741308 0.02113357
0.02219632 0.011596637 0.00924524 0.02075735 0.01686742 0.018814715 0.025645044 0.032008305
0.03463691 0.02895333 0.052051418 0.02734302 -0.0803834 0.10674341 -0.034363583 -0.033881865
0.025148423 -0.034947995 -0.004888457 0.04344509 0.097586356 -0.025244705 -0.03531711 0.02572572
0.023652812 -0.08675038 0.03371163 0.008840447 -0.09515985 0.0363362 0.08666386 -0.03409828
-0.266939 0.5787558 0.36900327 0.099645846 -0.16572984 -0.157973 -0.09020108 0.20726034
0.0058583394 0.0154700605 -0.09094725 0.054117963 -0.0097207865 -0.1124413 -0.05773622 -0.05091638
0.0057453867 -0.103459515 -0.058683723 -0.011455955 -0.20638244 -0.029755773 0.0044963425 -0.054481782
0.08643174 0.17688227 -0.0020493253 0.047688384 -0.056805458 -0.031158557 0.03187043 0.24510758
0.029582128 0.105792776 -0.082941025 0.13238937 -0.18812963 0.051661134 -0.15806782 -0.101895146
0.17094453 0.17249121 -0.08050608 -0.028630802 0.20619991 0.019157324 -0.16270031 0.06372128
-0.018836752 -0.12235089 -0.096252486 -0.1148827 0.007980521 -0.23172085 -0.058306523 -0.05122268
-0.08652605 -0.12713067 -0.04024767 -0.065329686 -0.21842076 -0.10901037 -0.08624535 0.088458486
0.21189521 0.025419489 -0.022897 -0.06439495 -0.063671686 -0.05675729 -0.027766604 0.07678573
0.08162332 0.07836992 0.03554019 0.030355368 0.122846894 0.11480781 0.42977223 0.5130373
0.073368184 0.06489572 0.009298312 0.023387777 -0.0149480505 0.00082515186 -0.004294862 -0.03389813
-0.007349029 -0.05615095 0.023119874 -0.051946897 0.01594546 -0.05406495 0.08748531 -0.095012

1.l0.bias f4 [222]
00000000: dffb 513e 3499 82bf 4c9e 3ebc 0eec 0a40
00000010: 9219 9cbf f130 be3e 5e88 88c0 e25b e73e
00000020: 1235 5f3e 60b0 343f 8cde 563f f380 683e
00000030: 3cde 573e 2577 943f 4be6 843f 4aa0 033e
00000040: 895c 7cbf 2223 1f3f 8e5f 2abe 3eb4 74bc
00000050: 0505 81bf 3978 05c0 c20f 7fbf 3aac 2a3e
00000060: 7986 82bc dad6 cf3d b1eb 84be 5bd1 f23d
00000070: 284d 6f3f adf1 1abe 7952 463e bafa f93f
00000080: 3a22 e9bf 9a54 983e 3f57 ac3f bb93 963f
00000090: 97ba e8be b75d 433d 5fee 253f 6853 883f
000000a0: 9cf6 093f e2f4 a1bf 5494 b13e 6036 5bc0
000000b0: 1403 fbbd 3ce8 94bf beab 37bf aed1 2d3f
000000c0: 1ddf e8bf 8fc1 d03e 9e2d bdbd 88ea eb3e
000000d0: 639b e13f d5f6 40be 6436 24bf ee83 393f
000000e0: 909c 0140 4ecd 0c40 1bf4 353f 184a a63e
000000f0: 1608 73bf 8dff 693d a4f9 d03f e765 023f
00000100: 3630 283e 0dcc 9e3f 6dfd 00bf 4a6f e4bf
00000110: d301 ab3e 2480 cf3f 1cbd b5be 1a36 99bd
00000120: eb8d b7bf f0f5 503e 7c29 943e 12c3 cdbf
00000130: 1936 f1bf 09b8 8e3f 6a53 2bbf a078 e8bf
00000140: 5571 a7be d645 643e c84a d4be 3d17 3bbd
00000150: 39cd 6cbf dbe1 dc3e d820 8cbe 5903 bf3f
00000160: 7c9a 82be c15d 713e 1694 353e d0db 983d
00000170: a1d6 adbf 01a5 36be 0b3c f13d 9ea8 84bf
00000180: ec53 a9bf df56 233f 8924 de3d 1983 d33f
00000190: 43f4 a9bd 0bee 523f 6730 603f 79e5 103d
000001a0: 55c3 c83d 3111 1440 06c5 14c0 4134 ab3f
000001b0: 1570 a83d d79e 22bf 9812 8b3f 78df 0040
000001c0: 5cf0 8fbd 3d35 753e 45f7 d7bf b86f febf
000001d0: af23 48bf da7f 243e ae7b 64bf a824 2e3f
000001e0: a5a5 14be 0fff 203e c3fc a93e 49c0 863f
000001f0: 6795 0d3f 4356 05bc 7c85 213e 606c ec3f
00000200: cb88 e9bd ba51 e63e 9525 633f b647 5ebe
00000210: 408c 023e 6190 01bf 170d 30c0 59bb 623f
00000220: e65f 79bb 9fa0 b9bf 8f9e 233f 1ab2 bfbe
00000230: 9111 033e 0d99 533e dd2b b9bf 85a1 c63e
00000240: 3b1c 60bf e80e 89be 32c5 463f 5b19 713f
00000250: 938b c23e ce4e 283e 819c 2fbf cdb4 383f
00000260: 2571 d5bf 2858 c5bf cbd8 873f 039d 1140
00000270: eaab bfbf ae5e c7bc f356 6c3e 7e04 59be
00000280: efac 56bf f0df 6c3e 5e6f 573f b4fb cb3f
00000290: 7696 e03d ecfb b83f d1f7 6abf 71a1 4ebf
000002a0: e4e4 e03e 4ecc 80bf c93b f7bd fa89 92be
000002b0: d028 ca3b 391f 203e 8c78 2f3d dfce fd3e
000002c0: 48de 4fbe bb15 35c0 877a b4bf 3e3c 09bf
000002d0: d49d b7bf fd8b 38bf af40 35be 0c0f cabf
000002e0: 0c81 2fbf 2e96 343c 8f99 16c0 13d0 303f
000002f0: de78 5c3e b5d1 273f fd0c 963e fc33 efbf
00000300: ab7d bbbe 32c0 74bf 473b 433f 5466 94bf
00000310: 3410 f5bf 277e 003e 9ac4 043d de0b fabf
00000320: 18c7 863e 1a63 c73e 3beb bbbe 378e 74be
00000330: 809b abbf 4f71 823e 8678 a43e 49b7 76bf
00000340: f0df 383f 31b4 9c3f 4423 1240 7608 e43e
00000350: 60be 6bbf 77ff 7d3f 45c7 8739 ce46 513e
00000360: 2055 99bf 2133 953f 7e3a 37bf 72c3 803f
00000370: 0192 9ebf 272b b8bc
0.20506237 -1.0203004 -0.011634421 2.1706576 -1.2195303 0.37146714 -4.2666464 0.4518729
0.21797588 0.70581627 0.8393333 0.2270544 0.2108087 1.159886 1.038278 0.12854114
-0.985787 0.62162983 -0.16638014 -0.014935551 -1.0079657 -2.0854628 -0.9963342 0.16667262
-0.015933262 0.101484016 -0.25961068 0.11856338 0.93477106 -0.15131254 0.19367398 1.9529641
-1.821357 0.29752046 1.3464125 1.1763834 -0.45454857 0.047696795 0.6481685 1.0650454
0.5389192 -1.2652857 0.34683478 -3.4251938 -0.122564465 -1.1633372 -0.7174643 0.6789807
-1.8193089 0.40772673 -0.092372164 0.4607737 1.7625545 -0.18844159 -0.64145494 0.72466934
2.0251808 2.2000308 0.710756 0.32478404 -0.94934213 0.057128478 1.6326184 0.5093674
0.16424641 1.2406021 -0.503867 -1.7846463 0.3339983 1.621098 -0.35495842 -0.07481022
-1.4340185 0.20406318 0.289379 -1.6075156 -1.8844634 1.1149913 -0.66924155 -1.8161812
-0.32703653 0.22292265 -0.41463304 -0.04567646 -0.92500645 0.43141064 -0.27368808 1.4922897
-0.25508487 0.2357092 0.17732272 0.07463801 -1.3581125 -0.17836381 0.117790304 -1.0363958
-1.3228736 0.6380443 0.10846812 1.6524383 -0.08298542 0.82394475 0.87573856 0.035375092
0.09802882 2.3135493 -2.3245254 1.3375322 0.08224503 -0.6352362 1.0865049 2.0136395
-0.07028267 0.2394609 -1.6872336 -1.9877844 -0.7817945 0.16064397 -0.8925122 0.68024683
-0.14516313 0.15722297 0.33200654 1.0527431 0.55306095 -0.008138242 0.15773576 1.8470573
-0.11403044 0.44984227 0.8872922 -0.21707043 0.12748814 -0.5061093 -2.750799 0.8856712
-0.0038051545 -1.4502143 0.63913816 -0.37440568 0.1279967 0.20663853 -1.4466511 0.38795105
-0.87543076 -0.26769185 0.77644646 0.94179314 0.37997112 0.16436312 -0.6859818 0.7215088
-1.6675154 -1.5417528 1.0613035 2.2752082 -1.4974339 -0.024337139 0.23080043 -0.2119312
-0.83857626 0.231323 0.8415431 1.5936189 0.10966198 1.445188 -0.9178439 -0.8071509
0.4392463 -1.0062349 -0.1207195 -0.28620893 0.006169416 0.1563691 0.04283957 0.49571893
-0.20299637 -2.8294513 -1.4099892 -0.5360755 -1.434504 -0.72088605 -0.17700456 -1.5785842
-0.68556285 0.011022134 -2.3531225 0.69067496 0.21530482 0.6555436 0.29306784 -1.8687739
-0.36619315 -0.95605767 0.76262325 -1.1593728 -1.914557 0.12548123 0.032414056 -1.9534872
0.2632377 0.38942796 -0.36702904 -0.23882376 -1.340683 0.25477073 0.32123202 -0.9637342
0.722167 1.224249 2.2834024 0.44537705 -0.92087364 0.99217933 0.00025897674 0.20437166
-1.1979103 1.1656228 -0.71573627 1.0059645 -1.2388307 -0.022481514

1.l1.weight f4 [193, 222]
00000000: 07cd 943c 8c2a 233d a226 703d f725 05bf
00000010: 7f16 3bbe a53b 73bc 3d86 cbbd e830 483d
00000020: 2361 2dbf 3eb9 3cbd 2d89 b9bd d9c5 763c
00000030: 78b6 f33d a5a0 bb3d ba3c 123f 70b6 123e
00000040: 4196 09bd 51f5 0c3e 96a5 043d 46ef 84be
00000050: 43d9 183c ce9d b7be 2e20 2abd 7f2e dd3d
00000060: 0c64 abba 066e fc3d 0511 ecbb d51a 67bf
00000070: dc65 a5be c23d 1c3d 4491 713d 0665 22bf
00000080: c672 babe 5458 993d 44c8 fabe a95a a1bd
00000090: 35ce 10bd e4d9 43bf efbe 8c3d 21ca 45bd
000000a0: 1f34 7d3c 2e17 81bd be85 813c 0859 923e
000000b0: 014b 28bf c683 75bd 2d27 1dbe 04c7 063e
000000c0: 35be 0cbf 1a8f 3b3c f46e 6f3e 96a7 89bc
000000d0: f2ec fdbe 6e91 9d3b aafb f73d fa96 d1bd
000000e0: 83f6 05be 53a5 1dbf 6d49 3d3d e1d3 2c3d
000000f0: 926e 6a3d a10c d33d 3dac 89be f2a5 c6bb
00000100: b4a4 373e 9f74 3bbe 7ddb 89be d07e 16bf
00000110: 7c96 223b ee5a 4b3c 0659 2fbd 4fdf b03d
00000120: 01ed 56bc dae6 193e 00f1 8e3d 1731 593f
00000130: 1402 a1be 127a 243f f2e7 923d 0e6d 9cbe
00000140: e5a2 f8bc a335 27bd 386c 763e 4827 bcbe
00000150: 6ba0 6cbf 7603 023d 8609 003d 2052 cbbd
00000160: e0dd 17bc f19a d63c f8b7 27bf 7ccb 3ebd
00000170: 01e4 c4be aa6f ecbe 22b6 603d fe8a c4bc
00000180: 82f0 8b3e 8048 5dbc 3fe6 f03d ea72 b1bd
00000190: fc84 e0be 014d 123e ba4c 1f3f 8529 56be
000001a0: a7b5 053e af90 4ebf 55be 3d3e 4312 873e
000001b0: 4ad0 35bf 4c79 73bd f13d 67bf 5c9a 13be
000001c0: 008c 66be 2042 233e 5763 a8bd 2a7e 37bd
000001d0: 4f97 a93b 7eca adbe c72c 5d3d 3deb 803d
000001e0: 1ce2 d0be bb15 3abf d5fc 823d 89c4 7b3e
000001f0: cab4 843d dbd5 c6bd bc71 233e a929 0fbf
00000200: db59 3f3d 69e9 9e3d 8979 9a3c 84d9 e9bd
00000210: dae2 693d 65ee 53bf a40c cfbd 1c97 4bbc
00000220: 888e d6be 934d dcbd 9dfb ec3d 14e3 debf
00000230: ac1b 9abe 14d2 72bd bc78 96bd e5f9 773d
00000240: 15d4 243e b940 f2be 4a7e 503e f3de 953c
00000250: 4106 813d fcd2 29bf a32f dabc cf9b 0cbe
00000260: 031a bfbe ce02 bd3b f901 463d 4d96 0dbf
00000270: 9b27 53bd fdc9 a6be 90d6 0e3d 15b8 61bf
00000280: 737e 13be c7a4 ecbb bdb6 d8be d162 34bf
00000290: 3f23 d73d 56ea c13d 2f20 9f3d f161 8b3d
000002a0: 72f3 2fbc 81fe b23d b6c9 b8be b502 f1bf
000002b0: 90c0 4f3d ba4e f83d fa9b 983e 2725 6cbc
000002c0: eb3b 113e 97c9 99be da52 17be 0a4e a7be
000002d0: f9b7 70be c708 013e c3a7 3ebd cceb 923c
000002e0: dcd5 c9bd 480e 4abf bcfc 22bb 8cd0 c03d
000002f0: cec2 57bd 3adf 323d cb82 e9bd 4094 7fbc
00000300: e834 f7bd 241e a7bc bfc3 37be 99da 25be
00000310: 3125 6bbf 7548 573d 476e 8c3d 37c9 7bbe
00000320: 3fdc 453e bf91 29be d58b 12bc 20d0 c03d
00000330: 6675 b7bd c098 1ebe 8e15 1dbd 6c52 a3be
00000340: 0a42 11be 77e1 20be af8e 3ebf c716 ec3e
00000350: 46c5 2ebf b6aa b6bb 1333 5bbf 65df 293e
00000360: 3f33 2ebe 31b9 89be f6a2 8abf ab01 e3bc
00000370: 8d06 06be 9a37 35bf 0307 ad3b d33b 733d
00000380: 9120 00bb 24e1 1739 9062 643b 8aa9 c8bb
00000390: 6c12 8cbc d91d cebb 1fb9 393b 77eb 5fbb
000003a0: c934 9cbb 2bf1 77ba 9552 073b 0c74 cbba
000003b0: 3b82 ae39 bca3 3539 622f 303c adb1 9f3a
000003c0: 1d6e a2bd fbee d13a 6cc0 92bd f908 41bf
000003d0: aecb 81bd 684a b63b 9274 3fbd 7332 bd3a
000003e0: 5edd 523d ad44 863b da7b aa39 360f d23b
000003f0: 5a33 6dbb c3db 903a 1279 28bf 654c 5fbc
0.01816417 0.039835498 0.058630593 -0.52011055 -0.182703 -0.014845763 -0.09937713 0.048874766
-0.67726344 -0.0460751 -0.09059367 0.015061819 0.119000375 0.091615 0.5712391 0.14327407
-0.03359056 0.13765456 0.032384478 -0.259638 0.009329143 -0.35862583 -0.041534595 0.10799884
-0.0013076081 0.12325673 -0.0072041773 -0.9027532 -0.32304275 0.038144834 0.058976427 -0.634354
-0.3641569 0.074875504 -0.48980916 -0.0787862 -0.035352904 -0.7650435 0.06872355 -0.04828847
0.015454321 -0.06303249 0.015810844 0.2858355 -0.65739447 -0.059940122 -0.15346976 0.13161856
-0.5497773 0.011447692 0.23382169 -0.016803544 -0.49594837 0.0048085963 0.12108548 -0.102338746
-0.13082318 -0.6158039 0.046212602 0.04219425 0.057234354 0.10305143 -0.2688922 -0.0060622627
0.17933923 -0.18306206 -0.2692527 -0.5878725 0.0024808934 0.012411816 -0.04280951 0.08636343
-0.01311803 0.15029469 0.06979561 0.8484053 -0.31446898 0.64248765 0.07173146 -0.30551952
-0.030351112 -0.040822636 0.2406472 -0.3674872 -0.9243228 0.03174158 0.031259082 -0.099277735
-0.009269208 0.026196929 -0.6551509 -0.046580777 -0.38455203 -0.46178943 0.054861195 -0.023992058
0.2733193 -0.013506055 0.11762666 -0.08664496 -0.4385146 0.14287187 0.6222645 -0.20914276
0.13057576 -0.8068952 0.18529637 0.2638112 -0.7102095 -0.05944185 -0.9032889 -0.14414352
-0.22514343 0.15943193 -0.082220726 -0.044798054 0.005175508 -0.33943552 0.05399778 0.06294868
-0.40797508 -0.7268941 0.0639588 0.24586691 0.06479795 -0.097087584 0.15961355 -0.55922943
0.046716552 0.07759363 0.01885678 -0.11418441 0.057101108 -0.82785636 -0.10109833 -0.012426164
-0.41905618 -0.107569836 0.11571429 -1.7413049 -0.30099237 -0.059282377 -0.07347247 0.060541052
0.16096528 -0.47315004 0.20360675 0.018294787 0.06300021 -0.6633756 -0.026634043 -0.13731311
-0.37324533 0.0057681566 0.048341725 -0.55307466 -0.051551443 -0.3257598 0.03487259 -0.8817151
-0.14403705 -0.0072217914 -0.42326918 -0.7046328 0.105047695 0.09468524 0.077698104 0.0680579
-0.010739194 0.08739949 -0.36091393 -1.8828951 0.05072075 0.12124391 0.298065 -0.014413155
0.14183013 -0.30036613 -0.14777699 -0.32676727 -0.2350768 0.12601005 -0.04654671 0.017934702
-0.098552436 -0.7892804 -0.002486988 0.09414777 -0.052676015 0.043669917 -0.114019 -0.01559931
-0.12070638 -0.020400114 -0.17945765 -0.1619667 -0.91853625 0.052559335 0.06856971 -0.24588476
0.19322298 -0.16559504 -0.008944471 0.09414697 -0.08957939 -0.15487957 -0.038350634 -0.3189882
-0.14185348 -0.15711008 -0.7443647 0.46111128 -0.68269765 -0.0055745495 -0.8562481 0.16589125
-0.17011736 -0.26899102 -1.0830982 -0.027710756 -0.13088436 -0.70787966 0.005280377 0.059383225
-0.001955066 0.00014484354 0.0034848787 -0.0061237263 -0.017098628 -0.006290179 0.00283391 -0.0034167448
-0.0047670347 -0.0009458239 0.0020648588 -0.0015522256 0.00033284895 0.00017322501 0.010753484 0.0012183689
-0.07931159 0.0016016656 -0.07165608 -0.75404316 -0.06337677 0.005563069 -0.04674203 0.0014434591
0.051480643 0.0040975423 0.00032517203 0.0064105047 -0.0036193938 0.0011051822 -0.6580974 -0.013629054

1.l1.bias f4 [193]
00000000: dadc 153f 9a09 1940 a73c 31bf 3094 9b3e
00000010: 795d cf3f af6a bf3f 8571 77bf ffc2 c03f
00000020: 87ea be3f a83c f83f 74e8 be3e 427d 1e3f
00000030: 6a1a 3c3e 9918 5e3e f948 c63c f195 1340
00000040: 1f2d bf3f 6e45 eb3e ee38 c43f 1e60 a63f
00000050: 776f 0340 a4e1 1a40 28e9 9c3f 51e7 d93e
00000060: d55c 1cbe fa1c b93f f7da ff3f 81bd aa3f
00000070: 9b97 1240 e91c 0440 6e63 653e 00cc c6bf
00000080: acfe 183e e976 b63f a855 8abf ac0e 1040
00000090: 4b4c 52bd 15b2 12c0 2645 8a3e 22d8 a03e
000000a0: 1da5 0a3f 54d8 4ec0 8d02 e43e e1a8 ef3e
000000b0: 05c4 ba3f c999 b73f b868 bc3f 745a a2be
000000c0: 3fdc f8bf 977d b53f 2c64 0b3f 20f9 0340
000000d0: 38ba 1540 d11e acbf ebaf 0d40 8ba7 0740
000000e0: d492 7ec0 a8e5 b03f a690 b73f b11c 01bf
000000f0: dbdb 1a3f 8b22 d93e b042 1f3e 1cac d73e
00000100: b10f 0040 3382 ca3d 762c 04be 57fb c93e
00000110: df96 a43f 6a04 0f40 f65f acbf 053a fa3e
00000120: d443 0940 5bd6 773f e9c9 1040 d29a 0440
00000130: 68a4 9a3e 0e84 1cc0 33d9 0240 1988 ab3f
00000140: 8c09 e2bf c78e c5bd 292f b53f 02d0 ea3e
00000150: 3043 b03f 58a2 a6bd 6053 3d3e 8a09 1540
00000160: 00e6 0240 a7cb b23f 28e7 aa3f 69aa ccbe
00000170: a39f 0040 3eb7 0f40 4e3e 8fc0 f898 2fc0
00000180: 6a59 0240 ffb2 bd3f 7473 aebf 6e75 ab3f
00000190: 26ee b43f a8d4 af3f 240a ccbe 0b0f 1340
000001a0: 07e4 ab3f 5908 b03f ea5c 8ec0 e024 403f
000001b0: 625d 1540 a39b 0140 7406 b7c0 435d ce3e
000001c0: f29a b03f 302d fd3e 5699 02c0 33ac 053f
000001d0: d9a3 76c0 656e 5fbd a00e ba3f 7c29 803e
000001e0: 227a 9b3f 6c0c 0d40 3fa8 08be 860a 893e
000001f0: 6a1a 43c0 d2f8 d9bf ec96 ac3f 3fdd 0240
00000200: 18de b83f a7a8 0340 7f28 a23e 4e1f a33e
00000210: cfa9 10c0 b676 453e 39ad 903e 10b1 af3f
00000220: 5825 993f 75d2 be3f 6499 b83f 8a29 0440
00000230: fda7 b5bf fba4 be3f f447 f33e ff4e 64be
00000240: be91 10bc cd07 b33f ae22 45bf 9d56 1a40
00000250: 6d10 7b3d ed67 15c0 2e2e 0940 f392 b63f
00000260: 948d ad3f 33f9 1ec0 5163 0c3f a05b 1a40
00000270: 4b18 213f 0efb b53e 58eb bf3f c79c 513f
00000280: 832c c33f c447 1340 612b e73e 0296 c73e
00000290: 0c5e 1a40 1e80 653e c564 1840 d941 c03f
000002a0: 7e52 bb3f 65c5 a03e c936 19c0 f015 a63f
000002b0: dbce 9a3e 15fd 0440 0feb 58c0 ba6d 1340
000002c0: ef45 27c0 6d61 04bd 2c83 bc3f c6ee 97c0
000002d0: 62a4 143f 5a60 85bd 3837 b83f d106 bb3f
000002e0: e30e 913f 28df c03f 9169 7ec0 aefa c53f
000002f0: acb2 683e 0826 a73f b28b bb3f 1bc1 87be
00000300: 9083 cd3d
0.5854012 2.391211 -0.69233173 0.30386496 1.62004 1.4954432 -0.9665759 1.5059508
1.4915322 1.9393511 0.37286723 0.6190988 0.18369451 0.21689071 0.024204718 2.3060267
1.4935645 0.45951408 1.5329874 1.2998083 2.0536783 2.420022 1.2258654 0.42559293
-0.15269788 1.4461968 1.9988698 1.3339082 2.2905033 2.0642645 0.2240121 -1.5531006
0.149409 1.4255038 -1.080739 2.2508955 -0.05134229 -2.2921193 0.2700588 0.31414896
0.5415819 -3.2319536 0.44533196 0.46808532 1.459107 1.4343807 1.4719458 -0.31709635
-1.9442214 1.4178952 0.54449725 2.0620804 2.339491 -1.3446904 2.2138622 2.119601
-3.9777117 1.3820086 1.4341018 -0.50434405 0.6049172 0.42409167 0.15552783 0.42123497
2.0009577 0.09888115 -0.12907586 0.3944957 1.2858542 2.2346444 -1.3466785 0.4887239
2.144765 0.96811455 2.2623236 2.0719495 0.30203557 -2.44556 2.0445068 1.3400909
-1.7659163 -0.09646373 1.4155017 0.45861822 1.3770504 -0.08136433 0.18488836 2.3287072
2.045288 1.39684 1.3351793 -0.39973763 2.0097435 2.2455592 -4.4763556 -2.7437115
2.0367074 1.482025 -1.3628983 1.3395212 1.4135177 1.3736773 -0.39851487 2.2977931
1.3428963 1.3752548 -4.448842 0.75056267 2.3338246 2.0251243 -5.7195377 0.40305528
1.3797286 0.49448538 -2.040609 0.5221588 -3.8537505 -0.05454864 1.4535713 0.2503165
1.2146647 2.2038832 -0.13345431 0.2676584 -3.0484872 -1.7029059 1.3483558 2.0447538
1.4442778 2.0571687 0.3167152 0.3185982 -2.2603643 0.19283566 0.28257158 1.372591
1.1964521 1.4907976 1.4421811 2.0650353 -1.4191891 1.4894098 0.47515833 -0.2229576
-0.00882381 1.3986756 -0.7700604 2.4115365 0.06129496 -2.3344681 2.1434436 1.4263595
1.3558831 -2.48396 0.54839045 2.4118423 0.62927693 0.35543102 1.4993696 0.8187985
1.5247959 2.3012552 0.45150283 0.38981634 2.4119902 0.22412154 2.3811505 1.5020095
1.463455 0.314006 -2.3939688 1.2975445 0.30235943 2.077947 -3.3893468 2.3035722
-2.6136434 -0.032319475 1.472753 -4.747897 0.5806333 -0.06512518 1.4391851 1.4611455
1.1332668 1.5068102 -3.9751933 1.5467126 0.22724408 1.3058481 1.4652007 -0.26514515
0.10034859

1.l3.weight f4 [1, 193]
00000000: e025 4a3f 819b 423d 8486 aebe 6abd 873d
00000010: 3ac2 dcbd 269c bbbd c747 58bf 6166 d6bd
00000020: cfbc cdbd 9806 053d 5342 643d e620 4a3f
00000030: 3910 3a3e 424c bf3f fa7e d4bf f63f 4a3d
00000040: cf27 e2bd 5e53 563d f710 04be 5101 91bd
00000050: 8c69 063d 48d7 603d c7f1 28be 97b8 d53d
00000060: f467 b4bf 8f3f d1bd 1cf4 123d 25dd 94bd
00000070: 470e 3a3d 9991 063d 2552 b73d 37c1 153f
00000080: 50ce 01bf c73c 9abd 29ed 913c 3361 483d
00000090: f96c 0ebc b4f2 11ba e5e4 d5bd 7a3c a93d
000000a0: 35e4 ca3f 7e9b c93d 2ba9 013f ebb9 6abe
000000b0: 6513 dabd c30a dbbd cf75 e8bd aa25 e13b
000000c0: 9e63 1f3f 444e d4bd 10e1 463f b1ec e83c
000000d0: 2bbb 413d 42e0 1ebc d09a 613d 908d 183d
000000e0: 5d32 ccbc f78d cabd fa5a cebd 3422 3a3f
000000f0: b3e2 fc3e e4a8 9a3f 3c5d a93f b271 3b3f
00000100: 00e4 083d b030 083e 3f01 bcbf 5214 0d3e
00000110: 1cf5 febd 21d4 6b3d 8640 81bb 1f89 793d
00000120: 5c7f 3b3d a22b 5f3d 0d8f 433d e7e7 263d
00000130: 4ad2 1340 fe1e 05bc 42a1 233d 7cf0 dfbd
00000140: f5a3 56bf f4b3 8dbf 9cc0 e0bd 7d62 c63f
00000150: 11c6 cebd 77d6 82bf e93e 0fbf 7c79 423d
00000160: a428 0b3d a66d aebd 3cb0 9cbd 8264 89bf
00000170: c709 253d 9321 473d ad25 f2bc 84b7 043e
00000180: 9f83 f73c e7cc 00be f5b0 543f 8d67 8bbd
00000190: 7ef6 00be 1827 c1bd f623 66bf 1124 453d
000001a0: 3503 8fbd e80c b1bd 0ca2 90bc dd9d f43f
000001b0: 6572 4e3d 48b4 1e3d dd7a 36bb 1ac9 7dbf
000001c0: b2b2 eabd 7db2 b33f 96c4 1dbc c2e1 993f
000001d0: 22b4 12bc 01ca cb3f 9b88 c7bd 6d98 c43d
000001e0: a524 c1bd 83b3 413d 7bb1 cdbf d49a b33e
000001f0: 1f9f 5e3e c4c4 14bf 6427 a3bd bd16 313d
00000200: 662c b2bd 0d78 0a3d ff39 0e3e 0caa 423d
00000210: b9ed ffbb 3a7c 15bf 5c2f b93e 2f20 b2bd
00000220: 8342 04be acfc abbd 2646 b9bd 4b4f 2f3d
00000230: 9051 2d3f f87a bfbd 9d8c 9c3f 3147 a9bf
00000240: b99b 29bf da72 f3bd a626 3bbf ebf6 3e3d
00000250: 6c86 a4bf b61f 903e 41b9 053d a42e c5bd
00000260: a18d 08be 3d13 223f 7a7f 663f cba1 423d
00000270: 1698 053f 7012 8a3d 91a2 cdbd 5be3 2f3d
00000280: 2e2a b4bd 58e3 393d 77b4 78bf 5fdc 8cbe
00000290: 52f5 333d e46a d23e ca7a 473d 7940 b1bd
000002a0: 1dc7 513d d6b3 553d 6ebf b23e d182 94bd
000002b0: 6a53 b13f 6972 7a3d 0e41 043e e9d1 423d
000002c0: faf5 9e3e 1130 fabe b93b cfbd a9f3 c1bc
000002d0: 25c7 c23e 5e29 0cbd ee53 c9bd 7f24 c9bd
000002e0: 09c8 b4bd d086 e3bd 0ce5 94bc 12dc f3bd
000002f0: 970b 893f 9ad6 c4bd e2e7 c1bd 555e 8cbc
00000300: ec28 b6be
0.7896404 0.04751158 -0.34087002 0.06627925 -0.10779233 -0.09160642 -0.84484524 -0.10468746
-0.10045778 0.03247699 0.055727314 0.7895645 0.18170251 1.4945147 -1.660125 0.049377404
-0.11042749 0.0523256 -0.12897097 -0.07080329 0.0328155 0.05489281 -0.1649848 0.10435598
-1.4094224 -0.10217201 0.035877332 -0.072687425 0.045423772 0.032853696 0.08951215 0.5849795
-0.5070543 -0.075311236 0.017813282 0.04892082 -0.008692973 -0.00055674766 -0.10444049 0.08263488
1.5850893 0.09844111 0.50648755 -0.22922485 -0.106482305 -0.10695412 -0.11350595 0.006870945
0.6226138 -0.103664905 0.7768717 0.028433176 0.047297638 -0.009697022 0.05507928 0.03724438
-0.024926359 -0.09890359 -0.10075946 0.7270844 0.49391708 1.2082791 1.3231578 0.7322036
0.033420563 0.13299823 -1.468788 0.13777283 -0.12449095 0.05757535 -0.0039444594 0.060921784
0.045775756 0.05448497 0.047743846 0.040748503 2.30971 -0.008125065 0.03994871 -0.10934541
-0.8384393 -1.1070542 -0.10974237 1.5498806 -0.10096372 -1.02217 -0.5595537 0.047479138
0.033974305 -0.085170075 -0.076508015 -1.0733798 0.040292528 0.048616003 -0.02955898 0.1296063
0.030214129 -0.12578164 0.83082515 -0.0680686 -0.1259403 -0.09431285 -0.8989862 0.0481301
-0.069830336 -0.0864504 -0.017655395 1.9110676 0.050402064 0.03874615 -0.0027844228 -0.9913498
-0.11459865 1.4038845 -0.009629389 1.2022021 -0.00895408 1.5921022 -0.09742852 0.095993854
-0.094308175 0.047290336 -1.6069788 0.35079062 0.21740387 -0.5811274 -0.079664975 0.043234576
-0.086998746 0.033805896 0.13889311 0.04752545 -0.007810321 -0.5839268 0.36168945 -0.08697545
-0.12915997 -0.08397803 -0.09046583 0.04280023 0.6770258 -0.09349626 1.2230412 -1.3224851
-0.6625324 -0.118871406 -0.7310585 0.046622198 -1.2853522 0.28149194 0.032647375 -0.096280366
-0.13335277 0.63310605 0.90038264 0.04751758 0.5218519 0.06741798 -0.10040773 0.042941432
-0.08797108 0.045382828 -0.9715037 -0.2751188 0.043935128 0.41097176 0.048701085 -0.08654875
0.05121528 0.052173458 0.34911674 -0.07251514 1.3853581 0.061144266 0.12915441 0.047563467
0.3104704 -0.48864797 -0.10118813 -0.023675757 0.3804256 -0.03421914 -0.098304614 -0.09821414
-0.08827216 -0.11109698 -0.018175624 -0.119072095 1.0706662 -0.096112445 -0.09468056 -0.017134825
-0.35578096
